…
W0414 05:22:16.169878  4037 _caffe.cpp:140] Use this instead (with the named "weights" parameter):
W0414 05:22:16.169883  4037 _caffe.cpp:142] Net('/home/dennis/Desktop/cnn-caffe/models/model-02/model_deploy.prototxt', 1, weights='/home/dennis/Desktop/cnn-caffe/models/model-02/train_iter_6000.caffemodel')
I0414 05:22:16.368872  4037 net.cpp:51] Initializing net from parameters: 
name: "Model"
state {
  phase: TEST
  level: 0
}
layer {
  name: "data"
  type: "Input"
  top: "data"
  input_param {
    shape {
      dim: 1
      dim: 1
      dim: 28
      dim: 28
    }
  }
}
layer {
  name: "conv1"
  type: "Convolution"
  bottom: "data"
  top: "conv1"
  param {
    lr_mult: 1
  }
  param {
    lr_mult: 2
  }
  convolution_param {
    num_output: 16
    pad: 3
    kernel_size: 7
    stride: 1
    weight_filler {
      type: "xavier"
    }
    bias_filler {
      type: "constant"
    }
  }
}
layer {
  name: "relu1"
  type: "ReLU"
  bottom: "conv1"
  top: "conv1"
}
layer {
  name: "pool1"
  type: "Pooling"
  bottom: "conv1"
  top: "pool1"
  pooling_param {
    pool: MAX
    kernel_size: 2
    stride: 2
  }
}
layer {
  name: "conv2"
  type: "Convolution"
  bottom: "pool1"
  top: "conv2"
  param {
    lr_mult: 1
  }
  param {
    lr_mult: 2
  }
  convolution_param {
    num_output: 32
    pad: 2
    kernel_size: 5
    stride: 1
    weight_filler {
      type: "xavier"
    }
    bias_filler {
      type: "constant"
    }
  }
}
layer {
  name: "relu2"
  type: "ReLU"
  bottom: "conv2"
  top: "conv2"
}
layer {
  name: "pool2"
  type: "Pooling"
  bottom: "conv2"
  top: "pool2"
  pooling_param {
    pool: MAX
    kernel_size: 2
    stride: 2
  }
}
layer {
  name: "ip1"
  type: "InnerProduct"
  bottom: "pool2"
  top: "ip1"
  param {
    lr_mult: 1
  }
  param {
    lr_mult: 2
  }
  inner_product_param {
    num_output: 120
    weight_filler {
      type: "xavier"
    }
    bias_filler {
      type: "constant"
    }
  }
}
layer {
  name: "relu3"
  type: "ReLU"
  bottom: "ip1"
  top: "ip1"
}
layer {
  name: "ip2"
  type: "InnerProduct"
  bottom: "ip1"
  top: "ip2"
  param {
    lr_mult: 1
  }
  param {
    lr_mult: 2
  }
  inner_product_param {
    num_output: 50
    weight_filler {
      type: "xavier"
    }
    bias_filler {
      type: "constant"
    }
  }
}
layer {
  name: "relu4"
  type: "ReLU"
  bottom: "ip2"
  top: "ip2"
}
layer {
  name: "ip3"
  type: "InnerProduct"
  bottom: "ip2"
  top: "ip3"
  param {
    lr_mult: 1
  }
  param {
    lr_mult: 2
  }
  inner_product_param {
    num_output: 10
    weight_filler {
      type: "xavier"
    }
    bias_filler {
      type: "constant"
    }
  }
}
layer {
  name: "prob"
  type: "Softmax"
  bottom: "ip3"
  top: "prob"
}
I0414 05:22:16.368942  4037 layer_factory.hpp:77] Creating layer data
I0414 05:22:16.368957  4037 net.cpp:84] Creating Layer data
I0414 05:22:16.368970  4037 net.cpp:380] data -> data
I0414 05:22:16.368993  4037 net.cpp:122] Setting up data
I0414 05:22:16.369002  4037 net.cpp:129] Top shape: 1 1 28 28 (784)
I0414 05:22:16.369007  4037 net.cpp:137] Memory required for data: 3136
I0414 05:22:16.369011  4037 layer_factory.hpp:77] Creating layer conv1
I0414 05:22:16.369021  4037 net.cpp:84] Creating Layer conv1
I0414 05:22:16.369025  4037 net.cpp:406] conv1 <- data
I0414 05:22:16.369030  4037 net.cpp:380] conv1 -> conv1
I0414 05:22:16.780113  4037 net.cpp:122] Setting up conv1
I0414 05:22:16.780138  4037 net.cpp:129] Top shape: 1 16 28 28 (12544)
I0414 05:22:16.780143  4037 net.cpp:137] Memory required for data: 53312
I0414 05:22:16.780158  4037 layer_factory.hpp:77] Creating layer relu1
I0414 05:22:16.780167  4037 net.cpp:84] Creating Layer relu1
I0414 05:22:16.780172  4037 net.cpp:406] relu1 <- conv1
I0414 05:22:16.780177  4037 net.cpp:367] relu1 -> conv1 (in-place)
I0414 05:22:16.780321  4037 net.cpp:122] Setting up relu1
I0414 05:22:16.780329  4037 net.cpp:129] Top shape: 1 16 28 28 (12544)
I0414 05:22:16.780335  4037 net.cpp:137] Memory required for data: 103488
I0414 05:22:16.780340  4037 layer_factory.hpp:77] Creating layer pool1
I0414 05:22:16.780347  4037 net.cpp:84] Creating Layer pool1
I0414 05:22:16.780351  4037 net.cpp:406] pool1 <- conv1
I0414 05:22:16.780356  4037 net.cpp:380] pool1 -> pool1
I0414 05:22:16.780369  4037 net.cpp:122] Setting up pool1
I0414 05:22:16.780375  4037 net.cpp:129] Top shape: 1 16 14 14 (3136)
I0414 05:22:16.780378  4037 net.cpp:137] Memory required for data: 116032
I0414 05:22:16.780382  4037 layer_factory.hpp:77] Creating layer conv2
I0414 05:22:16.780392  4037 net.cpp:84] Creating Layer conv2
I0414 05:22:16.780395  4037 net.cpp:406] conv2 <- pool1
I0414 05:22:16.780400  4037 net.cpp:380] conv2 -> conv2
I0414 05:22:16.781024  4037 net.cpp:122] Setting up conv2
I0414 05:22:16.781035  4037 net.cpp:129] Top shape: 1 32 14 14 (6272)
I0414 05:22:16.781039  4037 net.cpp:137] Memory required for data: 141120
I0414 05:22:16.781047  4037 layer_factory.hpp:77] Creating layer relu2
I0414 05:22:16.781054  4037 net.cpp:84] Creating Layer relu2
I0414 05:22:16.781060  4037 net.cpp:406] relu2 <- conv2
I0414 05:22:16.781066  4037 net.cpp:367] relu2 -> conv2 (in-place)
I0414 05:22:16.781210  4037 net.cpp:122] Setting up relu2
I0414 05:22:16.781219  4037 net.cpp:129] Top shape: 1 32 14 14 (6272)
I0414 05:22:16.781222  4037 net.cpp:137] Memory required for data: 166208
I0414 05:22:16.781225  4037 layer_factory.hpp:77] Creating layer pool2
I0414 05:22:16.781230  4037 net.cpp:84] Creating Layer pool2
I0414 05:22:16.781234  4037 net.cpp:406] pool2 <- conv2
I0414 05:22:16.781237  4037 net.cpp:380] pool2 -> pool2
I0414 05:22:16.781244  4037 net.cpp:122] Setting up pool2
I0414 05:22:16.781250  4037 net.cpp:129] Top shape: 1 32 7 7 (1568)
I0414 05:22:16.781252  4037 net.cpp:137] Memory required for data: 172480
I0414 05:22:16.781255  4037 layer_factory.hpp:77] Creating layer ip1
I0414 05:22:16.781261  4037 net.cpp:84] Creating Layer ip1
I0414 05:22:16.781266  4037 net.cpp:406] ip1 <- pool2
I0414 05:22:16.781275  4037 net.cpp:380] ip1 -> ip1
I0414 05:22:16.782275  4037 net.cpp:122] Setting up ip1
I0414 05:22:16.782282  4037 net.cpp:129] Top shape: 1 120 (120)
I0414 05:22:16.782284  4037 net.cpp:137] Memory required for data: 172960
I0414 05:22:16.782291  4037 layer_factory.hpp:77] Creating layer relu3
I0414 05:22:16.782299  4037 net.cpp:84] Creating Layer relu3
I0414 05:22:16.782304  4037 net.cpp:406] relu3 <- ip1
I0414 05:22:16.782308  4037 net.cpp:367] relu3 -> ip1 (in-place)
I0414 05:22:16.782593  4037 net.cpp:122] Setting up relu3
I0414 05:22:16.782603  4037 net.cpp:129] Top shape: 1 120 (120)
I0414 05:22:16.782606  4037 net.cpp:137] Memory required for data: 173440
I0414 05:22:16.782609  4037 layer_factory.hpp:77] Creating layer ip2
I0414 05:22:16.782615  4037 net.cpp:84] Creating Layer ip2
I0414 05:22:16.782619  4037 net.cpp:406] ip2 <- ip1
I0414 05:22:16.782624  4037 net.cpp:380] ip2 -> ip2
I0414 05:22:16.782670  4037 net.cpp:122] Setting up ip2
I0414 05:22:16.782675  4037 net.cpp:129] Top shape: 1 50 (50)
I0414 05:22:16.782676  4037 net.cpp:137] Memory required for data: 173640
I0414 05:22:16.782682  4037 layer_factory.hpp:77] Creating layer relu4
I0414 05:22:16.782686  4037 net.cpp:84] Creating Layer relu4
I0414 05:22:16.782690  4037 net.cpp:406] relu4 <- ip2
I0414 05:22:16.782693  4037 net.cpp:367] relu4 -> ip2 (in-place)
I0414 05:22:16.782836  4037 net.cpp:122] Setting up relu4
I0414 05:22:16.782843  4037 net.cpp:129] Top shape: 1 50 (50)
I0414 05:22:16.782845  4037 net.cpp:137] Memory required for data: 173840
I0414 05:22:16.782848  4037 layer_factory.hpp:77] Creating layer ip3
I0414 05:22:16.782853  4037 net.cpp:84] Creating Layer ip3
I0414 05:22:16.782857  4037 net.cpp:406] ip3 <- ip2
I0414 05:22:16.782862  4037 net.cpp:380] ip3 -> ip3
I0414 05:22:16.782879  4037 net.cpp:122] Setting up ip3
I0414 05:22:16.782887  4037 net.cpp:129] Top shape: 1 10 (10)
I0414 05:22:16.782892  4037 net.cpp:137] Memory required for data: 173880
I0414 05:22:16.782902  4037 layer_factory.hpp:77] Creating layer prob
I0414 05:22:16.782908  4037 net.cpp:84] Creating Layer prob
I0414 05:22:16.782910  4037 net.cpp:406] prob <- ip3
I0414 05:22:16.782917  4037 net.cpp:380] prob -> prob
I0414 05:22:16.783059  4037 net.cpp:122] Setting up prob
I0414 05:22:16.783067  4037 net.cpp:129] Top shape: 1 10 (10)
I0414 05:22:16.783072  4037 net.cpp:137] Memory required for data: 173920
I0414 05:22:16.783077  4037 net.cpp:200] prob does not need backward computation.
I0414 05:22:16.783082  4037 net.cpp:200] ip3 does not need backward computation.
I0414 05:22:16.783087  4037 net.cpp:200] relu4 does not need backward computation.
I0414 05:22:16.783090  4037 net.cpp:200] ip2 does not need backward computation.
…
