…
W0414 05:19:37.137207  3854 _caffe.cpp:140] Use this instead (with the named "weights" parameter):
W0414 05:19:37.137209  3854 _caffe.cpp:142] Net('/home/dennis/Desktop/cnn-caffe/models/model-02/model_deploy.prototxt', 1, weights='/home/dennis/Desktop/cnn-caffe/models/model-02/train_iter_6000.caffemodel')
I0414 05:19:37.350184  3854 net.cpp:51] Initializing net from parameters: 
name: "Model"
state {
  phase: TEST
  level: 0
}
layer {
  name: "data"
  type: "Input"
  top: "data"
  input_param {
    shape {
      dim: 1
      dim: 1
      dim: 28
      dim: 28
    }
  }
}
layer {
  name: "conv1"
  type: "Convolution"
  bottom: "data"
  top: "conv1"
  param {
    lr_mult: 1
  }
  param {
    lr_mult: 2
  }
  convolution_param {
    num_output: 16
    pad: 3
    kernel_size: 7
    stride: 1
    weight_filler {
      type: "xavier"
    }
    bias_filler {
      type: "constant"
    }
  }
}
layer {
  name: "relu1"
  type: "ReLU"
  bottom: "conv1"
  top: "conv1"
}
layer {
  name: "pool1"
  type: "Pooling"
  bottom: "conv1"
  top: "pool1"
  pooling_param {
    pool: MAX
    kernel_size: 2
    stride: 2
  }
}
layer {
  name: "conv2"
  type: "Convolution"
  bottom: "pool1"
  top: "conv2"
  param {
    lr_mult: 1
  }
  param {
    lr_mult: 2
  }
  convolution_param {
    num_output: 32
    pad: 2
    kernel_size: 5
    stride: 1
    weight_filler {
      type: "xavier"
    }
    bias_filler {
      type: "constant"
    }
  }
}
layer {
  name: "relu2"
  type: "ReLU"
  bottom: "conv2"
  top: "conv2"
}
layer {
  name: "pool2"
  type: "Pooling"
  bottom: "conv2"
  top: "pool2"
  pooling_param {
    pool: MAX
    kernel_size: 2
    stride: 2
  }
}
layer {
  name: "ip1"
  type: "InnerProduct"
  bottom: "pool2"
  top: "ip1"
  param {
    lr_mult: 1
  }
  param {
    lr_mult: 2
  }
  inner_product_param {
    num_output: 120
    weight_filler {
      type: "xavier"
    }
    bias_filler {
      type: "constant"
    }
  }
}
layer {
  name: "relu3"
  type: "ReLU"
  bottom: "ip1"
  top: "ip1"
}
layer {
  name: "ip2"
  type: "InnerProduct"
  bottom: "ip1"
  top: "ip2"
  param {
    lr_mult: 1
  }
  param {
    lr_mult: 2
  }
  inner_product_param {
    num_output: 50
    weight_filler {
      type: "xavier"
    }
    bias_filler {
      type: "constant"
    }
  }
}
layer {
  name: "relu4"
  type: "ReLU"
  bottom: "ip2"
  top: "ip2"
}
layer {
  name: "ip3"
  type: "InnerProduct"
  bottom: "ip2"
  top: "ip3"
  param {
    lr_mult: 1
  }
  param {
    lr_mult: 2
  }
  inner_product_param {
    num_output: 10
    weight_filler {
      type: "xavier"
    }
    bias_filler {
      type: "constant"
    }
  }
}
layer {
  name: "prob"
  type: "Softmax"
  bottom: "ip3"
  top: "prob"
}
I0414 05:19:37.350250  3854 layer_factory.hpp:77] Creating layer data
I0414 05:19:37.350260  3854 net.cpp:84] Creating Layer data
I0414 05:19:37.350268  3854 net.cpp:380] data -> data
I0414 05:19:37.350284  3854 net.cpp:122] Setting up data
I0414 05:19:37.350291  3854 net.cpp:129] Top shape: 1 1 28 28 (784)
I0414 05:19:37.350292  3854 net.cpp:137] Memory required for data: 3136
I0414 05:19:37.350296  3854 layer_factory.hpp:77] Creating layer conv1
I0414 05:19:37.350304  3854 net.cpp:84] Creating Layer conv1
I0414 05:19:37.350307  3854 net.cpp:406] conv1 <- data
I0414 05:19:37.350314  3854 net.cpp:380] conv1 -> conv1
I0414 05:19:37.755466  3854 net.cpp:122] Setting up conv1
I0414 05:19:37.755491  3854 net.cpp:129] Top shape: 1 16 28 28 (12544)
I0414 05:19:37.755496  3854 net.cpp:137] Memory required for data: 53312
I0414 05:19:37.755511  3854 layer_factory.hpp:77] Creating layer relu1
I0414 05:19:37.755519  3854 net.cpp:84] Creating Layer relu1
I0414 05:19:37.755523  3854 net.cpp:406] relu1 <- conv1
I0414 05:19:37.755527  3854 net.cpp:367] relu1 -> conv1 (in-place)
I0414 05:19:37.755664  3854 net.cpp:122] Setting up relu1
I0414 05:19:37.755671  3854 net.cpp:129] Top shape: 1 16 28 28 (12544)
I0414 05:19:37.755674  3854 net.cpp:137] Memory required for data: 103488
I0414 05:19:37.755677  3854 layer_factory.hpp:77] Creating layer pool1
I0414 05:19:37.755683  3854 net.cpp:84] Creating Layer pool1
I0414 05:19:37.755686  3854 net.cpp:406] pool1 <- conv1
I0414 05:19:37.755690  3854 net.cpp:380] pool1 -> pool1
I0414 05:19:37.755704  3854 net.cpp:122] Setting up pool1
I0414 05:19:37.755710  3854 net.cpp:129] Top shape: 1 16 14 14 (3136)
I0414 05:19:37.755713  3854 net.cpp:137] Memory required for data: 116032
I0414 05:19:37.755715  3854 layer_factory.hpp:77] Creating layer conv2
I0414 05:19:37.755724  3854 net.cpp:84] Creating Layer conv2
I0414 05:19:37.755728  3854 net.cpp:406] conv2 <- pool1
I0414 05:19:37.755733  3854 net.cpp:380] conv2 -> conv2
I0414 05:19:37.756348  3854 net.cpp:122] Setting up conv2
I0414 05:19:37.756361  3854 net.cpp:129] Top shape: 1 32 14 14 (6272)
I0414 05:19:37.756364  3854 net.cpp:137] Memory required for data: 141120
I0414 05:19:37.756371  3854 layer_factory.hpp:77] Creating layer relu2
I0414 05:19:37.756377  3854 net.cpp:84] Creating Layer relu2
I0414 05:19:37.756381  3854 net.cpp:406] relu2 <- conv2
I0414 05:19:37.756383  3854 net.cpp:367] relu2 -> conv2 (in-place)
I0414 05:19:37.756515  3854 net.cpp:122] Setting up relu2
I0414 05:19:37.756522  3854 net.cpp:129] Top shape: 1 32 14 14 (6272)
I0414 05:19:37.756525  3854 net.cpp:137] Memory required for data: 166208
I0414 05:19:37.756528  3854 layer_factory.hpp:77] Creating layer pool2
I0414 05:19:37.756532  3854 net.cpp:84] Creating Layer pool2
I0414 05:19:37.756536  3854 net.cpp:406] pool2 <- conv2
I0414 05:19:37.756539  3854 net.cpp:380] pool2 -> pool2
I0414 05:19:37.756546  3854 net.cpp:122] Setting up pool2
I0414 05:19:37.756551  3854 net.cpp:129] Top shape: 1 32 7 7 (1568)
I0414 05:19:37.756553  3854 net.cpp:137] Memory required for data: 172480
I0414 05:19:37.756556  3854 layer_factory.hpp:77] Creating layer ip1
I0414 05:19:37.756561  3854 net.cpp:84] Creating Layer ip1
I0414 05:19:37.756566  3854 net.cpp:406] ip1 <- pool2
I0414 05:19:37.756569  3854 net.cpp:380] ip1 -> ip1
I0414 05:19:37.757570  3854 net.cpp:122] Setting up ip1
I0414 05:19:37.757576  3854 net.cpp:129] Top shape: 1 120 (120)
I0414 05:19:37.757578  3854 net.cpp:137] Memory required for data: 172960
I0414 05:19:37.757586  3854 layer_factory.hpp:77] Creating layer relu3
I0414 05:19:37.757591  3854 net.cpp:84] Creating Layer relu3
I0414 05:19:37.757593  3854 net.cpp:406] relu3 <- ip1
I0414 05:19:37.757596  3854 net.cpp:367] relu3 -> ip1 (in-place)
I0414 05:19:37.757863  3854 net.cpp:122] Setting up relu3
I0414 05:19:37.757872  3854 net.cpp:129] Top shape: 1 120 (120)
I0414 05:19:37.757876  3854 net.cpp:137] Memory required for data: 173440
I0414 05:19:37.757879  3854 layer_factory.hpp:77] Creating layer ip2
I0414 05:19:37.757884  3854 net.cpp:84] Creating Layer ip2
I0414 05:19:37.757889  3854 net.cpp:406] ip2 <- ip1
I0414 05:19:37.757892  3854 net.cpp:380] ip2 -> ip2
I0414 05:19:37.757930  3854 net.cpp:122] Setting up ip2
I0414 05:19:37.757935  3854 net.cpp:129] Top shape: 1 50 (50)
I0414 05:19:37.757936  3854 net.cpp:137] Memory required for data: 173640
I0414 05:19:37.757942  3854 layer_factory.hpp:77] Creating layer relu4
I0414 05:19:37.757946  3854 net.cpp:84] Creating Layer relu4
I0414 05:19:37.757949  3854 net.cpp:406] relu4 <- ip2
I0414 05:19:37.757952  3854 net.cpp:367] relu4 -> ip2 (in-place)
I0414 05:19:37.758083  3854 net.cpp:122] Setting up relu4
I0414 05:19:37.758090  3854 net.cpp:129] Top shape: 1 50 (50)
I0414 05:19:37.758093  3854 net.cpp:137] Memory required for data: 173840
I0414 05:19:37.758096  3854 layer_factory.hpp:77] Creating layer ip3
I0414 05:19:37.758100  3854 net.cpp:84] Creating Layer ip3
I0414 05:19:37.758103  3854 net.cpp:406] ip3 <- ip2
I0414 05:19:37.758107  3854 net.cpp:380] ip3 -> ip3
I0414 05:19:37.758119  3854 net.cpp:122] Setting up ip3
I0414 05:19:37.758123  3854 net.cpp:129] Top shape: 1 10 (10)
I0414 05:19:37.758126  3854 net.cpp:137] Memory required for data: 173880
I0414 05:19:37.758132  3854 layer_factory.hpp:77] Creating layer prob
I0414 05:19:37.758137  3854 net.cpp:84] Creating Layer prob
I0414 05:19:37.758141  3854 net.cpp:406] prob <- ip3
I0414 05:19:37.758143  3854 net.cpp:380] prob -> prob
I0414 05:19:37.758276  3854 net.cpp:122] Setting up prob
I0414 05:19:37.758283  3854 net.cpp:129] Top shape: 1 10 (10)
I0414 05:19:37.758286  3854 net.cpp:137] Memory required for data: 173920
I0414 05:19:37.758289  3854 net.cpp:200] prob does not need backward computation.
I0414 05:19:37.758292  3854 net.cpp:200] ip3 does not need backward computation.
I0414 05:19:37.758296  3854 net.cpp:200] relu4 does not need backward computation.
I0414 05:19:37.758298  3854 net.cpp:200] ip2 does not need backward computation.
…
