…
W0414 05:08:53.028587  3311 _caffe.cpp:140] Use this instead (with the named "weights" parameter):
W0414 05:08:53.028591  3311 _caffe.cpp:142] Net('/home/dennis/Desktop/cnn-caffe/models/model-01/model_deploy.prototxt', 1, weights='/home/dennis/Desktop/cnn-caffe/models/model-01/train_iter_6000.caffemodel')
I0414 05:08:53.234652  3311 net.cpp:51] Initializing net from parameters: 
name: "Model"
state {
  phase: TEST
  level: 0
}
layer {
  name: "data"
  type: "Input"
  top: "data"
  input_param {
    shape {
      dim: 1
      dim: 1
      dim: 28
      dim: 28
    }
  }
}
layer {
  name: "conv1"
  type: "Convolution"
  bottom: "data"
  top: "conv1"
  param {
    lr_mult: 1
  }
  param {
    lr_mult: 2
  }
  convolution_param {
    num_output: 16
    pad: 3
    kernel_size: 7
    stride: 1
    weight_filler {
      type: "xavier"
    }
    bias_filler {
      type: "constant"
    }
  }
}
layer {
  name: "relu1"
  type: "ReLU"
  bottom: "conv1"
  top: "conv1"
}
layer {
  name: "pool1"
  type: "Pooling"
  bottom: "conv1"
  top: "pool1"
  pooling_param {
    pool: MAX
    kernel_size: 2
    stride: 2
  }
}
layer {
  name: "conv2"
  type: "Convolution"
  bottom: "pool1"
  top: "conv2"
  param {
    lr_mult: 1
  }
  param {
    lr_mult: 2
  }
  convolution_param {
    num_output: 32
    pad: 2
    kernel_size: 5
    stride: 1
    weight_filler {
      type: "xavier"
    }
    bias_filler {
      type: "constant"
    }
  }
}
layer {
  name: "relu2"
  type: "ReLU"
  bottom: "conv2"
  top: "conv2"
}
layer {
  name: "pool2"
  type: "Pooling"
  bottom: "conv2"
  top: "pool2"
  pooling_param {
    pool: MAX
    kernel_size: 2
    stride: 2
  }
}
layer {
  name: "ip1"
  type: "InnerProduct"
  bottom: "pool2"
  top: "ip1"
  param {
    lr_mult: 1
  }
  param {
    lr_mult: 2
  }
  inner_product_param {
    num_output: 480
    weight_filler {
      type: "xavier"
    }
    bias_filler {
      type: "constant"
    }
  }
}
layer {
  name: "relu3"
  type: "ReLU"
  bottom: "ip1"
  top: "ip1"
}
layer {
  name: "ip2"
  type: "InnerProduct"
  bottom: "ip1"
  top: "ip2"
  param {
    lr_mult: 1
  }
  param {
    lr_mult: 2
  }
  inner_product_param {
    num_output: 200
    weight_filler {
      type: "xavier"
    }
    bias_filler {
      type: "constant"
    }
  }
}
layer {
  name: "relu4"
  type: "ReLU"
  bottom: "ip2"
  top: "ip2"
}
layer {
  name: "ip3"
  type: "InnerProduct"
  bottom: "ip2"
  top: "ip3"
  param {
    lr_mult: 1
  }
  param {
    lr_mult: 2
  }
  inner_product_param {
    num_output: 10
    weight_filler {
      type: "xavier"
    }
    bias_filler {
      type: "constant"
    }
  }
}
layer {
  name: "prob"
  type: "Softmax"
  bottom: "ip3"
  top: "prob"
}
I0414 05:08:53.234717  3311 layer_factory.hpp:77] Creating layer data
I0414 05:08:53.234731  3311 net.cpp:84] Creating Layer data
I0414 05:08:53.234735  3311 net.cpp:380] data -> data
I0414 05:08:53.234750  3311 net.cpp:122] Setting up data
I0414 05:08:53.234758  3311 net.cpp:129] Top shape: 1 1 28 28 (784)
I0414 05:08:53.234760  3311 net.cpp:137] Memory required for data: 3136
I0414 05:08:53.234764  3311 layer_factory.hpp:77] Creating layer conv1
I0414 05:08:53.234776  3311 net.cpp:84] Creating Layer conv1
I0414 05:08:53.234781  3311 net.cpp:406] conv1 <- data
I0414 05:08:53.234789  3311 net.cpp:380] conv1 -> conv1
I0414 05:08:53.651834  3311 net.cpp:122] Setting up conv1
I0414 05:08:53.651862  3311 net.cpp:129] Top shape: 1 16 28 28 (12544)
I0414 05:08:53.651865  3311 net.cpp:137] Memory required for data: 53312
I0414 05:08:53.651881  3311 layer_factory.hpp:77] Creating layer relu1
I0414 05:08:53.651891  3311 net.cpp:84] Creating Layer relu1
I0414 05:08:53.651895  3311 net.cpp:406] relu1 <- conv1
I0414 05:08:53.651901  3311 net.cpp:367] relu1 -> conv1 (in-place)
I0414 05:08:53.652045  3311 net.cpp:122] Setting up relu1
I0414 05:08:53.652052  3311 net.cpp:129] Top shape: 1 16 28 28 (12544)
I0414 05:08:53.652055  3311 net.cpp:137] Memory required for data: 103488
I0414 05:08:53.652058  3311 layer_factory.hpp:77] Creating layer pool1
I0414 05:08:53.652063  3311 net.cpp:84] Creating Layer pool1
I0414 05:08:53.652066  3311 net.cpp:406] pool1 <- conv1
I0414 05:08:53.652070  3311 net.cpp:380] pool1 -> pool1
I0414 05:08:53.652078  3311 net.cpp:122] Setting up pool1
I0414 05:08:53.652082  3311 net.cpp:129] Top shape: 1 16 14 14 (3136)
I0414 05:08:53.652086  3311 net.cpp:137] Memory required for data: 116032
I0414 05:08:53.652088  3311 layer_factory.hpp:77] Creating layer conv2
I0414 05:08:53.652096  3311 net.cpp:84] Creating Layer conv2
I0414 05:08:53.652101  3311 net.cpp:406] conv2 <- pool1
I0414 05:08:53.652104  3311 net.cpp:380] conv2 -> conv2
I0414 05:08:53.652741  3311 net.cpp:122] Setting up conv2
I0414 05:08:53.652753  3311 net.cpp:129] Top shape: 1 32 14 14 (6272)
I0414 05:08:53.652757  3311 net.cpp:137] Memory required for data: 141120
I0414 05:08:53.652765  3311 layer_factory.hpp:77] Creating layer relu2
I0414 05:08:53.652783  3311 net.cpp:84] Creating Layer relu2
I0414 05:08:53.652787  3311 net.cpp:406] relu2 <- conv2
I0414 05:08:53.652791  3311 net.cpp:367] relu2 -> conv2 (in-place)
I0414 05:08:53.652930  3311 net.cpp:122] Setting up relu2
I0414 05:08:53.652938  3311 net.cpp:129] Top shape: 1 32 14 14 (6272)
I0414 05:08:53.652941  3311 net.cpp:137] Memory required for data: 166208
I0414 05:08:53.652945  3311 layer_factory.hpp:77] Creating layer pool2
I0414 05:08:53.652948  3311 net.cpp:84] Creating Layer pool2
I0414 05:08:53.652951  3311 net.cpp:406] pool2 <- conv2
I0414 05:08:53.652956  3311 net.cpp:380] pool2 -> pool2
I0414 05:08:53.652963  3311 net.cpp:122] Setting up pool2
I0414 05:08:53.652967  3311 net.cpp:129] Top shape: 1 32 7 7 (1568)
I0414 05:08:53.652971  3311 net.cpp:137] Memory required for data: 172480
I0414 05:08:53.652972  3311 layer_factory.hpp:77] Creating layer ip1
I0414 05:08:53.652978  3311 net.cpp:84] Creating Layer ip1
I0414 05:08:53.652981  3311 net.cpp:406] ip1 <- pool2
I0414 05:08:53.652985  3311 net.cpp:380] ip1 -> ip1
I0414 05:08:53.657192  3311 net.cpp:122] Setting up ip1
I0414 05:08:53.657202  3311 net.cpp:129] Top shape: 1 480 (480)
I0414 05:08:53.657205  3311 net.cpp:137] Memory required for data: 174400
I0414 05:08:53.657213  3311 layer_factory.hpp:77] Creating layer relu3
I0414 05:08:53.657220  3311 net.cpp:84] Creating Layer relu3
I0414 05:08:53.657224  3311 net.cpp:406] relu3 <- ip1
I0414 05:08:53.657228  3311 net.cpp:367] relu3 -> ip1 (in-place)
I0414 05:08:53.657559  3311 net.cpp:122] Setting up relu3
I0414 05:08:53.657570  3311 net.cpp:129] Top shape: 1 480 (480)
I0414 05:08:53.657573  3311 net.cpp:137] Memory required for data: 176320
I0414 05:08:53.657577  3311 layer_factory.hpp:77] Creating layer ip2
I0414 05:08:53.657583  3311 net.cpp:84] Creating Layer ip2
I0414 05:08:53.657586  3311 net.cpp:406] ip2 <- ip1
I0414 05:08:53.657593  3311 net.cpp:380] ip2 -> ip2
I0414 05:08:53.658048  3311 net.cpp:122] Setting up ip2
I0414 05:08:53.658056  3311 net.cpp:129] Top shape: 1 200 (200)
I0414 05:08:53.658058  3311 net.cpp:137] Memory required for data: 177120
I0414 05:08:53.658064  3311 layer_factory.hpp:77] Creating layer relu4
I0414 05:08:53.658068  3311 net.cpp:84] Creating Layer relu4
I0414 05:08:53.658071  3311 net.cpp:406] relu4 <- ip2
I0414 05:08:53.658076  3311 net.cpp:367] relu4 -> ip2 (in-place)
I0414 05:08:53.658218  3311 net.cpp:122] Setting up relu4
I0414 05:08:53.658226  3311 net.cpp:129] Top shape: 1 200 (200)
I0414 05:08:53.658228  3311 net.cpp:137] Memory required for data: 177920
I0414 05:08:53.658231  3311 layer_factory.hpp:77] Creating layer ip3
I0414 05:08:53.658237  3311 net.cpp:84] Creating Layer ip3
I0414 05:08:53.658241  3311 net.cpp:406] ip3 <- ip2
I0414 05:08:53.658244  3311 net.cpp:380] ip3 -> ip3
I0414 05:08:53.658263  3311 net.cpp:122] Setting up ip3
I0414 05:08:53.658268  3311 net.cpp:129] Top shape: 1 10 (10)
I0414 05:08:53.658272  3311 net.cpp:137] Memory required for data: 177960
I0414 05:08:53.658278  3311 layer_factory.hpp:77] Creating layer prob
I0414 05:08:53.658284  3311 net.cpp:84] Creating Layer prob
I0414 05:08:53.658287  3311 net.cpp:406] prob <- ip3
I0414 05:08:53.658290  3311 net.cpp:380] prob -> prob
I0414 05:08:53.658435  3311 net.cpp:122] Setting up prob
I0414 05:08:53.658442  3311 net.cpp:129] Top shape: 1 10 (10)
I0414 05:08:53.658445  3311 net.cpp:137] Memory required for data: 178000
I0414 05:08:53.658449  3311 net.cpp:200] prob does not need backward computation.
I0414 05:08:53.658452  3311 net.cpp:200] ip3 does not need backward computation.
I0414 05:08:53.658455  3311 net.cpp:200] relu4 does not need backward computation.
I0414 05:08:53.658458  3311 net.cpp:200] ip2 does not need backward computation.
…
