…
W0414 05:11:36.989719  3441 _caffe.cpp:140] Use this instead (with the named "weights" parameter):
W0414 05:11:36.989723  3441 _caffe.cpp:142] Net('/home/dennis/Desktop/cnn-caffe/models/model-01/model_deploy.prototxt', 1, weights='/home/dennis/Desktop/cnn-caffe/models/model-01/train_iter_6000.caffemodel')
I0414 05:11:37.190034  3441 net.cpp:51] Initializing net from parameters: 
name: "Model"
state {
  phase: TEST
  level: 0
}
layer {
  name: "data"
  type: "Input"
  top: "data"
  input_param {
    shape {
      dim: 1
      dim: 1
      dim: 28
      dim: 28
    }
  }
}
layer {
  name: "conv1"
  type: "Convolution"
  bottom: "data"
  top: "conv1"
  param {
    lr_mult: 1
  }
  param {
    lr_mult: 2
  }
  convolution_param {
    num_output: 16
    pad: 3
    kernel_size: 7
    stride: 1
    weight_filler {
      type: "xavier"
    }
    bias_filler {
      type: "constant"
    }
  }
}
layer {
  name: "relu1"
  type: "ReLU"
  bottom: "conv1"
  top: "conv1"
}
layer {
  name: "pool1"
  type: "Pooling"
  bottom: "conv1"
  top: "pool1"
  pooling_param {
    pool: MAX
    kernel_size: 2
    stride: 2
  }
}
layer {
  name: "conv2"
  type: "Convolution"
  bottom: "pool1"
  top: "conv2"
  param {
    lr_mult: 1
  }
  param {
    lr_mult: 2
  }
  convolution_param {
    num_output: 32
    pad: 2
    kernel_size: 5
    stride: 1
    weight_filler {
      type: "xavier"
    }
    bias_filler {
      type: "constant"
    }
  }
}
layer {
  name: "relu2"
  type: "ReLU"
  bottom: "conv2"
  top: "conv2"
}
layer {
  name: "pool2"
  type: "Pooling"
  bottom: "conv2"
  top: "pool2"
  pooling_param {
    pool: MAX
    kernel_size: 2
    stride: 2
  }
}
layer {
  name: "ip1"
  type: "InnerProduct"
  bottom: "pool2"
  top: "ip1"
  param {
    lr_mult: 1
  }
  param {
    lr_mult: 2
  }
  inner_product_param {
    num_output: 480
    weight_filler {
      type: "xavier"
    }
    bias_filler {
      type: "constant"
    }
  }
}
layer {
  name: "relu3"
  type: "ReLU"
  bottom: "ip1"
  top: "ip1"
}
layer {
  name: "ip2"
  type: "InnerProduct"
  bottom: "ip1"
  top: "ip2"
  param {
    lr_mult: 1
  }
  param {
    lr_mult: 2
  }
  inner_product_param {
    num_output: 200
    weight_filler {
      type: "xavier"
    }
    bias_filler {
      type: "constant"
    }
  }
}
layer {
  name: "relu4"
  type: "ReLU"
  bottom: "ip2"
  top: "ip2"
}
layer {
  name: "ip3"
  type: "InnerProduct"
  bottom: "ip2"
  top: "ip3"
  param {
    lr_mult: 1
  }
  param {
    lr_mult: 2
  }
  inner_product_param {
    num_output: 10
    weight_filler {
      type: "xavier"
    }
    bias_filler {
      type: "constant"
    }
  }
}
layer {
  name: "prob"
  type: "Softmax"
  bottom: "ip3"
  top: "prob"
}
I0414 05:11:37.190105  3441 layer_factory.hpp:77] Creating layer data
I0414 05:11:37.190124  3441 net.cpp:84] Creating Layer data
I0414 05:11:37.190134  3441 net.cpp:380] data -> data
I0414 05:11:37.190148  3441 net.cpp:122] Setting up data
I0414 05:11:37.190157  3441 net.cpp:129] Top shape: 1 1 28 28 (784)
I0414 05:11:37.190160  3441 net.cpp:137] Memory required for data: 3136
I0414 05:11:37.190165  3441 layer_factory.hpp:77] Creating layer conv1
I0414 05:11:37.190179  3441 net.cpp:84] Creating Layer conv1
I0414 05:11:37.190187  3441 net.cpp:406] conv1 <- data
I0414 05:11:37.190196  3441 net.cpp:380] conv1 -> conv1
I0414 05:11:37.601599  3441 net.cpp:122] Setting up conv1
I0414 05:11:37.601629  3441 net.cpp:129] Top shape: 1 16 28 28 (12544)
I0414 05:11:37.601632  3441 net.cpp:137] Memory required for data: 53312
I0414 05:11:37.601649  3441 layer_factory.hpp:77] Creating layer relu1
I0414 05:11:37.601661  3441 net.cpp:84] Creating Layer relu1
I0414 05:11:37.601667  3441 net.cpp:406] relu1 <- conv1
I0414 05:11:37.601673  3441 net.cpp:367] relu1 -> conv1 (in-place)
I0414 05:11:37.601825  3441 net.cpp:122] Setting up relu1
I0414 05:11:37.601835  3441 net.cpp:129] Top shape: 1 16 28 28 (12544)
I0414 05:11:37.601840  3441 net.cpp:137] Memory required for data: 103488
I0414 05:11:37.601843  3441 layer_factory.hpp:77] Creating layer pool1
I0414 05:11:37.601851  3441 net.cpp:84] Creating Layer pool1
I0414 05:11:37.601856  3441 net.cpp:406] pool1 <- conv1
I0414 05:11:37.601862  3441 net.cpp:380] pool1 -> pool1
I0414 05:11:37.601881  3441 net.cpp:122] Setting up pool1
I0414 05:11:37.601891  3441 net.cpp:129] Top shape: 1 16 14 14 (3136)
I0414 05:11:37.601896  3441 net.cpp:137] Memory required for data: 116032
I0414 05:11:37.601899  3441 layer_factory.hpp:77] Creating layer conv2
I0414 05:11:37.601912  3441 net.cpp:84] Creating Layer conv2
I0414 05:11:37.601918  3441 net.cpp:406] conv2 <- pool1
I0414 05:11:37.601925  3441 net.cpp:380] conv2 -> conv2
I0414 05:11:37.602561  3441 net.cpp:122] Setting up conv2
I0414 05:11:37.602573  3441 net.cpp:129] Top shape: 1 32 14 14 (6272)
I0414 05:11:37.602578  3441 net.cpp:137] Memory required for data: 141120
I0414 05:11:37.602589  3441 layer_factory.hpp:77] Creating layer relu2
I0414 05:11:37.602597  3441 net.cpp:84] Creating Layer relu2
I0414 05:11:37.602603  3441 net.cpp:406] relu2 <- conv2
I0414 05:11:37.602610  3441 net.cpp:367] relu2 -> conv2 (in-place)
I0414 05:11:37.602754  3441 net.cpp:122] Setting up relu2
I0414 05:11:37.602763  3441 net.cpp:129] Top shape: 1 32 14 14 (6272)
I0414 05:11:37.602767  3441 net.cpp:137] Memory required for data: 166208
I0414 05:11:37.602772  3441 layer_factory.hpp:77] Creating layer pool2
I0414 05:11:37.602779  3441 net.cpp:84] Creating Layer pool2
I0414 05:11:37.602785  3441 net.cpp:406] pool2 <- conv2
I0414 05:11:37.602792  3441 net.cpp:380] pool2 -> pool2
I0414 05:11:37.602804  3441 net.cpp:122] Setting up pool2
I0414 05:11:37.602813  3441 net.cpp:129] Top shape: 1 32 7 7 (1568)
I0414 05:11:37.602819  3441 net.cpp:137] Memory required for data: 172480
I0414 05:11:37.602823  3441 layer_factory.hpp:77] Creating layer ip1
I0414 05:11:37.602833  3441 net.cpp:84] Creating Layer ip1
I0414 05:11:37.602838  3441 net.cpp:406] ip1 <- pool2
I0414 05:11:37.602845  3441 net.cpp:380] ip1 -> ip1
I0414 05:11:37.606833  3441 net.cpp:122] Setting up ip1
I0414 05:11:37.606845  3441 net.cpp:129] Top shape: 1 480 (480)
I0414 05:11:37.606848  3441 net.cpp:137] Memory required for data: 174400
I0414 05:11:37.606858  3441 layer_factory.hpp:77] Creating layer relu3
I0414 05:11:37.606866  3441 net.cpp:84] Creating Layer relu3
I0414 05:11:37.606873  3441 net.cpp:406] relu3 <- ip1
I0414 05:11:37.606878  3441 net.cpp:367] relu3 -> ip1 (in-place)
I0414 05:11:37.607199  3441 net.cpp:122] Setting up relu3
I0414 05:11:37.607209  3441 net.cpp:129] Top shape: 1 480 (480)
I0414 05:11:37.607213  3441 net.cpp:137] Memory required for data: 176320
I0414 05:11:37.607218  3441 layer_factory.hpp:77] Creating layer ip2
I0414 05:11:37.607225  3441 net.cpp:84] Creating Layer ip2
I0414 05:11:37.607233  3441 net.cpp:406] ip2 <- ip1
I0414 05:11:37.607239  3441 net.cpp:380] ip2 -> ip2
I0414 05:11:37.607661  3441 net.cpp:122] Setting up ip2
I0414 05:11:37.607668  3441 net.cpp:129] Top shape: 1 200 (200)
I0414 05:11:37.607671  3441 net.cpp:137] Memory required for data: 177120
I0414 05:11:37.607679  3441 layer_factory.hpp:77] Creating layer relu4
I0414 05:11:37.607686  3441 net.cpp:84] Creating Layer relu4
I0414 05:11:37.607692  3441 net.cpp:406] relu4 <- ip2
I0414 05:11:37.607705  3441 net.cpp:367] relu4 -> ip2 (in-place)
I0414 05:11:37.607853  3441 net.cpp:122] Setting up relu4
I0414 05:11:37.607861  3441 net.cpp:129] Top shape: 1 200 (200)
I0414 05:11:37.607864  3441 net.cpp:137] Memory required for data: 177920
I0414 05:11:37.607869  3441 layer_factory.hpp:77] Creating layer ip3
I0414 05:11:37.607877  3441 net.cpp:84] Creating Layer ip3
I0414 05:11:37.607883  3441 net.cpp:406] ip3 <- ip2
I0414 05:11:37.607890  3441 net.cpp:380] ip3 -> ip3
I0414 05:11:37.607921  3441 net.cpp:122] Setting up ip3
I0414 05:11:37.607929  3441 net.cpp:129] Top shape: 1 10 (10)
I0414 05:11:37.607933  3441 net.cpp:137] Memory required for data: 177960
I0414 05:11:37.607942  3441 layer_factory.hpp:77] Creating layer prob
I0414 05:11:37.607950  3441 net.cpp:84] Creating Layer prob
I0414 05:11:37.607956  3441 net.cpp:406] prob <- ip3
I0414 05:11:37.607962  3441 net.cpp:380] prob -> prob
I0414 05:11:37.608108  3441 net.cpp:122] Setting up prob
I0414 05:11:37.608117  3441 net.cpp:129] Top shape: 1 10 (10)
I0414 05:11:37.608120  3441 net.cpp:137] Memory required for data: 178000
I0414 05:11:37.608125  3441 net.cpp:200] prob does not need backward computation.
I0414 05:11:37.608130  3441 net.cpp:200] ip3 does not need backward computation.
I0414 05:11:37.608135  3441 net.cpp:200] relu4 does not need backward computation.
I0414 05:11:37.608140  3441 net.cpp:200] ip2 does not need backward computation.
…
