…
W0414 05:14:20.230240  3592 _caffe.cpp:140] Use this instead (with the named "weights" parameter):
W0414 05:14:20.230243  3592 _caffe.cpp:142] Net('/home/dennis/Desktop/cnn-caffe/models/model-01/model_deploy.prototxt', 1, weights='/home/dennis/Desktop/cnn-caffe/models/model-01/train_iter_6000.caffemodel')
I0414 05:14:20.432891  3592 net.cpp:51] Initializing net from parameters: 
name: "Model"
state {
  phase: TEST
  level: 0
}
layer {
  name: "data"
  type: "Input"
  top: "data"
  input_param {
    shape {
      dim: 1
      dim: 1
      dim: 28
      dim: 28
    }
  }
}
layer {
  name: "conv1"
  type: "Convolution"
  bottom: "data"
  top: "conv1"
  param {
    lr_mult: 1
  }
  param {
    lr_mult: 2
  }
  convolution_param {
    num_output: 16
    pad: 3
    kernel_size: 7
    stride: 1
    weight_filler {
      type: "xavier"
    }
    bias_filler {
      type: "constant"
    }
  }
}
layer {
  name: "relu1"
  type: "ReLU"
  bottom: "conv1"
  top: "conv1"
}
layer {
  name: "pool1"
  type: "Pooling"
  bottom: "conv1"
  top: "pool1"
  pooling_param {
    pool: MAX
    kernel_size: 2
    stride: 2
  }
}
layer {
  name: "conv2"
  type: "Convolution"
  bottom: "pool1"
  top: "conv2"
  param {
    lr_mult: 1
  }
  param {
    lr_mult: 2
  }
  convolution_param {
    num_output: 32
    pad: 2
    kernel_size: 5
    stride: 1
    weight_filler {
      type: "xavier"
    }
    bias_filler {
      type: "constant"
    }
  }
}
layer {
  name: "relu2"
  type: "ReLU"
  bottom: "conv2"
  top: "conv2"
}
layer {
  name: "pool2"
  type: "Pooling"
  bottom: "conv2"
  top: "pool2"
  pooling_param {
    pool: MAX
    kernel_size: 2
    stride: 2
  }
}
layer {
  name: "ip1"
  type: "InnerProduct"
  bottom: "pool2"
  top: "ip1"
  param {
    lr_mult: 1
  }
  param {
    lr_mult: 2
  }
  inner_product_param {
    num_output: 480
    weight_filler {
      type: "xavier"
    }
    bias_filler {
      type: "constant"
    }
  }
}
layer {
  name: "relu3"
  type: "ReLU"
  bottom: "ip1"
  top: "ip1"
}
layer {
  name: "ip2"
  type: "InnerProduct"
  bottom: "ip1"
  top: "ip2"
  param {
    lr_mult: 1
  }
  param {
    lr_mult: 2
  }
  inner_product_param {
    num_output: 200
    weight_filler {
      type: "xavier"
    }
    bias_filler {
      type: "constant"
    }
  }
}
layer {
  name: "relu4"
  type: "ReLU"
  bottom: "ip2"
  top: "ip2"
}
layer {
  name: "ip3"
  type: "InnerProduct"
  bottom: "ip2"
  top: "ip3"
  param {
    lr_mult: 1
  }
  param {
    lr_mult: 2
  }
  inner_product_param {
    num_output: 10
    weight_filler {
      type: "xavier"
    }
    bias_filler {
      type: "constant"
    }
  }
}
layer {
  name: "prob"
  type: "Softmax"
  bottom: "ip3"
  top: "prob"
}
I0414 05:14:20.432956  3592 layer_factory.hpp:77] Creating layer data
I0414 05:14:20.432971  3592 net.cpp:84] Creating Layer data
I0414 05:14:20.432981  3592 net.cpp:380] data -> data
I0414 05:14:20.432999  3592 net.cpp:122] Setting up data
I0414 05:14:20.433007  3592 net.cpp:129] Top shape: 1 1 28 28 (784)
I0414 05:14:20.433012  3592 net.cpp:137] Memory required for data: 3136
I0414 05:14:20.433017  3592 layer_factory.hpp:77] Creating layer conv1
I0414 05:14:20.433027  3592 net.cpp:84] Creating Layer conv1
I0414 05:14:20.433032  3592 net.cpp:406] conv1 <- data
I0414 05:14:20.433037  3592 net.cpp:380] conv1 -> conv1
I0414 05:14:20.844151  3592 net.cpp:122] Setting up conv1
I0414 05:14:20.844177  3592 net.cpp:129] Top shape: 1 16 28 28 (12544)
I0414 05:14:20.844179  3592 net.cpp:137] Memory required for data: 53312
I0414 05:14:20.844194  3592 layer_factory.hpp:77] Creating layer relu1
I0414 05:14:20.844203  3592 net.cpp:84] Creating Layer relu1
I0414 05:14:20.844208  3592 net.cpp:406] relu1 <- conv1
I0414 05:14:20.844213  3592 net.cpp:367] relu1 -> conv1 (in-place)
I0414 05:14:20.844352  3592 net.cpp:122] Setting up relu1
I0414 05:14:20.844360  3592 net.cpp:129] Top shape: 1 16 28 28 (12544)
I0414 05:14:20.844363  3592 net.cpp:137] Memory required for data: 103488
I0414 05:14:20.844367  3592 layer_factory.hpp:77] Creating layer pool1
I0414 05:14:20.844372  3592 net.cpp:84] Creating Layer pool1
I0414 05:14:20.844375  3592 net.cpp:406] pool1 <- conv1
I0414 05:14:20.844378  3592 net.cpp:380] pool1 -> pool1
I0414 05:14:20.844393  3592 net.cpp:122] Setting up pool1
I0414 05:14:20.844400  3592 net.cpp:129] Top shape: 1 16 14 14 (3136)
I0414 05:14:20.844403  3592 net.cpp:137] Memory required for data: 116032
I0414 05:14:20.844408  3592 layer_factory.hpp:77] Creating layer conv2
I0414 05:14:20.844419  3592 net.cpp:84] Creating Layer conv2
I0414 05:14:20.844422  3592 net.cpp:406] conv2 <- pool1
I0414 05:14:20.844426  3592 net.cpp:380] conv2 -> conv2
I0414 05:14:20.845060  3592 net.cpp:122] Setting up conv2
I0414 05:14:20.845072  3592 net.cpp:129] Top shape: 1 32 14 14 (6272)
I0414 05:14:20.845075  3592 net.cpp:137] Memory required for data: 141120
I0414 05:14:20.845082  3592 layer_factory.hpp:77] Creating layer relu2
I0414 05:14:20.845089  3592 net.cpp:84] Creating Layer relu2
I0414 05:14:20.845093  3592 net.cpp:406] relu2 <- conv2
I0414 05:14:20.845096  3592 net.cpp:367] relu2 -> conv2 (in-place)
I0414 05:14:20.845242  3592 net.cpp:122] Setting up relu2
I0414 05:14:20.845250  3592 net.cpp:129] Top shape: 1 32 14 14 (6272)
I0414 05:14:20.845253  3592 net.cpp:137] Memory required for data: 166208
I0414 05:14:20.845255  3592 layer_factory.hpp:77] Creating layer pool2
I0414 05:14:20.845261  3592 net.cpp:84] Creating Layer pool2
I0414 05:14:20.845264  3592 net.cpp:406] pool2 <- conv2
I0414 05:14:20.845268  3592 net.cpp:380] pool2 -> pool2
I0414 05:14:20.845275  3592 net.cpp:122] Setting up pool2
I0414 05:14:20.845279  3592 net.cpp:129] Top shape: 1 32 7 7 (1568)
I0414 05:14:20.845281  3592 net.cpp:137] Memory required for data: 172480
I0414 05:14:20.845284  3592 layer_factory.hpp:77] Creating layer ip1
I0414 05:14:20.845291  3592 net.cpp:84] Creating Layer ip1
I0414 05:14:20.845294  3592 net.cpp:406] ip1 <- pool2
I0414 05:14:20.845299  3592 net.cpp:380] ip1 -> ip1
I0414 05:14:20.848619  3592 net.cpp:122] Setting up ip1
I0414 05:14:20.848628  3592 net.cpp:129] Top shape: 1 480 (480)
I0414 05:14:20.848631  3592 net.cpp:137] Memory required for data: 174400
I0414 05:14:20.848640  3592 layer_factory.hpp:77] Creating layer relu3
I0414 05:14:20.848647  3592 net.cpp:84] Creating Layer relu3
I0414 05:14:20.848650  3592 net.cpp:406] relu3 <- ip1
I0414 05:14:20.848655  3592 net.cpp:367] relu3 -> ip1 (in-place)
I0414 05:14:20.848999  3592 net.cpp:122] Setting up relu3
I0414 05:14:20.849009  3592 net.cpp:129] Top shape: 1 480 (480)
I0414 05:14:20.849011  3592 net.cpp:137] Memory required for data: 176320
I0414 05:14:20.849015  3592 layer_factory.hpp:77] Creating layer ip2
I0414 05:14:20.849022  3592 net.cpp:84] Creating Layer ip2
I0414 05:14:20.849025  3592 net.cpp:406] ip2 <- ip1
I0414 05:14:20.849032  3592 net.cpp:380] ip2 -> ip2
I0414 05:14:20.849488  3592 net.cpp:122] Setting up ip2
I0414 05:14:20.849494  3592 net.cpp:129] Top shape: 1 200 (200)
I0414 05:14:20.849498  3592 net.cpp:137] Memory required for data: 177120
I0414 05:14:20.849503  3592 layer_factory.hpp:77] Creating layer relu4
I0414 05:14:20.849509  3592 net.cpp:84] Creating Layer relu4
I0414 05:14:20.849515  3592 net.cpp:406] relu4 <- ip2
I0414 05:14:20.849522  3592 net.cpp:367] relu4 -> ip2 (in-place)
I0414 05:14:20.849684  3592 net.cpp:122] Setting up relu4
I0414 05:14:20.849691  3592 net.cpp:129] Top shape: 1 200 (200)
I0414 05:14:20.849695  3592 net.cpp:137] Memory required for data: 177920
I0414 05:14:20.849701  3592 layer_factory.hpp:77] Creating layer ip3
I0414 05:14:20.849709  3592 net.cpp:84] Creating Layer ip3
I0414 05:14:20.849711  3592 net.cpp:406] ip3 <- ip2
I0414 05:14:20.849716  3592 net.cpp:380] ip3 -> ip3
I0414 05:14:20.849740  3592 net.cpp:122] Setting up ip3
I0414 05:14:20.849745  3592 net.cpp:129] Top shape: 1 10 (10)
I0414 05:14:20.849748  3592 net.cpp:137] Memory required for data: 177960
I0414 05:14:20.849756  3592 layer_factory.hpp:77] Creating layer prob
I0414 05:14:20.849761  3592 net.cpp:84] Creating Layer prob
I0414 05:14:20.849766  3592 net.cpp:406] prob <- ip3
I0414 05:14:20.849771  3592 net.cpp:380] prob -> prob
I0414 05:14:20.849922  3592 net.cpp:122] Setting up prob
I0414 05:14:20.849931  3592 net.cpp:129] Top shape: 1 10 (10)
I0414 05:14:20.849933  3592 net.cpp:137] Memory required for data: 178000
I0414 05:14:20.849936  3592 net.cpp:200] prob does not need backward computation.
I0414 05:14:20.849939  3592 net.cpp:200] ip3 does not need backward computation.
I0414 05:14:20.849942  3592 net.cpp:200] relu4 does not need backward computation.
I0414 05:14:20.849946  3592 net.cpp:200] ip2 does not need backward computation.
…
