…
W0414 05:16:59.084424  3700 _caffe.cpp:140] Use this instead (with the named "weights" parameter):
W0414 05:16:59.084427  3700 _caffe.cpp:142] Net('/home/dennis/Desktop/cnn-caffe/models/model-02/model_deploy.prototxt', 1, weights='/home/dennis/Desktop/cnn-caffe/models/model-02/train_iter_6000.caffemodel')
I0414 05:16:59.300868  3700 net.cpp:51] Initializing net from parameters: 
name: "Model"
state {
  phase: TEST
  level: 0
}
layer {
  name: "data"
  type: "Input"
  top: "data"
  input_param {
    shape {
      dim: 1
      dim: 1
      dim: 28
      dim: 28
    }
  }
}
layer {
  name: "conv1"
  type: "Convolution"
  bottom: "data"
  top: "conv1"
  param {
    lr_mult: 1
  }
  param {
    lr_mult: 2
  }
  convolution_param {
    num_output: 16
    pad: 3
    kernel_size: 7
    stride: 1
    weight_filler {
      type: "xavier"
    }
    bias_filler {
      type: "constant"
    }
  }
}
layer {
  name: "relu1"
  type: "ReLU"
  bottom: "conv1"
  top: "conv1"
}
layer {
  name: "pool1"
  type: "Pooling"
  bottom: "conv1"
  top: "pool1"
  pooling_param {
    pool: MAX
    kernel_size: 2
    stride: 2
  }
}
layer {
  name: "conv2"
  type: "Convolution"
  bottom: "pool1"
  top: "conv2"
  param {
    lr_mult: 1
  }
  param {
    lr_mult: 2
  }
  convolution_param {
    num_output: 32
    pad: 2
    kernel_size: 5
    stride: 1
    weight_filler {
      type: "xavier"
    }
    bias_filler {
      type: "constant"
    }
  }
}
layer {
  name: "relu2"
  type: "ReLU"
  bottom: "conv2"
  top: "conv2"
}
layer {
  name: "pool2"
  type: "Pooling"
  bottom: "conv2"
  top: "pool2"
  pooling_param {
    pool: MAX
    kernel_size: 2
    stride: 2
  }
}
layer {
  name: "ip1"
  type: "InnerProduct"
  bottom: "pool2"
  top: "ip1"
  param {
    lr_mult: 1
  }
  param {
    lr_mult: 2
  }
  inner_product_param {
    num_output: 120
    weight_filler {
      type: "xavier"
    }
    bias_filler {
      type: "constant"
    }
  }
}
layer {
  name: "relu3"
  type: "ReLU"
  bottom: "ip1"
  top: "ip1"
}
layer {
  name: "ip2"
  type: "InnerProduct"
  bottom: "ip1"
  top: "ip2"
  param {
    lr_mult: 1
  }
  param {
    lr_mult: 2
  }
  inner_product_param {
    num_output: 50
    weight_filler {
      type: "xavier"
    }
    bias_filler {
      type: "constant"
    }
  }
}
layer {
  name: "relu4"
  type: "ReLU"
  bottom: "ip2"
  top: "ip2"
}
layer {
  name: "ip3"
  type: "InnerProduct"
  bottom: "ip2"
  top: "ip3"
  param {
    lr_mult: 1
  }
  param {
    lr_mult: 2
  }
  inner_product_param {
    num_output: 10
    weight_filler {
      type: "xavier"
    }
    bias_filler {
      type: "constant"
    }
  }
}
layer {
  name: "prob"
  type: "Softmax"
  bottom: "ip3"
  top: "prob"
}
I0414 05:16:59.300945  3700 layer_factory.hpp:77] Creating layer data
I0414 05:16:59.300961  3700 net.cpp:84] Creating Layer data
I0414 05:16:59.300971  3700 net.cpp:380] data -> data
I0414 05:16:59.300987  3700 net.cpp:122] Setting up data
I0414 05:16:59.300997  3700 net.cpp:129] Top shape: 1 1 28 28 (784)
I0414 05:16:59.300999  3700 net.cpp:137] Memory required for data: 3136
I0414 05:16:59.301004  3700 layer_factory.hpp:77] Creating layer conv1
I0414 05:16:59.301014  3700 net.cpp:84] Creating Layer conv1
I0414 05:16:59.301019  3700 net.cpp:406] conv1 <- data
I0414 05:16:59.301025  3700 net.cpp:380] conv1 -> conv1
I0414 05:16:59.708309  3700 net.cpp:122] Setting up conv1
I0414 05:16:59.708334  3700 net.cpp:129] Top shape: 1 16 28 28 (12544)
I0414 05:16:59.708339  3700 net.cpp:137] Memory required for data: 53312
I0414 05:16:59.708357  3700 layer_factory.hpp:77] Creating layer relu1
I0414 05:16:59.708370  3700 net.cpp:84] Creating Layer relu1
I0414 05:16:59.708377  3700 net.cpp:406] relu1 <- conv1
I0414 05:16:59.708384  3700 net.cpp:367] relu1 -> conv1 (in-place)
I0414 05:16:59.708526  3700 net.cpp:122] Setting up relu1
I0414 05:16:59.708536  3700 net.cpp:129] Top shape: 1 16 28 28 (12544)
I0414 05:16:59.708540  3700 net.cpp:137] Memory required for data: 103488
I0414 05:16:59.708545  3700 layer_factory.hpp:77] Creating layer pool1
I0414 05:16:59.708552  3700 net.cpp:84] Creating Layer pool1
I0414 05:16:59.708557  3700 net.cpp:406] pool1 <- conv1
I0414 05:16:59.708564  3700 net.cpp:380] pool1 -> pool1
I0414 05:16:59.708580  3700 net.cpp:122] Setting up pool1
I0414 05:16:59.708588  3700 net.cpp:129] Top shape: 1 16 14 14 (3136)
I0414 05:16:59.708592  3700 net.cpp:137] Memory required for data: 116032
I0414 05:16:59.708597  3700 layer_factory.hpp:77] Creating layer conv2
I0414 05:16:59.708609  3700 net.cpp:84] Creating Layer conv2
I0414 05:16:59.708614  3700 net.cpp:406] conv2 <- pool1
I0414 05:16:59.708621  3700 net.cpp:380] conv2 -> conv2
I0414 05:16:59.709255  3700 net.cpp:122] Setting up conv2
I0414 05:16:59.709267  3700 net.cpp:129] Top shape: 1 32 14 14 (6272)
I0414 05:16:59.709271  3700 net.cpp:137] Memory required for data: 141120
I0414 05:16:59.709283  3700 layer_factory.hpp:77] Creating layer relu2
I0414 05:16:59.709291  3700 net.cpp:84] Creating Layer relu2
I0414 05:16:59.709296  3700 net.cpp:406] relu2 <- conv2
I0414 05:16:59.709303  3700 net.cpp:367] relu2 -> conv2 (in-place)
I0414 05:16:59.709440  3700 net.cpp:122] Setting up relu2
I0414 05:16:59.709450  3700 net.cpp:129] Top shape: 1 32 14 14 (6272)
I0414 05:16:59.709453  3700 net.cpp:137] Memory required for data: 166208
I0414 05:16:59.709458  3700 layer_factory.hpp:77] Creating layer pool2
I0414 05:16:59.709465  3700 net.cpp:84] Creating Layer pool2
I0414 05:16:59.709470  3700 net.cpp:406] pool2 <- conv2
I0414 05:16:59.709476  3700 net.cpp:380] pool2 -> pool2
I0414 05:16:59.709489  3700 net.cpp:122] Setting up pool2
I0414 05:16:59.709497  3700 net.cpp:129] Top shape: 1 32 7 7 (1568)
I0414 05:16:59.709501  3700 net.cpp:137] Memory required for data: 172480
I0414 05:16:59.709506  3700 layer_factory.hpp:77] Creating layer ip1
I0414 05:16:59.709513  3700 net.cpp:84] Creating Layer ip1
I0414 05:16:59.709518  3700 net.cpp:406] ip1 <- pool2
I0414 05:16:59.709524  3700 net.cpp:380] ip1 -> ip1
I0414 05:16:59.710325  3700 net.cpp:122] Setting up ip1
I0414 05:16:59.710343  3700 net.cpp:129] Top shape: 1 120 (120)
I0414 05:16:59.710347  3700 net.cpp:137] Memory required for data: 172960
I0414 05:16:59.710357  3700 layer_factory.hpp:77] Creating layer relu3
I0414 05:16:59.710366  3700 net.cpp:84] Creating Layer relu3
I0414 05:16:59.710371  3700 net.cpp:406] relu3 <- ip1
I0414 05:16:59.710377  3700 net.cpp:367] relu3 -> ip1 (in-place)
I0414 05:16:59.710654  3700 net.cpp:122] Setting up relu3
I0414 05:16:59.710665  3700 net.cpp:129] Top shape: 1 120 (120)
I0414 05:16:59.710669  3700 net.cpp:137] Memory required for data: 173440
I0414 05:16:59.710674  3700 layer_factory.hpp:77] Creating layer ip2
I0414 05:16:59.710681  3700 net.cpp:84] Creating Layer ip2
I0414 05:16:59.710688  3700 net.cpp:406] ip2 <- ip1
I0414 05:16:59.710695  3700 net.cpp:380] ip2 -> ip2
I0414 05:16:59.710736  3700 net.cpp:122] Setting up ip2
I0414 05:16:59.710742  3700 net.cpp:129] Top shape: 1 50 (50)
I0414 05:16:59.710747  3700 net.cpp:137] Memory required for data: 173640
I0414 05:16:59.710754  3700 layer_factory.hpp:77] Creating layer relu4
I0414 05:16:59.710762  3700 net.cpp:84] Creating Layer relu4
I0414 05:16:59.710767  3700 net.cpp:406] relu4 <- ip2
I0414 05:16:59.710772  3700 net.cpp:367] relu4 -> ip2 (in-place)
I0414 05:16:59.710909  3700 net.cpp:122] Setting up relu4
I0414 05:16:59.710918  3700 net.cpp:129] Top shape: 1 50 (50)
I0414 05:16:59.710922  3700 net.cpp:137] Memory required for data: 173840
I0414 05:16:59.710927  3700 layer_factory.hpp:77] Creating layer ip3
I0414 05:16:59.710933  3700 net.cpp:84] Creating Layer ip3
I0414 05:16:59.710939  3700 net.cpp:406] ip3 <- ip2
I0414 05:16:59.710947  3700 net.cpp:380] ip3 -> ip3
I0414 05:16:59.710965  3700 net.cpp:122] Setting up ip3
I0414 05:16:59.710971  3700 net.cpp:129] Top shape: 1 10 (10)
I0414 05:16:59.710975  3700 net.cpp:137] Memory required for data: 173880
I0414 05:16:59.710985  3700 layer_factory.hpp:77] Creating layer prob
I0414 05:16:59.710992  3700 net.cpp:84] Creating Layer prob
I0414 05:16:59.710997  3700 net.cpp:406] prob <- ip3
I0414 05:16:59.711004  3700 net.cpp:380] prob -> prob
I0414 05:16:59.711143  3700 net.cpp:122] Setting up prob
I0414 05:16:59.711153  3700 net.cpp:129] Top shape: 1 10 (10)
I0414 05:16:59.711156  3700 net.cpp:137] Memory required for data: 173920
I0414 05:16:59.711161  3700 net.cpp:200] prob does not need backward computation.
I0414 05:16:59.711166  3700 net.cpp:200] ip3 does not need backward computation.
I0414 05:16:59.711171  3700 net.cpp:200] relu4 does not need backward computation.
I0414 05:16:59.711175  3700 net.cpp:200] ip2 does not need backward computation.
…
