…
I0414 05:07:28.516249  3182 net.cpp:294] The NetState phase (0) differed from the phase (1) specified by a rule in layer accuracy
I0414 05:07:28.516326  3182 net.cpp:51] Initializing net from parameters: 
name: "Model"
state {
  phase: TRAIN
  level: 0
  stage: ""
}
layer {
  name: "CNN"
  type: "Data"
  top: "data"
  top: "label"
  include {
    phase: TRAIN
  }
  transform_param {
    scale: 0.00390625
    mean_file: "input/dataset-01/mean_image.binaryproto"
  }
  data_param {
    source: "input/dataset-01/train_lmdb"
    batch_size: 128
    backend: LMDB
  }
}
layer {
  name: "conv1"
  type: "Convolution"
  bottom: "data"
  top: "conv1"
  param {
    lr_mult: 1
  }
  param {
    lr_mult: 2
  }
  convolution_param {
    num_output: 16
    pad: 3
    kernel_size: 7
    stride: 1
    weight_filler {
      type: "xavier"
    }
    bias_filler {
      type: "constant"
    }
  }
}
layer {
  name: "relu1"
  type: "ReLU"
  bottom: "conv1"
  top: "conv1"
}
layer {
  name: "pool1"
  type: "Pooling"
  bottom: "conv1"
  top: "pool1"
  pooling_param {
    pool: MAX
    kernel_size: 2
    stride: 2
  }
}
layer {
  name: "conv2"
  type: "Convolution"
  bottom: "pool1"
  top: "conv2"
  param {
    lr_mult: 1
  }
  param {
    lr_mult: 2
  }
  convolution_param {
    num_output: 32
    pad: 2
    kernel_size: 5
    stride: 1
    weight_filler {
      type: "xavier"
    }
    bias_filler {
      type: "constant"
    }
  }
}
layer {
  name: "relu2"
  type: "ReLU"
  bottom: "conv2"
  top: "conv2"
}
layer {
  name: "pool2"
  type: "Pooling"
  bottom: "conv2"
  top: "pool2"
  pooling_param {
    pool: MAX
    kernel_size: 2
    stride: 2
  }
}
layer {
  name: "ip1"
  type: "InnerProduct"
  bottom: "pool2"
  top: "ip1"
  param {
    lr_mult: 1
  }
  param {
    lr_mult: 2
  }
  inner_product_param {
    num_output: 480
    weight_filler {
      type: "xavier"
    }
    bias_filler {
      type: "constant"
    }
  }
}
layer {
  name: "relu3"
  type: "ReLU"
  bottom: "ip1"
  top: "ip1"
}
layer {
  name: "ip2"
  type: "InnerProduct"
  bottom: "ip1"
  top: "ip2"
  param {
    lr_mult: 1
  }
  param {
    lr_mult: 2
  }
  inner_product_param {
    num_output: 200
    weight_filler {
      type: "xavier"
    }
    bias_filler {
      type: "constant"
    }
  }
}
layer {
  name: "relu4"
  type: "ReLU"
  bottom: "ip2"
  top: "ip2"
}
layer {
  name: "ip3"
  type: "InnerProduct"
  bottom: "ip2"
  top: "ip3"
  param {
    lr_mult: 1
  }
  param {
    lr_mult: 2
  }
  inner_product_param {
    num_output: 10
    weight_filler {
      type: "xavier"
    }
    bias_filler {
      type: "constant"
    }
  }
}
layer {
  name: "loss"
  type: "SoftmaxWithLoss"
  bottom: "ip3"
  bottom: "label"
  top: "loss"
}
I0414 05:07:28.516386  3182 layer_factory.hpp:77] Creating layer CNN
I0414 05:07:28.516474  3182 db_lmdb.cpp:35] Opened lmdb input/dataset-01/train_lmdb
I0414 05:07:28.516499  3182 net.cpp:84] Creating Layer CNN
I0414 05:07:28.516510  3182 net.cpp:380] CNN -> data
I0414 05:07:28.516530  3182 net.cpp:380] CNN -> label
I0414 05:07:28.516542  3182 data_transformer.cpp:25] Loading mean file from: input/dataset-01/mean_image.binaryproto
I0414 05:07:28.517834  3182 data_layer.cpp:45] output data size: 128,1,28,28
I0414 05:07:28.518978  3182 net.cpp:122] Setting up CNN
I0414 05:07:28.518996  3182 net.cpp:129] Top shape: 128 1 28 28 (100352)
I0414 05:07:28.519002  3182 net.cpp:129] Top shape: 128 (128)
I0414 05:07:28.519024  3182 net.cpp:137] Memory required for data: 401920
I0414 05:07:28.519035  3182 layer_factory.hpp:77] Creating layer conv1
I0414 05:07:28.519057  3182 net.cpp:84] Creating Layer conv1
I0414 05:07:28.519062  3182 net.cpp:406] conv1 <- data
I0414 05:07:28.519078  3182 net.cpp:380] conv1 -> conv1
I0414 05:07:28.924847  3182 net.cpp:122] Setting up conv1
I0414 05:07:28.924871  3182 net.cpp:129] Top shape: 128 16 28 28 (1605632)
I0414 05:07:28.924875  3182 net.cpp:137] Memory required for data: 6824448
I0414 05:07:28.924893  3182 layer_factory.hpp:77] Creating layer relu1
I0414 05:07:28.924902  3182 net.cpp:84] Creating Layer relu1
I0414 05:07:28.924906  3182 net.cpp:406] relu1 <- conv1
I0414 05:07:28.924911  3182 net.cpp:367] relu1 -> conv1 (in-place)
I0414 05:07:28.925053  3182 net.cpp:122] Setting up relu1
I0414 05:07:28.925061  3182 net.cpp:129] Top shape: 128 16 28 28 (1605632)
I0414 05:07:28.925065  3182 net.cpp:137] Memory required for data: 13246976
I0414 05:07:28.925066  3182 layer_factory.hpp:77] Creating layer pool1
I0414 05:07:28.925071  3182 net.cpp:84] Creating Layer pool1
I0414 05:07:28.925074  3182 net.cpp:406] pool1 <- conv1
I0414 05:07:28.925077  3182 net.cpp:380] pool1 -> pool1
I0414 05:07:28.925119  3182 net.cpp:122] Setting up pool1
I0414 05:07:28.925125  3182 net.cpp:129] Top shape: 128 16 14 14 (401408)
I0414 05:07:28.925127  3182 net.cpp:137] Memory required for data: 14852608
I0414 05:07:28.925129  3182 layer_factory.hpp:77] Creating layer conv2
I0414 05:07:28.925138  3182 net.cpp:84] Creating Layer conv2
I0414 05:07:28.925141  3182 net.cpp:406] conv2 <- pool1
I0414 05:07:28.925145  3182 net.cpp:380] conv2 -> conv2
I0414 05:07:28.926676  3182 net.cpp:122] Setting up conv2
I0414 05:07:28.926688  3182 net.cpp:129] Top shape: 128 32 14 14 (802816)
I0414 05:07:28.926692  3182 net.cpp:137] Memory required for data: 18063872
I0414 05:07:28.926698  3182 layer_factory.hpp:77] Creating layer relu2
I0414 05:07:28.926704  3182 net.cpp:84] Creating Layer relu2
I0414 05:07:28.926707  3182 net.cpp:406] relu2 <- conv2
I0414 05:07:28.926712  3182 net.cpp:367] relu2 -> conv2 (in-place)
I0414 05:07:28.926848  3182 net.cpp:122] Setting up relu2
I0414 05:07:28.926856  3182 net.cpp:129] Top shape: 128 32 14 14 (802816)
I0414 05:07:28.926858  3182 net.cpp:137] Memory required for data: 21275136
I0414 05:07:28.926862  3182 layer_factory.hpp:77] Creating layer pool2
I0414 05:07:28.926865  3182 net.cpp:84] Creating Layer pool2
I0414 05:07:28.926868  3182 net.cpp:406] pool2 <- conv2
I0414 05:07:28.926872  3182 net.cpp:380] pool2 -> pool2
I0414 05:07:28.926904  3182 net.cpp:122] Setting up pool2
I0414 05:07:28.926909  3182 net.cpp:129] Top shape: 128 32 7 7 (200704)
I0414 05:07:28.926913  3182 net.cpp:137] Memory required for data: 22077952
I0414 05:07:28.926914  3182 layer_factory.hpp:77] Creating layer ip1
I0414 05:07:28.926919  3182 net.cpp:84] Creating Layer ip1
I0414 05:07:28.926923  3182 net.cpp:406] ip1 <- pool2
I0414 05:07:28.926925  3182 net.cpp:380] ip1 -> ip1
I0414 05:07:28.930910  3182 net.cpp:122] Setting up ip1
I0414 05:07:28.930925  3182 net.cpp:129] Top shape: 128 480 (61440)
I0414 05:07:28.930928  3182 net.cpp:137] Memory required for data: 22323712
I0414 05:07:28.930938  3182 layer_factory.hpp:77] Creating layer relu3
I0414 05:07:28.930944  3182 net.cpp:84] Creating Layer relu3
I0414 05:07:28.930948  3182 net.cpp:406] relu3 <- ip1
I0414 05:07:28.930953  3182 net.cpp:367] relu3 -> ip1 (in-place)
I0414 05:07:28.931260  3182 net.cpp:122] Setting up relu3
I0414 05:07:28.931270  3182 net.cpp:129] Top shape: 128 480 (61440)
I0414 05:07:28.931272  3182 net.cpp:137] Memory required for data: 22569472
I0414 05:07:28.931275  3182 layer_factory.hpp:77] Creating layer ip2
I0414 05:07:28.931282  3182 net.cpp:84] Creating Layer ip2
I0414 05:07:28.931284  3182 net.cpp:406] ip2 <- ip1
I0414 05:07:28.931289  3182 net.cpp:380] ip2 -> ip2
I0414 05:07:28.931779  3182 net.cpp:122] Setting up ip2
I0414 05:07:28.931787  3182 net.cpp:129] Top shape: 128 200 (25600)
I0414 05:07:28.931807  3182 net.cpp:137] Memory required for data: 22671872
I0414 05:07:28.931813  3182 layer_factory.hpp:77] Creating layer relu4
I0414 05:07:28.931818  3182 net.cpp:84] Creating Layer relu4
I0414 05:07:28.931820  3182 net.cpp:406] relu4 <- ip2
I0414 05:07:28.931823  3182 net.cpp:367] relu4 -> ip2 (in-place)
I0414 05:07:28.931965  3182 net.cpp:122] Setting up relu4
I0414 05:07:28.931972  3182 net.cpp:129] Top shape: 128 200 (25600)
I0414 05:07:28.931974  3182 net.cpp:137] Memory required for data: 22774272
I0414 05:07:28.931977  3182 layer_factory.hpp:77] Creating layer ip3
I0414 05:07:28.931982  3182 net.cpp:84] Creating Layer ip3
I0414 05:07:28.931984  3182 net.cpp:406] ip3 <- ip2
I0414 05:07:28.931988  3182 net.cpp:380] ip3 -> ip3
I0414 05:07:28.932695  3182 net.cpp:122] Setting up ip3
I0414 05:07:28.932705  3182 net.cpp:129] Top shape: 128 10 (1280)
I0414 05:07:28.932708  3182 net.cpp:137] Memory required for data: 22779392
I0414 05:07:28.932715  3182 layer_factory.hpp:77] Creating layer loss
I0414 05:07:28.932723  3182 net.cpp:84] Creating Layer loss
I0414 05:07:28.932725  3182 net.cpp:406] loss <- ip3
I0414 05:07:28.932729  3182 net.cpp:406] loss <- label
I0414 05:07:28.932734  3182 net.cpp:380] loss -> loss
I0414 05:07:28.932744  3182 layer_factory.hpp:77] Creating layer loss
…
I0414 05:07:28.933181  3182 solver.cpp:190] Creating test net (#0) specified by net file: models/model-01/model_train_val.prototxt
I0414 05:07:28.933199  3182 net.cpp:294] The NetState phase (1) differed from the phase (0) specified by a rule in layer CNN
I0414 05:07:28.933271  3182 net.cpp:51] Initializing net from parameters: 
name: "Model"
state {
  phase: TEST
}
layer {
  name: "CNN"
  type: "Data"
  top: "data"
  top: "label"
  include {
    phase: TEST
  }
  transform_param {
    scale: 0.00390625
    mean_file: "input/dataset-01/mean_image.binaryproto"
  }
  data_param {
    source: "input/dataset-01/test_lmdb"
    batch_size: 220
    backend: LMDB
  }
}
layer {
  name: "conv1"
  type: "Convolution"
  bottom: "data"
  top: "conv1"
  param {
    lr_mult: 1
  }
  param {
    lr_mult: 2
  }
  convolution_param {
    num_output: 16
    pad: 3
    kernel_size: 7
    stride: 1
    weight_filler {
      type: "xavier"
    }
    bias_filler {
      type: "constant"
    }
  }
}
layer {
  name: "relu1"
  type: "ReLU"
  bottom: "conv1"
  top: "conv1"
}
layer {
  name: "pool1"
  type: "Pooling"
  bottom: "conv1"
  top: "pool1"
  pooling_param {
    pool: MAX
    kernel_size: 2
    stride: 2
  }
}
layer {
  name: "conv2"
  type: "Convolution"
  bottom: "pool1"
  top: "conv2"
  param {
    lr_mult: 1
  }
  param {
    lr_mult: 2
  }
  convolution_param {
    num_output: 32
    pad: 2
    kernel_size: 5
    stride: 1
    weight_filler {
      type: "xavier"
    }
    bias_filler {
      type: "constant"
    }
  }
}
layer {
  name: "relu2"
  type: "ReLU"
  bottom: "conv2"
  top: "conv2"
}
layer {
  name: "pool2"
  type: "Pooling"
  bottom: "conv2"
  top: "pool2"
  pooling_param {
    pool: MAX
    kernel_size: 2
    stride: 2
  }
}
layer {
  name: "ip1"
  type: "InnerProduct"
  bottom: "pool2"
  top: "ip1"
  param {
    lr_mult: 1
  }
  param {
    lr_mult: 2
  }
  inner_product_param {
    num_output: 480
    weight_filler {
      type: "xavier"
    }
    bias_filler {
      type: "constant"
    }
  }
}
layer {
  name: "relu3"
  type: "ReLU"
  bottom: "ip1"
  top: "ip1"
}
layer {
  name: "ip2"
  type: "InnerProduct"
  bottom: "ip1"
  top: "ip2"
  param {
    lr_mult: 1
  }
  param {
    lr_mult: 2
  }
  inner_product_param {
    num_output: 200
    weight_filler {
      type: "xavier"
    }
    bias_filler {
      type: "constant"
    }
  }
}
layer {
  name: "relu4"
  type: "ReLU"
  bottom: "ip2"
  top: "ip2"
}
layer {
  name: "ip3"
  type: "InnerProduct"
  bottom: "ip2"
  top: "ip3"
  param {
    lr_mult: 1
  }
  param {
    lr_mult: 2
  }
  inner_product_param {
    num_output: 10
    weight_filler {
      type: "xavier"
    }
    bias_filler {
      type: "constant"
    }
  }
}
layer {
  name: "accuracy"
  type: "Accuracy"
  bottom: "ip3"
  bottom: "label"
  top: "accuracy"
  include {
    phase: TEST
  }
}
layer {
  name: "loss"
  type: "SoftmaxWithLoss"
  bottom: "ip3"
  bottom: "label"
  top: "loss"
}
I0414 05:07:28.933334  3182 layer_factory.hpp:77] Creating layer CNN
I0414 05:07:28.933382  3182 db_lmdb.cpp:35] Opened lmdb input/dataset-01/test_lmdb
I0414 05:07:28.933393  3182 net.cpp:84] Creating Layer CNN
I0414 05:07:28.933399  3182 net.cpp:380] CNN -> data
I0414 05:07:28.933405  3182 net.cpp:380] CNN -> label
I0414 05:07:28.933413  3182 data_transformer.cpp:25] Loading mean file from: input/dataset-01/mean_image.binaryproto
I0414 05:07:28.933522  3182 data_layer.cpp:45] output data size: 220,1,28,28
I0414 05:07:28.935600  3182 net.cpp:122] Setting up CNN
I0414 05:07:28.935619  3182 net.cpp:129] Top shape: 220 1 28 28 (172480)
I0414 05:07:28.935624  3182 net.cpp:129] Top shape: 220 (220)
I0414 05:07:28.935626  3182 net.cpp:137] Memory required for data: 690800
I0414 05:07:28.935631  3182 layer_factory.hpp:77] Creating layer label_CNN_1_split
I0414 05:07:28.935642  3182 net.cpp:84] Creating Layer label_CNN_1_split
I0414 05:07:28.935645  3182 net.cpp:406] label_CNN_1_split <- label
I0414 05:07:28.935650  3182 net.cpp:380] label_CNN_1_split -> label_CNN_1_split_0
I0414 05:07:28.935657  3182 net.cpp:380] label_CNN_1_split -> label_CNN_1_split_1
I0414 05:07:28.935708  3182 net.cpp:122] Setting up label_CNN_1_split
I0414 05:07:28.935715  3182 net.cpp:129] Top shape: 220 (220)
I0414 05:07:28.935719  3182 net.cpp:129] Top shape: 220 (220)
I0414 05:07:28.935720  3182 net.cpp:137] Memory required for data: 692560
I0414 05:07:28.935724  3182 layer_factory.hpp:77] Creating layer conv1
I0414 05:07:28.935732  3182 net.cpp:84] Creating Layer conv1
I0414 05:07:28.935735  3182 net.cpp:406] conv1 <- data
I0414 05:07:28.935740  3182 net.cpp:380] conv1 -> conv1
I0414 05:07:28.936738  3182 net.cpp:122] Setting up conv1
I0414 05:07:28.936751  3182 net.cpp:129] Top shape: 220 16 28 28 (2759680)
I0414 05:07:28.936754  3182 net.cpp:137] Memory required for data: 11731280
I0414 05:07:28.936766  3182 layer_factory.hpp:77] Creating layer relu1
I0414 05:07:28.936774  3182 net.cpp:84] Creating Layer relu1
I0414 05:07:28.936780  3182 net.cpp:406] relu1 <- conv1
I0414 05:07:28.936785  3182 net.cpp:367] relu1 -> conv1 (in-place)
I0414 05:07:28.937121  3182 net.cpp:122] Setting up relu1
I0414 05:07:28.937130  3182 net.cpp:129] Top shape: 220 16 28 28 (2759680)
I0414 05:07:28.937135  3182 net.cpp:137] Memory required for data: 22770000
I0414 05:07:28.937140  3182 layer_factory.hpp:77] Creating layer pool1
I0414 05:07:28.937150  3182 net.cpp:84] Creating Layer pool1
I0414 05:07:28.937155  3182 net.cpp:406] pool1 <- conv1
I0414 05:07:28.937160  3182 net.cpp:380] pool1 -> pool1
I0414 05:07:28.937254  3182 net.cpp:122] Setting up pool1
I0414 05:07:28.937263  3182 net.cpp:129] Top shape: 220 16 14 14 (689920)
I0414 05:07:28.937266  3182 net.cpp:137] Memory required for data: 25529680
I0414 05:07:28.937271  3182 layer_factory.hpp:77] Creating layer conv2
I0414 05:07:28.937279  3182 net.cpp:84] Creating Layer conv2
I0414 05:07:28.937284  3182 net.cpp:406] conv2 <- pool1
I0414 05:07:28.937290  3182 net.cpp:380] conv2 -> conv2
I0414 05:07:28.938267  3182 net.cpp:122] Setting up conv2
I0414 05:07:28.938277  3182 net.cpp:129] Top shape: 220 32 14 14 (1379840)
I0414 05:07:28.938280  3182 net.cpp:137] Memory required for data: 31049040
I0414 05:07:28.938292  3182 layer_factory.hpp:77] Creating layer relu2
I0414 05:07:28.938298  3182 net.cpp:84] Creating Layer relu2
I0414 05:07:28.938302  3182 net.cpp:406] relu2 <- conv2
I0414 05:07:28.938307  3182 net.cpp:367] relu2 -> conv2 (in-place)
I0414 05:07:28.938457  3182 net.cpp:122] Setting up relu2
I0414 05:07:28.938467  3182 net.cpp:129] Top shape: 220 32 14 14 (1379840)
I0414 05:07:28.938469  3182 net.cpp:137] Memory required for data: 36568400
I0414 05:07:28.938474  3182 layer_factory.hpp:77] Creating layer pool2
I0414 05:07:28.938479  3182 net.cpp:84] Creating Layer pool2
I0414 05:07:28.938482  3182 net.cpp:406] pool2 <- conv2
I0414 05:07:28.938488  3182 net.cpp:380] pool2 -> pool2
I0414 05:07:28.938526  3182 net.cpp:122] Setting up pool2
I0414 05:07:28.938532  3182 net.cpp:129] Top shape: 220 32 7 7 (344960)
I0414 05:07:28.938534  3182 net.cpp:137] Memory required for data: 37948240
I0414 05:07:28.938537  3182 layer_factory.hpp:77] Creating layer ip1
I0414 05:07:28.938547  3182 net.cpp:84] Creating Layer ip1
I0414 05:07:28.938550  3182 net.cpp:406] ip1 <- pool2
I0414 05:07:28.938555  3182 net.cpp:380] ip1 -> ip1
I0414 05:07:28.942620  3182 net.cpp:122] Setting up ip1
I0414 05:07:28.942637  3182 net.cpp:129] Top shape: 220 480 (105600)
I0414 05:07:28.942641  3182 net.cpp:137] Memory required for data: 38370640
I0414 05:07:28.942652  3182 layer_factory.hpp:77] Creating layer relu3
I0414 05:07:28.942662  3182 net.cpp:84] Creating Layer relu3
I0414 05:07:28.942667  3182 net.cpp:406] relu3 <- ip1
I0414 05:07:28.942673  3182 net.cpp:367] relu3 -> ip1 (in-place)
I0414 05:07:28.942845  3182 net.cpp:122] Setting up relu3
I0414 05:07:28.942852  3182 net.cpp:129] Top shape: 220 480 (105600)
I0414 05:07:28.942855  3182 net.cpp:137] Memory required for data: 38793040
I0414 05:07:28.942857  3182 layer_factory.hpp:77] Creating layer ip2
I0414 05:07:28.942863  3182 net.cpp:84] Creating Layer ip2
I0414 05:07:28.942868  3182 net.cpp:406] ip2 <- ip1
I0414 05:07:28.942874  3182 net.cpp:380] ip2 -> ip2
I0414 05:07:28.943377  3182 net.cpp:122] Setting up ip2
I0414 05:07:28.943382  3182 net.cpp:129] Top shape: 220 200 (44000)
I0414 05:07:28.943385  3182 net.cpp:137] Memory required for data: 38969040
I0414 05:07:28.943389  3182 layer_factory.hpp:77] Creating layer relu4
I0414 05:07:28.943393  3182 net.cpp:84] Creating Layer relu4
I0414 05:07:28.943395  3182 net.cpp:406] relu4 <- ip2
I0414 05:07:28.943399  3182 net.cpp:367] relu4 -> ip2 (in-place)
I0414 05:07:28.943544  3182 net.cpp:122] Setting up relu4
I0414 05:07:28.943552  3182 net.cpp:129] Top shape: 220 200 (44000)
I0414 05:07:28.943553  3182 net.cpp:137] Memory required for data: 39145040
I0414 05:07:28.943557  3182 layer_factory.hpp:77] Creating layer ip3
I0414 05:07:28.943562  3182 net.cpp:84] Creating Layer ip3
I0414 05:07:28.943567  3182 net.cpp:406] ip3 <- ip2
I0414 05:07:28.943573  3182 net.cpp:380] ip3 -> ip3
I0414 05:07:28.943673  3182 net.cpp:122] Setting up ip3
I0414 05:07:28.943680  3182 net.cpp:129] Top shape: 220 10 (2200)
I0414 05:07:28.943681  3182 net.cpp:137] Memory required for data: 39153840
I0414 05:07:28.943688  3182 layer_factory.hpp:77] Creating layer ip3_ip3_0_split
I0414 05:07:28.943694  3182 net.cpp:84] Creating Layer ip3_ip3_0_split
I0414 05:07:28.943704  3182 net.cpp:406] ip3_ip3_0_split <- ip3
I0414 05:07:28.943714  3182 net.cpp:380] ip3_ip3_0_split -> ip3_ip3_0_split_0
I0414 05:07:28.943737  3182 net.cpp:380] ip3_ip3_0_split -> ip3_ip3_0_split_1
I0414 05:07:28.943773  3182 net.cpp:122] Setting up ip3_ip3_0_split
I0414 05:07:28.943778  3182 net.cpp:129] Top shape: 220 10 (2200)
I0414 05:07:28.943783  3182 net.cpp:129] Top shape: 220 10 (2200)
I0414 05:07:28.943787  3182 net.cpp:137] Memory required for data: 39171440
I0414 05:07:28.943789  3182 layer_factory.hpp:77] Creating layer accuracy
I0414 05:07:28.943794  3182 net.cpp:84] Creating Layer accuracy
I0414 05:07:28.943796  3182 net.cpp:406] accuracy <- ip3_ip3_0_split_0
I0414 05:07:28.943800  3182 net.cpp:406] accuracy <- label_CNN_1_split_0
I0414 05:07:28.943806  3182 net.cpp:380] accuracy -> accuracy
…
