…
I0414 05:10:13.342000  3378 net.cpp:294] The NetState phase (0) differed from the phase (1) specified by a rule in layer accuracy
I0414 05:10:13.342070  3378 net.cpp:51] Initializing net from parameters: 
name: "Model"
state {
  phase: TRAIN
  level: 0
  stage: ""
}
layer {
  name: "CNN"
  type: "Data"
  top: "data"
  top: "label"
  include {
    phase: TRAIN
  }
  transform_param {
    scale: 0.00390625
    mean_file: "input/dataset-01/mean_image.binaryproto"
  }
  data_param {
    source: "input/dataset-01/train_lmdb"
    batch_size: 128
    backend: LMDB
  }
}
layer {
  name: "conv1"
  type: "Convolution"
  bottom: "data"
  top: "conv1"
  param {
    lr_mult: 1
  }
  param {
    lr_mult: 2
  }
  convolution_param {
    num_output: 16
    pad: 3
    kernel_size: 7
    stride: 1
    weight_filler {
      type: "xavier"
    }
    bias_filler {
      type: "constant"
    }
  }
}
layer {
  name: "relu1"
  type: "ReLU"
  bottom: "conv1"
  top: "conv1"
}
layer {
  name: "pool1"
  type: "Pooling"
  bottom: "conv1"
  top: "pool1"
  pooling_param {
    pool: MAX
    kernel_size: 2
    stride: 2
  }
}
layer {
  name: "conv2"
  type: "Convolution"
  bottom: "pool1"
  top: "conv2"
  param {
    lr_mult: 1
  }
  param {
    lr_mult: 2
  }
  convolution_param {
    num_output: 32
    pad: 2
    kernel_size: 5
    stride: 1
    weight_filler {
      type: "xavier"
    }
    bias_filler {
      type: "constant"
    }
  }
}
layer {
  name: "relu2"
  type: "ReLU"
  bottom: "conv2"
  top: "conv2"
}
layer {
  name: "pool2"
  type: "Pooling"
  bottom: "conv2"
  top: "pool2"
  pooling_param {
    pool: MAX
    kernel_size: 2
    stride: 2
  }
}
layer {
  name: "ip1"
  type: "InnerProduct"
  bottom: "pool2"
  top: "ip1"
  param {
    lr_mult: 1
  }
  param {
    lr_mult: 2
  }
  inner_product_param {
    num_output: 480
    weight_filler {
      type: "xavier"
    }
    bias_filler {
      type: "constant"
    }
  }
}
layer {
  name: "relu3"
  type: "ReLU"
  bottom: "ip1"
  top: "ip1"
}
layer {
  name: "ip2"
  type: "InnerProduct"
  bottom: "ip1"
  top: "ip2"
  param {
    lr_mult: 1
  }
  param {
    lr_mult: 2
  }
  inner_product_param {
    num_output: 200
    weight_filler {
      type: "xavier"
    }
    bias_filler {
      type: "constant"
    }
  }
}
layer {
  name: "relu4"
  type: "ReLU"
  bottom: "ip2"
  top: "ip2"
}
layer {
  name: "ip3"
  type: "InnerProduct"
  bottom: "ip2"
  top: "ip3"
  param {
    lr_mult: 1
  }
  param {
    lr_mult: 2
  }
  inner_product_param {
    num_output: 10
    weight_filler {
      type: "xavier"
    }
    bias_filler {
      type: "constant"
    }
  }
}
layer {
  name: "loss"
  type: "SoftmaxWithLoss"
  bottom: "ip3"
  bottom: "label"
  top: "loss"
}
I0414 05:10:13.342125  3378 layer_factory.hpp:77] Creating layer CNN
I0414 05:10:13.342216  3378 db_lmdb.cpp:35] Opened lmdb input/dataset-01/train_lmdb
I0414 05:10:13.342244  3378 net.cpp:84] Creating Layer CNN
I0414 05:10:13.342252  3378 net.cpp:380] CNN -> data
I0414 05:10:13.342272  3378 net.cpp:380] CNN -> label
I0414 05:10:13.342288  3378 data_transformer.cpp:25] Loading mean file from: input/dataset-01/mean_image.binaryproto
I0414 05:10:13.343605  3378 data_layer.cpp:45] output data size: 128,1,28,28
I0414 05:10:13.344789  3378 net.cpp:122] Setting up CNN
I0414 05:10:13.344805  3378 net.cpp:129] Top shape: 128 1 28 28 (100352)
I0414 05:10:13.344812  3378 net.cpp:129] Top shape: 128 (128)
I0414 05:10:13.344838  3378 net.cpp:137] Memory required for data: 401920
I0414 05:10:13.344846  3378 layer_factory.hpp:77] Creating layer conv1
I0414 05:10:13.344867  3378 net.cpp:84] Creating Layer conv1
I0414 05:10:13.344873  3378 net.cpp:406] conv1 <- data
I0414 05:10:13.344887  3378 net.cpp:380] conv1 -> conv1
I0414 05:10:13.748903  3378 net.cpp:122] Setting up conv1
I0414 05:10:13.748929  3378 net.cpp:129] Top shape: 128 16 28 28 (1605632)
I0414 05:10:13.748931  3378 net.cpp:137] Memory required for data: 6824448
I0414 05:10:13.748948  3378 layer_factory.hpp:77] Creating layer relu1
I0414 05:10:13.748956  3378 net.cpp:84] Creating Layer relu1
I0414 05:10:13.748961  3378 net.cpp:406] relu1 <- conv1
I0414 05:10:13.748966  3378 net.cpp:367] relu1 -> conv1 (in-place)
I0414 05:10:13.749122  3378 net.cpp:122] Setting up relu1
I0414 05:10:13.749130  3378 net.cpp:129] Top shape: 128 16 28 28 (1605632)
I0414 05:10:13.749132  3378 net.cpp:137] Memory required for data: 13246976
I0414 05:10:13.749135  3378 layer_factory.hpp:77] Creating layer pool1
I0414 05:10:13.749141  3378 net.cpp:84] Creating Layer pool1
I0414 05:10:13.749145  3378 net.cpp:406] pool1 <- conv1
I0414 05:10:13.749150  3378 net.cpp:380] pool1 -> pool1
I0414 05:10:13.749187  3378 net.cpp:122] Setting up pool1
I0414 05:10:13.749193  3378 net.cpp:129] Top shape: 128 16 14 14 (401408)
I0414 05:10:13.749195  3378 net.cpp:137] Memory required for data: 14852608
I0414 05:10:13.749198  3378 layer_factory.hpp:77] Creating layer conv2
I0414 05:10:13.749208  3378 net.cpp:84] Creating Layer conv2
I0414 05:10:13.749212  3378 net.cpp:406] conv2 <- pool1
I0414 05:10:13.749218  3378 net.cpp:380] conv2 -> conv2
I0414 05:10:13.750785  3378 net.cpp:122] Setting up conv2
I0414 05:10:13.750797  3378 net.cpp:129] Top shape: 128 32 14 14 (802816)
I0414 05:10:13.750800  3378 net.cpp:137] Memory required for data: 18063872
I0414 05:10:13.750808  3378 layer_factory.hpp:77] Creating layer relu2
I0414 05:10:13.750818  3378 net.cpp:84] Creating Layer relu2
I0414 05:10:13.750821  3378 net.cpp:406] relu2 <- conv2
I0414 05:10:13.750825  3378 net.cpp:367] relu2 -> conv2 (in-place)
I0414 05:10:13.750978  3378 net.cpp:122] Setting up relu2
I0414 05:10:13.750985  3378 net.cpp:129] Top shape: 128 32 14 14 (802816)
I0414 05:10:13.750988  3378 net.cpp:137] Memory required for data: 21275136
I0414 05:10:13.750990  3378 layer_factory.hpp:77] Creating layer pool2
I0414 05:10:13.750996  3378 net.cpp:84] Creating Layer pool2
I0414 05:10:13.750999  3378 net.cpp:406] pool2 <- conv2
I0414 05:10:13.751003  3378 net.cpp:380] pool2 -> pool2
I0414 05:10:13.751041  3378 net.cpp:122] Setting up pool2
I0414 05:10:13.751046  3378 net.cpp:129] Top shape: 128 32 7 7 (200704)
I0414 05:10:13.751049  3378 net.cpp:137] Memory required for data: 22077952
I0414 05:10:13.751051  3378 layer_factory.hpp:77] Creating layer ip1
I0414 05:10:13.751057  3378 net.cpp:84] Creating Layer ip1
I0414 05:10:13.751060  3378 net.cpp:406] ip1 <- pool2
I0414 05:10:13.751065  3378 net.cpp:380] ip1 -> ip1
I0414 05:10:13.754992  3378 net.cpp:122] Setting up ip1
I0414 05:10:13.755005  3378 net.cpp:129] Top shape: 128 480 (61440)
I0414 05:10:13.755008  3378 net.cpp:137] Memory required for data: 22323712
I0414 05:10:13.755017  3378 layer_factory.hpp:77] Creating layer relu3
I0414 05:10:13.755024  3378 net.cpp:84] Creating Layer relu3
I0414 05:10:13.755028  3378 net.cpp:406] relu3 <- ip1
I0414 05:10:13.755033  3378 net.cpp:367] relu3 -> ip1 (in-place)
I0414 05:10:13.755345  3378 net.cpp:122] Setting up relu3
I0414 05:10:13.755354  3378 net.cpp:129] Top shape: 128 480 (61440)
I0414 05:10:13.755357  3378 net.cpp:137] Memory required for data: 22569472
I0414 05:10:13.755360  3378 layer_factory.hpp:77] Creating layer ip2
I0414 05:10:13.755367  3378 net.cpp:84] Creating Layer ip2
I0414 05:10:13.755370  3378 net.cpp:406] ip2 <- ip1
I0414 05:10:13.755375  3378 net.cpp:380] ip2 -> ip2
I0414 05:10:13.755872  3378 net.cpp:122] Setting up ip2
I0414 05:10:13.755877  3378 net.cpp:129] Top shape: 128 200 (25600)
I0414 05:10:13.755898  3378 net.cpp:137] Memory required for data: 22671872
I0414 05:10:13.755904  3378 layer_factory.hpp:77] Creating layer relu4
I0414 05:10:13.755908  3378 net.cpp:84] Creating Layer relu4
I0414 05:10:13.755911  3378 net.cpp:406] relu4 <- ip2
I0414 05:10:13.755916  3378 net.cpp:367] relu4 -> ip2 (in-place)
I0414 05:10:13.756067  3378 net.cpp:122] Setting up relu4
I0414 05:10:13.756074  3378 net.cpp:129] Top shape: 128 200 (25600)
I0414 05:10:13.756078  3378 net.cpp:137] Memory required for data: 22774272
I0414 05:10:13.756079  3378 layer_factory.hpp:77] Creating layer ip3
I0414 05:10:13.756085  3378 net.cpp:84] Creating Layer ip3
I0414 05:10:13.756088  3378 net.cpp:406] ip3 <- ip2
I0414 05:10:13.756091  3378 net.cpp:380] ip3 -> ip3
I0414 05:10:13.756767  3378 net.cpp:122] Setting up ip3
I0414 05:10:13.756778  3378 net.cpp:129] Top shape: 128 10 (1280)
I0414 05:10:13.756780  3378 net.cpp:137] Memory required for data: 22779392
I0414 05:10:13.756789  3378 layer_factory.hpp:77] Creating layer loss
I0414 05:10:13.756796  3378 net.cpp:84] Creating Layer loss
I0414 05:10:13.756799  3378 net.cpp:406] loss <- ip3
I0414 05:10:13.756803  3378 net.cpp:406] loss <- label
I0414 05:10:13.756809  3378 net.cpp:380] loss -> loss
I0414 05:10:13.756821  3378 layer_factory.hpp:77] Creating layer loss
…
I0414 05:10:13.757267  3378 solver.cpp:190] Creating test net (#0) specified by net file: models/model-01/model_train_val.prototxt
I0414 05:10:13.757287  3378 net.cpp:294] The NetState phase (1) differed from the phase (0) specified by a rule in layer CNN
I0414 05:10:13.757359  3378 net.cpp:51] Initializing net from parameters: 
name: "Model"
state {
  phase: TEST
}
layer {
  name: "CNN"
  type: "Data"
  top: "data"
  top: "label"
  include {
    phase: TEST
  }
  transform_param {
    scale: 0.00390625
    mean_file: "input/dataset-01/mean_image.binaryproto"
  }
  data_param {
    source: "input/dataset-01/test_lmdb"
    batch_size: 220
    backend: LMDB
  }
}
layer {
  name: "conv1"
  type: "Convolution"
  bottom: "data"
  top: "conv1"
  param {
    lr_mult: 1
  }
  param {
    lr_mult: 2
  }
  convolution_param {
    num_output: 16
    pad: 3
    kernel_size: 7
    stride: 1
    weight_filler {
      type: "xavier"
    }
    bias_filler {
      type: "constant"
    }
  }
}
layer {
  name: "relu1"
  type: "ReLU"
  bottom: "conv1"
  top: "conv1"
}
layer {
  name: "pool1"
  type: "Pooling"
  bottom: "conv1"
  top: "pool1"
  pooling_param {
    pool: MAX
    kernel_size: 2
    stride: 2
  }
}
layer {
  name: "conv2"
  type: "Convolution"
  bottom: "pool1"
  top: "conv2"
  param {
    lr_mult: 1
  }
  param {
    lr_mult: 2
  }
  convolution_param {
    num_output: 32
    pad: 2
    kernel_size: 5
    stride: 1
    weight_filler {
      type: "xavier"
    }
    bias_filler {
      type: "constant"
    }
  }
}
layer {
  name: "relu2"
  type: "ReLU"
  bottom: "conv2"
  top: "conv2"
}
layer {
  name: "pool2"
  type: "Pooling"
  bottom: "conv2"
  top: "pool2"
  pooling_param {
    pool: MAX
    kernel_size: 2
    stride: 2
  }
}
layer {
  name: "ip1"
  type: "InnerProduct"
  bottom: "pool2"
  top: "ip1"
  param {
    lr_mult: 1
  }
  param {
    lr_mult: 2
  }
  inner_product_param {
    num_output: 480
    weight_filler {
      type: "xavier"
    }
    bias_filler {
      type: "constant"
    }
  }
}
layer {
  name: "relu3"
  type: "ReLU"
  bottom: "ip1"
  top: "ip1"
}
layer {
  name: "ip2"
  type: "InnerProduct"
  bottom: "ip1"
  top: "ip2"
  param {
    lr_mult: 1
  }
  param {
    lr_mult: 2
  }
  inner_product_param {
    num_output: 200
    weight_filler {
      type: "xavier"
    }
    bias_filler {
      type: "constant"
    }
  }
}
layer {
  name: "relu4"
  type: "ReLU"
  bottom: "ip2"
  top: "ip2"
}
layer {
  name: "ip3"
  type: "InnerProduct"
  bottom: "ip2"
  top: "ip3"
  param {
    lr_mult: 1
  }
  param {
    lr_mult: 2
  }
  inner_product_param {
    num_output: 10
    weight_filler {
      type: "xavier"
    }
    bias_filler {
      type: "constant"
    }
  }
}
layer {
  name: "accuracy"
  type: "Accuracy"
  bottom: "ip3"
  bottom: "label"
  top: "accuracy"
  include {
    phase: TEST
  }
}
layer {
  name: "loss"
  type: "SoftmaxWithLoss"
  bottom: "ip3"
  bottom: "label"
  top: "loss"
}
I0414 05:10:13.757428  3378 layer_factory.hpp:77] Creating layer CNN
I0414 05:10:13.757481  3378 db_lmdb.cpp:35] Opened lmdb input/dataset-01/test_lmdb
I0414 05:10:13.757498  3378 net.cpp:84] Creating Layer CNN
I0414 05:10:13.757503  3378 net.cpp:380] CNN -> data
I0414 05:10:13.757513  3378 net.cpp:380] CNN -> label
I0414 05:10:13.757524  3378 data_transformer.cpp:25] Loading mean file from: input/dataset-01/mean_image.binaryproto
I0414 05:10:13.757642  3378 data_layer.cpp:45] output data size: 220,1,28,28
I0414 05:10:13.759588  3378 net.cpp:122] Setting up CNN
I0414 05:10:13.759605  3378 net.cpp:129] Top shape: 220 1 28 28 (172480)
I0414 05:10:13.759609  3378 net.cpp:129] Top shape: 220 (220)
I0414 05:10:13.759613  3378 net.cpp:137] Memory required for data: 690800
I0414 05:10:13.759618  3378 layer_factory.hpp:77] Creating layer label_CNN_1_split
I0414 05:10:13.759629  3378 net.cpp:84] Creating Layer label_CNN_1_split
I0414 05:10:13.759634  3378 net.cpp:406] label_CNN_1_split <- label
I0414 05:10:13.759642  3378 net.cpp:380] label_CNN_1_split -> label_CNN_1_split_0
I0414 05:10:13.759652  3378 net.cpp:380] label_CNN_1_split -> label_CNN_1_split_1
I0414 05:10:13.759716  3378 net.cpp:122] Setting up label_CNN_1_split
I0414 05:10:13.759722  3378 net.cpp:129] Top shape: 220 (220)
I0414 05:10:13.759726  3378 net.cpp:129] Top shape: 220 (220)
I0414 05:10:13.759728  3378 net.cpp:137] Memory required for data: 692560
I0414 05:10:13.759732  3378 layer_factory.hpp:77] Creating layer conv1
I0414 05:10:13.759745  3378 net.cpp:84] Creating Layer conv1
I0414 05:10:13.759749  3378 net.cpp:406] conv1 <- data
I0414 05:10:13.759757  3378 net.cpp:380] conv1 -> conv1
I0414 05:10:13.761262  3378 net.cpp:122] Setting up conv1
I0414 05:10:13.761292  3378 net.cpp:129] Top shape: 220 16 28 28 (2759680)
I0414 05:10:13.761301  3378 net.cpp:137] Memory required for data: 11731280
I0414 05:10:13.761317  3378 layer_factory.hpp:77] Creating layer relu1
I0414 05:10:13.761329  3378 net.cpp:84] Creating Layer relu1
I0414 05:10:13.761335  3378 net.cpp:406] relu1 <- conv1
I0414 05:10:13.761343  3378 net.cpp:367] relu1 -> conv1 (in-place)
I0414 05:10:13.761917  3378 net.cpp:122] Setting up relu1
I0414 05:10:13.761940  3378 net.cpp:129] Top shape: 220 16 28 28 (2759680)
I0414 05:10:13.761946  3378 net.cpp:137] Memory required for data: 22770000
I0414 05:10:13.761952  3378 layer_factory.hpp:77] Creating layer pool1
I0414 05:10:13.761966  3378 net.cpp:84] Creating Layer pool1
I0414 05:10:13.761972  3378 net.cpp:406] pool1 <- conv1
I0414 05:10:13.761982  3378 net.cpp:380] pool1 -> pool1
I0414 05:10:13.762071  3378 net.cpp:122] Setting up pool1
I0414 05:10:13.762084  3378 net.cpp:129] Top shape: 220 16 14 14 (689920)
I0414 05:10:13.762089  3378 net.cpp:137] Memory required for data: 25529680
I0414 05:10:13.762094  3378 layer_factory.hpp:77] Creating layer conv2
I0414 05:10:13.762106  3378 net.cpp:84] Creating Layer conv2
I0414 05:10:13.762115  3378 net.cpp:406] conv2 <- pool1
I0414 05:10:13.762125  3378 net.cpp:380] conv2 -> conv2
I0414 05:10:13.763423  3378 net.cpp:122] Setting up conv2
I0414 05:10:13.763445  3378 net.cpp:129] Top shape: 220 32 14 14 (1379840)
I0414 05:10:13.763453  3378 net.cpp:137] Memory required for data: 31049040
I0414 05:10:13.763469  3378 layer_factory.hpp:77] Creating layer relu2
I0414 05:10:13.763481  3378 net.cpp:84] Creating Layer relu2
I0414 05:10:13.763489  3378 net.cpp:406] relu2 <- conv2
I0414 05:10:13.763495  3378 net.cpp:367] relu2 -> conv2 (in-place)
I0414 05:10:13.763711  3378 net.cpp:122] Setting up relu2
I0414 05:10:13.763723  3378 net.cpp:129] Top shape: 220 32 14 14 (1379840)
I0414 05:10:13.763727  3378 net.cpp:137] Memory required for data: 36568400
I0414 05:10:13.763731  3378 layer_factory.hpp:77] Creating layer pool2
I0414 05:10:13.763738  3378 net.cpp:84] Creating Layer pool2
I0414 05:10:13.763743  3378 net.cpp:406] pool2 <- conv2
I0414 05:10:13.763753  3378 net.cpp:380] pool2 -> pool2
I0414 05:10:13.763808  3378 net.cpp:122] Setting up pool2
I0414 05:10:13.763815  3378 net.cpp:129] Top shape: 220 32 7 7 (344960)
I0414 05:10:13.763818  3378 net.cpp:137] Memory required for data: 37948240
I0414 05:10:13.763821  3378 layer_factory.hpp:77] Creating layer ip1
I0414 05:10:13.763833  3378 net.cpp:84] Creating Layer ip1
I0414 05:10:13.763840  3378 net.cpp:406] ip1 <- pool2
I0414 05:10:13.763849  3378 net.cpp:380] ip1 -> ip1
I0414 05:10:13.767876  3378 net.cpp:122] Setting up ip1
I0414 05:10:13.767892  3378 net.cpp:129] Top shape: 220 480 (105600)
I0414 05:10:13.767895  3378 net.cpp:137] Memory required for data: 38370640
I0414 05:10:13.767905  3378 layer_factory.hpp:77] Creating layer relu3
I0414 05:10:13.767915  3378 net.cpp:84] Creating Layer relu3
I0414 05:10:13.767920  3378 net.cpp:406] relu3 <- ip1
I0414 05:10:13.767927  3378 net.cpp:367] relu3 -> ip1 (in-place)
I0414 05:10:13.768115  3378 net.cpp:122] Setting up relu3
I0414 05:10:13.768123  3378 net.cpp:129] Top shape: 220 480 (105600)
I0414 05:10:13.768126  3378 net.cpp:137] Memory required for data: 38793040
I0414 05:10:13.768131  3378 layer_factory.hpp:77] Creating layer ip2
I0414 05:10:13.768141  3378 net.cpp:84] Creating Layer ip2
I0414 05:10:13.768146  3378 net.cpp:406] ip2 <- ip1
I0414 05:10:13.768154  3378 net.cpp:380] ip2 -> ip2
I0414 05:10:13.768667  3378 net.cpp:122] Setting up ip2
I0414 05:10:13.768674  3378 net.cpp:129] Top shape: 220 200 (44000)
I0414 05:10:13.768677  3378 net.cpp:137] Memory required for data: 38969040
I0414 05:10:13.768682  3378 layer_factory.hpp:77] Creating layer relu4
I0414 05:10:13.768689  3378 net.cpp:84] Creating Layer relu4
I0414 05:10:13.768694  3378 net.cpp:406] relu4 <- ip2
I0414 05:10:13.768702  3378 net.cpp:367] relu4 -> ip2 (in-place)
I0414 05:10:13.768872  3378 net.cpp:122] Setting up relu4
I0414 05:10:13.768879  3378 net.cpp:129] Top shape: 220 200 (44000)
I0414 05:10:13.768882  3378 net.cpp:137] Memory required for data: 39145040
I0414 05:10:13.768885  3378 layer_factory.hpp:77] Creating layer ip3
I0414 05:10:13.768893  3378 net.cpp:84] Creating Layer ip3
I0414 05:10:13.768898  3378 net.cpp:406] ip3 <- ip2
I0414 05:10:13.768906  3378 net.cpp:380] ip3 -> ip3
I0414 05:10:13.769022  3378 net.cpp:122] Setting up ip3
I0414 05:10:13.769029  3378 net.cpp:129] Top shape: 220 10 (2200)
I0414 05:10:13.769032  3378 net.cpp:137] Memory required for data: 39153840
I0414 05:10:13.769040  3378 layer_factory.hpp:77] Creating layer ip3_ip3_0_split
I0414 05:10:13.769050  3378 net.cpp:84] Creating Layer ip3_ip3_0_split
I0414 05:10:13.769055  3378 net.cpp:406] ip3_ip3_0_split <- ip3
I0414 05:10:13.769062  3378 net.cpp:380] ip3_ip3_0_split -> ip3_ip3_0_split_0
I0414 05:10:13.769086  3378 net.cpp:380] ip3_ip3_0_split -> ip3_ip3_0_split_1
I0414 05:10:13.769129  3378 net.cpp:122] Setting up ip3_ip3_0_split
I0414 05:10:13.769136  3378 net.cpp:129] Top shape: 220 10 (2200)
I0414 05:10:13.769140  3378 net.cpp:129] Top shape: 220 10 (2200)
I0414 05:10:13.769142  3378 net.cpp:137] Memory required for data: 39171440
I0414 05:10:13.769146  3378 layer_factory.hpp:77] Creating layer accuracy
I0414 05:10:13.769155  3378 net.cpp:84] Creating Layer accuracy
I0414 05:10:13.769160  3378 net.cpp:406] accuracy <- ip3_ip3_0_split_0
I0414 05:10:13.769165  3378 net.cpp:406] accuracy <- label_CNN_1_split_0
I0414 05:10:13.769174  3378 net.cpp:380] accuracy -> accuracy
…
