…
I0414 05:18:19.046303  3781 net.cpp:294] The NetState phase (0) differed from the phase (1) specified by a rule in layer accuracy
I0414 05:18:19.046377  3781 net.cpp:51] Initializing net from parameters: 
name: "Model"
state {
  phase: TRAIN
  level: 0
  stage: ""
}
layer {
  name: "CNN"
  type: "Data"
  top: "data"
  top: "label"
  include {
    phase: TRAIN
  }
  transform_param {
    scale: 0.00390625
    mean_file: "input/dataset-01/mean_image.binaryproto"
  }
  data_param {
    source: "input/dataset-01/train_lmdb"
    batch_size: 128
    backend: LMDB
  }
}
layer {
  name: "conv1"
  type: "Convolution"
  bottom: "data"
  top: "conv1"
  param {
    lr_mult: 1
  }
  param {
    lr_mult: 2
  }
  convolution_param {
    num_output: 16
    pad: 3
    kernel_size: 7
    stride: 1
    weight_filler {
      type: "xavier"
    }
    bias_filler {
      type: "constant"
    }
  }
}
layer {
  name: "relu1"
  type: "ReLU"
  bottom: "conv1"
  top: "conv1"
}
layer {
  name: "pool1"
  type: "Pooling"
  bottom: "conv1"
  top: "pool1"
  pooling_param {
    pool: MAX
    kernel_size: 2
    stride: 2
  }
}
layer {
  name: "conv2"
  type: "Convolution"
  bottom: "pool1"
  top: "conv2"
  param {
    lr_mult: 1
  }
  param {
    lr_mult: 2
  }
  convolution_param {
    num_output: 32
    pad: 2
    kernel_size: 5
    stride: 1
    weight_filler {
      type: "xavier"
    }
    bias_filler {
      type: "constant"
    }
  }
}
layer {
  name: "relu2"
  type: "ReLU"
  bottom: "conv2"
  top: "conv2"
}
layer {
  name: "pool2"
  type: "Pooling"
  bottom: "conv2"
  top: "pool2"
  pooling_param {
    pool: MAX
    kernel_size: 2
    stride: 2
  }
}
layer {
  name: "ip1"
  type: "InnerProduct"
  bottom: "pool2"
  top: "ip1"
  param {
    lr_mult: 1
  }
  param {
    lr_mult: 2
  }
  inner_product_param {
    num_output: 120
    weight_filler {
      type: "xavier"
    }
    bias_filler {
      type: "constant"
    }
  }
}
layer {
  name: "relu3"
  type: "ReLU"
  bottom: "ip1"
  top: "ip1"
}
layer {
  name: "ip2"
  type: "InnerProduct"
  bottom: "ip1"
  top: "ip2"
  param {
    lr_mult: 1
  }
  param {
    lr_mult: 2
  }
  inner_product_param {
    num_output: 50
    weight_filler {
      type: "xavier"
    }
    bias_filler {
      type: "constant"
    }
  }
}
layer {
  name: "relu4"
  type: "ReLU"
  bottom: "ip2"
  top: "ip2"
}
layer {
  name: "ip3"
  type: "InnerProduct"
  bottom: "ip2"
  top: "ip3"
  param {
    lr_mult: 1
  }
  param {
    lr_mult: 2
  }
  inner_product_param {
    num_output: 10
    weight_filler {
      type: "xavier"
    }
    bias_filler {
      type: "constant"
    }
  }
}
layer {
  name: "loss"
  type: "SoftmaxWithLoss"
  bottom: "ip3"
  bottom: "label"
  top: "loss"
}
I0414 05:18:19.046447  3781 layer_factory.hpp:77] Creating layer CNN
I0414 05:18:19.046533  3781 db_lmdb.cpp:35] Opened lmdb input/dataset-01/train_lmdb
I0414 05:18:19.046557  3781 net.cpp:84] Creating Layer CNN
I0414 05:18:19.046564  3781 net.cpp:380] CNN -> data
I0414 05:18:19.046581  3781 net.cpp:380] CNN -> label
I0414 05:18:19.046591  3781 data_transformer.cpp:25] Loading mean file from: input/dataset-01/mean_image.binaryproto
I0414 05:18:19.047932  3781 data_layer.cpp:45] output data size: 128,1,28,28
I0414 05:18:19.049134  3781 net.cpp:122] Setting up CNN
I0414 05:18:19.049149  3781 net.cpp:129] Top shape: 128 1 28 28 (100352)
I0414 05:18:19.049155  3781 net.cpp:129] Top shape: 128 (128)
I0414 05:18:19.049175  3781 net.cpp:137] Memory required for data: 401920
I0414 05:18:19.049182  3781 layer_factory.hpp:77] Creating layer conv1
I0414 05:18:19.049202  3781 net.cpp:84] Creating Layer conv1
I0414 05:18:19.049209  3781 net.cpp:406] conv1 <- data
I0414 05:18:19.049221  3781 net.cpp:380] conv1 -> conv1
I0414 05:18:19.449405  3781 net.cpp:122] Setting up conv1
I0414 05:18:19.449431  3781 net.cpp:129] Top shape: 128 16 28 28 (1605632)
I0414 05:18:19.449435  3781 net.cpp:137] Memory required for data: 6824448
I0414 05:18:19.449453  3781 layer_factory.hpp:77] Creating layer relu1
I0414 05:18:19.449467  3781 net.cpp:84] Creating Layer relu1
I0414 05:18:19.449472  3781 net.cpp:406] relu1 <- conv1
I0414 05:18:19.449479  3781 net.cpp:367] relu1 -> conv1 (in-place)
I0414 05:18:19.449628  3781 net.cpp:122] Setting up relu1
I0414 05:18:19.449635  3781 net.cpp:129] Top shape: 128 16 28 28 (1605632)
I0414 05:18:19.449638  3781 net.cpp:137] Memory required for data: 13246976
I0414 05:18:19.449641  3781 layer_factory.hpp:77] Creating layer pool1
I0414 05:18:19.449648  3781 net.cpp:84] Creating Layer pool1
I0414 05:18:19.449652  3781 net.cpp:406] pool1 <- conv1
I0414 05:18:19.449656  3781 net.cpp:380] pool1 -> pool1
I0414 05:18:19.449697  3781 net.cpp:122] Setting up pool1
I0414 05:18:19.449702  3781 net.cpp:129] Top shape: 128 16 14 14 (401408)
I0414 05:18:19.449705  3781 net.cpp:137] Memory required for data: 14852608
I0414 05:18:19.449707  3781 layer_factory.hpp:77] Creating layer conv2
I0414 05:18:19.449717  3781 net.cpp:84] Creating Layer conv2
I0414 05:18:19.449719  3781 net.cpp:406] conv2 <- pool1
I0414 05:18:19.449723  3781 net.cpp:380] conv2 -> conv2
I0414 05:18:19.451223  3781 net.cpp:122] Setting up conv2
I0414 05:18:19.451236  3781 net.cpp:129] Top shape: 128 32 14 14 (802816)
I0414 05:18:19.451238  3781 net.cpp:137] Memory required for data: 18063872
I0414 05:18:19.451246  3781 layer_factory.hpp:77] Creating layer relu2
I0414 05:18:19.451251  3781 net.cpp:84] Creating Layer relu2
I0414 05:18:19.451254  3781 net.cpp:406] relu2 <- conv2
I0414 05:18:19.451258  3781 net.cpp:367] relu2 -> conv2 (in-place)
I0414 05:18:19.451398  3781 net.cpp:122] Setting up relu2
I0414 05:18:19.451406  3781 net.cpp:129] Top shape: 128 32 14 14 (802816)
I0414 05:18:19.451407  3781 net.cpp:137] Memory required for data: 21275136
I0414 05:18:19.451411  3781 layer_factory.hpp:77] Creating layer pool2
I0414 05:18:19.451414  3781 net.cpp:84] Creating Layer pool2
I0414 05:18:19.451416  3781 net.cpp:406] pool2 <- conv2
I0414 05:18:19.451421  3781 net.cpp:380] pool2 -> pool2
I0414 05:18:19.451454  3781 net.cpp:122] Setting up pool2
I0414 05:18:19.451459  3781 net.cpp:129] Top shape: 128 32 7 7 (200704)
I0414 05:18:19.451462  3781 net.cpp:137] Memory required for data: 22077952
I0414 05:18:19.451464  3781 layer_factory.hpp:77] Creating layer ip1
I0414 05:18:19.451469  3781 net.cpp:84] Creating Layer ip1
I0414 05:18:19.451472  3781 net.cpp:406] ip1 <- pool2
I0414 05:18:19.451476  3781 net.cpp:380] ip1 -> ip1
I0414 05:18:19.452891  3781 net.cpp:122] Setting up ip1
I0414 05:18:19.452903  3781 net.cpp:129] Top shape: 128 120 (15360)
I0414 05:18:19.452905  3781 net.cpp:137] Memory required for data: 22139392
I0414 05:18:19.452916  3781 layer_factory.hpp:77] Creating layer relu3
I0414 05:18:19.452924  3781 net.cpp:84] Creating Layer relu3
I0414 05:18:19.452929  3781 net.cpp:406] relu3 <- ip1
I0414 05:18:19.452932  3781 net.cpp:367] relu3 -> ip1 (in-place)
I0414 05:18:19.453212  3781 net.cpp:122] Setting up relu3
I0414 05:18:19.453222  3781 net.cpp:129] Top shape: 128 120 (15360)
I0414 05:18:19.453224  3781 net.cpp:137] Memory required for data: 22200832
I0414 05:18:19.453227  3781 layer_factory.hpp:77] Creating layer ip2
I0414 05:18:19.453233  3781 net.cpp:84] Creating Layer ip2
I0414 05:18:19.453236  3781 net.cpp:406] ip2 <- ip1
I0414 05:18:19.453240  3781 net.cpp:380] ip2 -> ip2
I0414 05:18:19.453348  3781 net.cpp:122] Setting up ip2
I0414 05:18:19.453354  3781 net.cpp:129] Top shape: 128 50 (6400)
I0414 05:18:19.453377  3781 net.cpp:137] Memory required for data: 22226432
I0414 05:18:19.453383  3781 layer_factory.hpp:77] Creating layer relu4
I0414 05:18:19.453387  3781 net.cpp:84] Creating Layer relu4
I0414 05:18:19.453392  3781 net.cpp:406] relu4 <- ip2
I0414 05:18:19.453397  3781 net.cpp:367] relu4 -> ip2 (in-place)
I0414 05:18:19.453536  3781 net.cpp:122] Setting up relu4
I0414 05:18:19.453543  3781 net.cpp:129] Top shape: 128 50 (6400)
I0414 05:18:19.453546  3781 net.cpp:137] Memory required for data: 22252032
I0414 05:18:19.453548  3781 layer_factory.hpp:77] Creating layer ip3
I0414 05:18:19.453552  3781 net.cpp:84] Creating Layer ip3
I0414 05:18:19.453557  3781 net.cpp:406] ip3 <- ip2
I0414 05:18:19.453562  3781 net.cpp:380] ip3 -> ip3
I0414 05:18:19.453651  3781 net.cpp:122] Setting up ip3
I0414 05:18:19.453657  3781 net.cpp:129] Top shape: 128 10 (1280)
I0414 05:18:19.453660  3781 net.cpp:137] Memory required for data: 22257152
I0414 05:18:19.453668  3781 layer_factory.hpp:77] Creating layer loss
I0414 05:18:19.453673  3781 net.cpp:84] Creating Layer loss
I0414 05:18:19.453676  3781 net.cpp:406] loss <- ip3
I0414 05:18:19.453680  3781 net.cpp:406] loss <- label
I0414 05:18:19.453685  3781 net.cpp:380] loss -> loss
I0414 05:18:19.453693  3781 layer_factory.hpp:77] Creating layer loss
…
I0414 05:18:19.454669  3781 solver.cpp:190] Creating test net (#0) specified by net file: models/model-02/model_train_val.prototxt
I0414 05:18:19.454690  3781 net.cpp:294] The NetState phase (1) differed from the phase (0) specified by a rule in layer CNN
I0414 05:18:19.454764  3781 net.cpp:51] Initializing net from parameters: 
name: "Model"
state {
  phase: TEST
}
layer {
  name: "CNN"
  type: "Data"
  top: "data"
  top: "label"
  include {
    phase: TEST
  }
  transform_param {
    scale: 0.00390625
    mean_file: "input/dataset-01/mean_image.binaryproto"
  }
  data_param {
    source: "input/dataset-01/test_lmdb"
    batch_size: 220
    backend: LMDB
  }
}
layer {
  name: "conv1"
  type: "Convolution"
  bottom: "data"
  top: "conv1"
  param {
    lr_mult: 1
  }
  param {
    lr_mult: 2
  }
  convolution_param {
    num_output: 16
    pad: 3
    kernel_size: 7
    stride: 1
    weight_filler {
      type: "xavier"
    }
    bias_filler {
      type: "constant"
    }
  }
}
layer {
  name: "relu1"
  type: "ReLU"
  bottom: "conv1"
  top: "conv1"
}
layer {
  name: "pool1"
  type: "Pooling"
  bottom: "conv1"
  top: "pool1"
  pooling_param {
    pool: MAX
    kernel_size: 2
    stride: 2
  }
}
layer {
  name: "conv2"
  type: "Convolution"
  bottom: "pool1"
  top: "conv2"
  param {
    lr_mult: 1
  }
  param {
    lr_mult: 2
  }
  convolution_param {
    num_output: 32
    pad: 2
    kernel_size: 5
    stride: 1
    weight_filler {
      type: "xavier"
    }
    bias_filler {
      type: "constant"
    }
  }
}
layer {
  name: "relu2"
  type: "ReLU"
  bottom: "conv2"
  top: "conv2"
}
layer {
  name: "pool2"
  type: "Pooling"
  bottom: "conv2"
  top: "pool2"
  pooling_param {
    pool: MAX
    kernel_size: 2
    stride: 2
  }
}
layer {
  name: "ip1"
  type: "InnerProduct"
  bottom: "pool2"
  top: "ip1"
  param {
    lr_mult: 1
  }
  param {
    lr_mult: 2
  }
  inner_product_param {
    num_output: 120
    weight_filler {
      type: "xavier"
    }
    bias_filler {
      type: "constant"
    }
  }
}
layer {
  name: "relu3"
  type: "ReLU"
  bottom: "ip1"
  top: "ip1"
}
layer {
  name: "ip2"
  type: "InnerProduct"
  bottom: "ip1"
  top: "ip2"
  param {
    lr_mult: 1
  }
  param {
    lr_mult: 2
  }
  inner_product_param {
    num_output: 50
    weight_filler {
      type: "xavier"
    }
    bias_filler {
      type: "constant"
    }
  }
}
layer {
  name: "relu4"
  type: "ReLU"
  bottom: "ip2"
  top: "ip2"
}
layer {
  name: "ip3"
  type: "InnerProduct"
  bottom: "ip2"
  top: "ip3"
  param {
    lr_mult: 1
  }
  param {
    lr_mult: 2
  }
  inner_product_param {
    num_output: 10
    weight_filler {
      type: "xavier"
    }
    bias_filler {
      type: "constant"
    }
  }
}
layer {
  name: "accuracy"
  type: "Accuracy"
  bottom: "ip3"
  bottom: "label"
  top: "accuracy"
  include {
    phase: TEST
  }
}
layer {
  name: "loss"
  type: "SoftmaxWithLoss"
  bottom: "ip3"
  bottom: "label"
  top: "loss"
}
I0414 05:18:19.454833  3781 layer_factory.hpp:77] Creating layer CNN
I0414 05:18:19.454883  3781 db_lmdb.cpp:35] Opened lmdb input/dataset-01/test_lmdb
I0414 05:18:19.454897  3781 net.cpp:84] Creating Layer CNN
I0414 05:18:19.454903  3781 net.cpp:380] CNN -> data
I0414 05:18:19.454912  3781 net.cpp:380] CNN -> label
I0414 05:18:19.454921  3781 data_transformer.cpp:25] Loading mean file from: input/dataset-01/mean_image.binaryproto
I0414 05:18:19.455035  3781 data_layer.cpp:45] output data size: 220,1,28,28
I0414 05:18:19.456432  3781 net.cpp:122] Setting up CNN
I0414 05:18:19.456447  3781 net.cpp:129] Top shape: 220 1 28 28 (172480)
I0414 05:18:19.456451  3781 net.cpp:129] Top shape: 220 (220)
I0414 05:18:19.456454  3781 net.cpp:137] Memory required for data: 690800
I0414 05:18:19.456456  3781 layer_factory.hpp:77] Creating layer label_CNN_1_split
I0414 05:18:19.456465  3781 net.cpp:84] Creating Layer label_CNN_1_split
I0414 05:18:19.456467  3781 net.cpp:406] label_CNN_1_split <- label
I0414 05:18:19.456472  3781 net.cpp:380] label_CNN_1_split -> label_CNN_1_split_0
I0414 05:18:19.456480  3781 net.cpp:380] label_CNN_1_split -> label_CNN_1_split_1
I0414 05:18:19.456523  3781 net.cpp:122] Setting up label_CNN_1_split
I0414 05:18:19.456528  3781 net.cpp:129] Top shape: 220 (220)
I0414 05:18:19.456533  3781 net.cpp:129] Top shape: 220 (220)
I0414 05:18:19.456537  3781 net.cpp:137] Memory required for data: 692560
I0414 05:18:19.456539  3781 layer_factory.hpp:77] Creating layer conv1
I0414 05:18:19.456548  3781 net.cpp:84] Creating Layer conv1
I0414 05:18:19.456552  3781 net.cpp:406] conv1 <- data
I0414 05:18:19.456557  3781 net.cpp:380] conv1 -> conv1
I0414 05:18:19.457659  3781 net.cpp:122] Setting up conv1
I0414 05:18:19.457672  3781 net.cpp:129] Top shape: 220 16 28 28 (2759680)
I0414 05:18:19.457684  3781 net.cpp:137] Memory required for data: 11731280
I0414 05:18:19.457691  3781 layer_factory.hpp:77] Creating layer relu1
I0414 05:18:19.457697  3781 net.cpp:84] Creating Layer relu1
I0414 05:18:19.457701  3781 net.cpp:406] relu1 <- conv1
I0414 05:18:19.457708  3781 net.cpp:367] relu1 -> conv1 (in-place)
I0414 05:18:19.458000  3781 net.cpp:122] Setting up relu1
I0414 05:18:19.458010  3781 net.cpp:129] Top shape: 220 16 28 28 (2759680)
I0414 05:18:19.458014  3781 net.cpp:137] Memory required for data: 22770000
I0414 05:18:19.458016  3781 layer_factory.hpp:77] Creating layer pool1
I0414 05:18:19.458024  3781 net.cpp:84] Creating Layer pool1
I0414 05:18:19.458029  3781 net.cpp:406] pool1 <- conv1
I0414 05:18:19.458037  3781 net.cpp:380] pool1 -> pool1
I0414 05:18:19.458089  3781 net.cpp:122] Setting up pool1
I0414 05:18:19.458097  3781 net.cpp:129] Top shape: 220 16 14 14 (689920)
I0414 05:18:19.458103  3781 net.cpp:137] Memory required for data: 25529680
I0414 05:18:19.458106  3781 layer_factory.hpp:77] Creating layer conv2
I0414 05:18:19.458117  3781 net.cpp:84] Creating Layer conv2
I0414 05:18:19.458120  3781 net.cpp:406] conv2 <- pool1
I0414 05:18:19.458124  3781 net.cpp:380] conv2 -> conv2
I0414 05:18:19.459112  3781 net.cpp:122] Setting up conv2
I0414 05:18:19.459122  3781 net.cpp:129] Top shape: 220 32 14 14 (1379840)
I0414 05:18:19.459128  3781 net.cpp:137] Memory required for data: 31049040
I0414 05:18:19.459137  3781 layer_factory.hpp:77] Creating layer relu2
I0414 05:18:19.459144  3781 net.cpp:84] Creating Layer relu2
I0414 05:18:19.459147  3781 net.cpp:406] relu2 <- conv2
I0414 05:18:19.459154  3781 net.cpp:367] relu2 -> conv2 (in-place)
I0414 05:18:19.459398  3781 net.cpp:122] Setting up relu2
I0414 05:18:19.459408  3781 net.cpp:129] Top shape: 220 32 14 14 (1379840)
I0414 05:18:19.459412  3781 net.cpp:137] Memory required for data: 36568400
I0414 05:18:19.459419  3781 layer_factory.hpp:77] Creating layer pool2
I0414 05:18:19.459425  3781 net.cpp:84] Creating Layer pool2
I0414 05:18:19.459431  3781 net.cpp:406] pool2 <- conv2
I0414 05:18:19.459437  3781 net.cpp:380] pool2 -> pool2
I0414 05:18:19.459480  3781 net.cpp:122] Setting up pool2
I0414 05:18:19.459486  3781 net.cpp:129] Top shape: 220 32 7 7 (344960)
I0414 05:18:19.459489  3781 net.cpp:137] Memory required for data: 37948240
I0414 05:18:19.459494  3781 layer_factory.hpp:77] Creating layer ip1
I0414 05:18:19.459504  3781 net.cpp:84] Creating Layer ip1
I0414 05:18:19.459507  3781 net.cpp:406] ip1 <- pool2
I0414 05:18:19.459512  3781 net.cpp:380] ip1 -> ip1
I0414 05:18:19.461014  3781 net.cpp:122] Setting up ip1
I0414 05:18:19.461030  3781 net.cpp:129] Top shape: 220 120 (26400)
I0414 05:18:19.461033  3781 net.cpp:137] Memory required for data: 38053840
I0414 05:18:19.461043  3781 layer_factory.hpp:77] Creating layer relu3
I0414 05:18:19.461050  3781 net.cpp:84] Creating Layer relu3
I0414 05:18:19.461055  3781 net.cpp:406] relu3 <- ip1
I0414 05:18:19.461058  3781 net.cpp:367] relu3 -> ip1 (in-place)
I0414 05:18:19.461244  3781 net.cpp:122] Setting up relu3
I0414 05:18:19.461252  3781 net.cpp:129] Top shape: 220 120 (26400)
I0414 05:18:19.461254  3781 net.cpp:137] Memory required for data: 38159440
I0414 05:18:19.461257  3781 layer_factory.hpp:77] Creating layer ip2
I0414 05:18:19.461264  3781 net.cpp:84] Creating Layer ip2
I0414 05:18:19.461269  3781 net.cpp:406] ip2 <- ip1
I0414 05:18:19.461275  3781 net.cpp:380] ip2 -> ip2
I0414 05:18:19.461400  3781 net.cpp:122] Setting up ip2
I0414 05:18:19.461405  3781 net.cpp:129] Top shape: 220 50 (11000)
I0414 05:18:19.461408  3781 net.cpp:137] Memory required for data: 38203440
I0414 05:18:19.461412  3781 layer_factory.hpp:77] Creating layer relu4
I0414 05:18:19.461417  3781 net.cpp:84] Creating Layer relu4
I0414 05:18:19.461422  3781 net.cpp:406] relu4 <- ip2
I0414 05:18:19.461428  3781 net.cpp:367] relu4 -> ip2 (in-place)
I0414 05:18:19.461591  3781 net.cpp:122] Setting up relu4
I0414 05:18:19.461597  3781 net.cpp:129] Top shape: 220 50 (11000)
I0414 05:18:19.461601  3781 net.cpp:137] Memory required for data: 38247440
I0414 05:18:19.461602  3781 layer_factory.hpp:77] Creating layer ip3
I0414 05:18:19.461608  3781 net.cpp:84] Creating Layer ip3
I0414 05:18:19.461613  3781 net.cpp:406] ip3 <- ip2
I0414 05:18:19.461619  3781 net.cpp:380] ip3 -> ip3
I0414 05:18:19.461720  3781 net.cpp:122] Setting up ip3
I0414 05:18:19.461727  3781 net.cpp:129] Top shape: 220 10 (2200)
I0414 05:18:19.461730  3781 net.cpp:137] Memory required for data: 38256240
I0414 05:18:19.461736  3781 layer_factory.hpp:77] Creating layer ip3_ip3_0_split
I0414 05:18:19.461741  3781 net.cpp:84] Creating Layer ip3_ip3_0_split
I0414 05:18:19.461745  3781 net.cpp:406] ip3_ip3_0_split <- ip3
I0414 05:18:19.461748  3781 net.cpp:380] ip3_ip3_0_split -> ip3_ip3_0_split_0
I0414 05:18:19.461771  3781 net.cpp:380] ip3_ip3_0_split -> ip3_ip3_0_split_1
I0414 05:18:19.461802  3781 net.cpp:122] Setting up ip3_ip3_0_split
I0414 05:18:19.461807  3781 net.cpp:129] Top shape: 220 10 (2200)
I0414 05:18:19.461809  3781 net.cpp:129] Top shape: 220 10 (2200)
I0414 05:18:19.461812  3781 net.cpp:137] Memory required for data: 38273840
I0414 05:18:19.461814  3781 layer_factory.hpp:77] Creating layer accuracy
I0414 05:18:19.461822  3781 net.cpp:84] Creating Layer accuracy
I0414 05:18:19.461827  3781 net.cpp:406] accuracy <- ip3_ip3_0_split_0
I0414 05:18:19.461830  3781 net.cpp:406] accuracy <- label_CNN_1_split_0
I0414 05:18:19.461838  3781 net.cpp:380] accuracy -> accuracy
…
