…
I0414 05:20:57.035529  3900 net.cpp:294] The NetState phase (0) differed from the phase (1) specified by a rule in layer accuracy
I0414 05:20:57.035598  3900 net.cpp:51] Initializing net from parameters: 
name: "Model"
state {
  phase: TRAIN
  level: 0
  stage: ""
}
layer {
  name: "CNN"
  type: "Data"
  top: "data"
  top: "label"
  include {
    phase: TRAIN
  }
  transform_param {
    scale: 0.00390625
    mean_file: "input/dataset-01/mean_image.binaryproto"
  }
  data_param {
    source: "input/dataset-01/train_lmdb"
    batch_size: 128
    backend: LMDB
  }
}
layer {
  name: "conv1"
  type: "Convolution"
  bottom: "data"
  top: "conv1"
  param {
    lr_mult: 1
  }
  param {
    lr_mult: 2
  }
  convolution_param {
    num_output: 16
    pad: 3
    kernel_size: 7
    stride: 1
    weight_filler {
      type: "xavier"
    }
    bias_filler {
      type: "constant"
    }
  }
}
layer {
  name: "relu1"
  type: "ReLU"
  bottom: "conv1"
  top: "conv1"
}
layer {
  name: "pool1"
  type: "Pooling"
  bottom: "conv1"
  top: "pool1"
  pooling_param {
    pool: MAX
    kernel_size: 2
    stride: 2
  }
}
layer {
  name: "conv2"
  type: "Convolution"
  bottom: "pool1"
  top: "conv2"
  param {
    lr_mult: 1
  }
  param {
    lr_mult: 2
  }
  convolution_param {
    num_output: 32
    pad: 2
    kernel_size: 5
    stride: 1
    weight_filler {
      type: "xavier"
    }
    bias_filler {
      type: "constant"
    }
  }
}
layer {
  name: "relu2"
  type: "ReLU"
  bottom: "conv2"
  top: "conv2"
}
layer {
  name: "pool2"
  type: "Pooling"
  bottom: "conv2"
  top: "pool2"
  pooling_param {
    pool: MAX
    kernel_size: 2
    stride: 2
  }
}
layer {
  name: "ip1"
  type: "InnerProduct"
  bottom: "pool2"
  top: "ip1"
  param {
    lr_mult: 1
  }
  param {
    lr_mult: 2
  }
  inner_product_param {
    num_output: 120
    weight_filler {
      type: "xavier"
    }
    bias_filler {
      type: "constant"
    }
  }
}
layer {
  name: "relu3"
  type: "ReLU"
  bottom: "ip1"
  top: "ip1"
}
layer {
  name: "ip2"
  type: "InnerProduct"
  bottom: "ip1"
  top: "ip2"
  param {
    lr_mult: 1
  }
  param {
    lr_mult: 2
  }
  inner_product_param {
    num_output: 50
    weight_filler {
      type: "xavier"
    }
    bias_filler {
      type: "constant"
    }
  }
}
layer {
  name: "relu4"
  type: "ReLU"
  bottom: "ip2"
  top: "ip2"
}
layer {
  name: "ip3"
  type: "InnerProduct"
  bottom: "ip2"
  top: "ip3"
  param {
    lr_mult: 1
  }
  param {
    lr_mult: 2
  }
  inner_product_param {
    num_output: 10
    weight_filler {
      type: "xavier"
    }
    bias_filler {
      type: "constant"
    }
  }
}
layer {
  name: "loss"
  type: "SoftmaxWithLoss"
  bottom: "ip3"
  bottom: "label"
  top: "loss"
}
I0414 05:20:57.035648  3900 layer_factory.hpp:77] Creating layer CNN
I0414 05:20:57.035742  3900 db_lmdb.cpp:35] Opened lmdb input/dataset-01/train_lmdb
I0414 05:20:57.035764  3900 net.cpp:84] Creating Layer CNN
I0414 05:20:57.035773  3900 net.cpp:380] CNN -> data
I0414 05:20:57.035790  3900 net.cpp:380] CNN -> label
I0414 05:20:57.035804  3900 data_transformer.cpp:25] Loading mean file from: input/dataset-01/mean_image.binaryproto
I0414 05:20:57.037106  3900 data_layer.cpp:45] output data size: 128,1,28,28
I0414 05:20:57.038265  3900 net.cpp:122] Setting up CNN
I0414 05:20:57.038283  3900 net.cpp:129] Top shape: 128 1 28 28 (100352)
I0414 05:20:57.038288  3900 net.cpp:129] Top shape: 128 (128)
I0414 05:20:57.038309  3900 net.cpp:137] Memory required for data: 401920
I0414 05:20:57.038316  3900 layer_factory.hpp:77] Creating layer conv1
I0414 05:20:57.038332  3900 net.cpp:84] Creating Layer conv1
I0414 05:20:57.038338  3900 net.cpp:406] conv1 <- data
I0414 05:20:57.038348  3900 net.cpp:380] conv1 -> conv1
I0414 05:20:57.445011  3900 net.cpp:122] Setting up conv1
I0414 05:20:57.445039  3900 net.cpp:129] Top shape: 128 16 28 28 (1605632)
I0414 05:20:57.445042  3900 net.cpp:137] Memory required for data: 6824448
I0414 05:20:57.445060  3900 layer_factory.hpp:77] Creating layer relu1
I0414 05:20:57.445068  3900 net.cpp:84] Creating Layer relu1
I0414 05:20:57.445073  3900 net.cpp:406] relu1 <- conv1
I0414 05:20:57.445078  3900 net.cpp:367] relu1 -> conv1 (in-place)
I0414 05:20:57.445225  3900 net.cpp:122] Setting up relu1
I0414 05:20:57.445233  3900 net.cpp:129] Top shape: 128 16 28 28 (1605632)
I0414 05:20:57.445236  3900 net.cpp:137] Memory required for data: 13246976
I0414 05:20:57.445238  3900 layer_factory.hpp:77] Creating layer pool1
I0414 05:20:57.445243  3900 net.cpp:84] Creating Layer pool1
I0414 05:20:57.445247  3900 net.cpp:406] pool1 <- conv1
I0414 05:20:57.445251  3900 net.cpp:380] pool1 -> pool1
I0414 05:20:57.445293  3900 net.cpp:122] Setting up pool1
I0414 05:20:57.445299  3900 net.cpp:129] Top shape: 128 16 14 14 (401408)
I0414 05:20:57.445302  3900 net.cpp:137] Memory required for data: 14852608
I0414 05:20:57.445304  3900 layer_factory.hpp:77] Creating layer conv2
I0414 05:20:57.445312  3900 net.cpp:84] Creating Layer conv2
I0414 05:20:57.445315  3900 net.cpp:406] conv2 <- pool1
I0414 05:20:57.445319  3900 net.cpp:380] conv2 -> conv2
I0414 05:20:57.446836  3900 net.cpp:122] Setting up conv2
I0414 05:20:57.446851  3900 net.cpp:129] Top shape: 128 32 14 14 (802816)
I0414 05:20:57.446853  3900 net.cpp:137] Memory required for data: 18063872
I0414 05:20:57.446861  3900 layer_factory.hpp:77] Creating layer relu2
I0414 05:20:57.446866  3900 net.cpp:84] Creating Layer relu2
I0414 05:20:57.446869  3900 net.cpp:406] relu2 <- conv2
I0414 05:20:57.446873  3900 net.cpp:367] relu2 -> conv2 (in-place)
I0414 05:20:57.447029  3900 net.cpp:122] Setting up relu2
I0414 05:20:57.447037  3900 net.cpp:129] Top shape: 128 32 14 14 (802816)
I0414 05:20:57.447041  3900 net.cpp:137] Memory required for data: 21275136
I0414 05:20:57.447042  3900 layer_factory.hpp:77] Creating layer pool2
I0414 05:20:57.447047  3900 net.cpp:84] Creating Layer pool2
I0414 05:20:57.447052  3900 net.cpp:406] pool2 <- conv2
I0414 05:20:57.447057  3900 net.cpp:380] pool2 -> pool2
I0414 05:20:57.447094  3900 net.cpp:122] Setting up pool2
I0414 05:20:57.447099  3900 net.cpp:129] Top shape: 128 32 7 7 (200704)
I0414 05:20:57.447103  3900 net.cpp:137] Memory required for data: 22077952
I0414 05:20:57.447104  3900 layer_factory.hpp:77] Creating layer ip1
I0414 05:20:57.447111  3900 net.cpp:84] Creating Layer ip1
I0414 05:20:57.447114  3900 net.cpp:406] ip1 <- pool2
I0414 05:20:57.447119  3900 net.cpp:380] ip1 -> ip1
I0414 05:20:57.448542  3900 net.cpp:122] Setting up ip1
I0414 05:20:57.448554  3900 net.cpp:129] Top shape: 128 120 (15360)
I0414 05:20:57.448557  3900 net.cpp:137] Memory required for data: 22139392
I0414 05:20:57.448566  3900 layer_factory.hpp:77] Creating layer relu3
I0414 05:20:57.448575  3900 net.cpp:84] Creating Layer relu3
I0414 05:20:57.448580  3900 net.cpp:406] relu3 <- ip1
I0414 05:20:57.448583  3900 net.cpp:367] relu3 -> ip1 (in-place)
I0414 05:20:57.448879  3900 net.cpp:122] Setting up relu3
I0414 05:20:57.448889  3900 net.cpp:129] Top shape: 128 120 (15360)
I0414 05:20:57.448891  3900 net.cpp:137] Memory required for data: 22200832
I0414 05:20:57.448894  3900 layer_factory.hpp:77] Creating layer ip2
I0414 05:20:57.448899  3900 net.cpp:84] Creating Layer ip2
I0414 05:20:57.448901  3900 net.cpp:406] ip2 <- ip1
I0414 05:20:57.448907  3900 net.cpp:380] ip2 -> ip2
I0414 05:20:57.449018  3900 net.cpp:122] Setting up ip2
I0414 05:20:57.449023  3900 net.cpp:129] Top shape: 128 50 (6400)
I0414 05:20:57.449044  3900 net.cpp:137] Memory required for data: 22226432
I0414 05:20:57.449049  3900 layer_factory.hpp:77] Creating layer relu4
I0414 05:20:57.449055  3900 net.cpp:84] Creating Layer relu4
I0414 05:20:57.449059  3900 net.cpp:406] relu4 <- ip2
I0414 05:20:57.449064  3900 net.cpp:367] relu4 -> ip2 (in-place)
I0414 05:20:57.449213  3900 net.cpp:122] Setting up relu4
I0414 05:20:57.449220  3900 net.cpp:129] Top shape: 128 50 (6400)
I0414 05:20:57.449223  3900 net.cpp:137] Memory required for data: 22252032
I0414 05:20:57.449225  3900 layer_factory.hpp:77] Creating layer ip3
I0414 05:20:57.449231  3900 net.cpp:84] Creating Layer ip3
I0414 05:20:57.449234  3900 net.cpp:406] ip3 <- ip2
I0414 05:20:57.449239  3900 net.cpp:380] ip3 -> ip3
I0414 05:20:57.449331  3900 net.cpp:122] Setting up ip3
I0414 05:20:57.449339  3900 net.cpp:129] Top shape: 128 10 (1280)
I0414 05:20:57.449342  3900 net.cpp:137] Memory required for data: 22257152
I0414 05:20:57.449349  3900 layer_factory.hpp:77] Creating layer loss
I0414 05:20:57.449354  3900 net.cpp:84] Creating Layer loss
I0414 05:20:57.449357  3900 net.cpp:406] loss <- ip3
I0414 05:20:57.449360  3900 net.cpp:406] loss <- label
I0414 05:20:57.449365  3900 net.cpp:380] loss -> loss
I0414 05:20:57.449375  3900 layer_factory.hpp:77] Creating layer loss
…
I0414 05:20:57.450363  3900 solver.cpp:190] Creating test net (#0) specified by net file: models/model-02/model_train_val.prototxt
I0414 05:20:57.450384  3900 net.cpp:294] The NetState phase (1) differed from the phase (0) specified by a rule in layer CNN
I0414 05:20:57.450456  3900 net.cpp:51] Initializing net from parameters: 
name: "Model"
state {
  phase: TEST
}
layer {
  name: "CNN"
  type: "Data"
  top: "data"
  top: "label"
  include {
    phase: TEST
  }
  transform_param {
    scale: 0.00390625
    mean_file: "input/dataset-01/mean_image.binaryproto"
  }
  data_param {
    source: "input/dataset-01/test_lmdb"
    batch_size: 220
    backend: LMDB
  }
}
layer {
  name: "conv1"
  type: "Convolution"
  bottom: "data"
  top: "conv1"
  param {
    lr_mult: 1
  }
  param {
    lr_mult: 2
  }
  convolution_param {
    num_output: 16
    pad: 3
    kernel_size: 7
    stride: 1
    weight_filler {
      type: "xavier"
    }
    bias_filler {
      type: "constant"
    }
  }
}
layer {
  name: "relu1"
  type: "ReLU"
  bottom: "conv1"
  top: "conv1"
}
layer {
  name: "pool1"
  type: "Pooling"
  bottom: "conv1"
  top: "pool1"
  pooling_param {
    pool: MAX
    kernel_size: 2
    stride: 2
  }
}
layer {
  name: "conv2"
  type: "Convolution"
  bottom: "pool1"
  top: "conv2"
  param {
    lr_mult: 1
  }
  param {
    lr_mult: 2
  }
  convolution_param {
    num_output: 32
    pad: 2
    kernel_size: 5
    stride: 1
    weight_filler {
      type: "xavier"
    }
    bias_filler {
      type: "constant"
    }
  }
}
layer {
  name: "relu2"
  type: "ReLU"
  bottom: "conv2"
  top: "conv2"
}
layer {
  name: "pool2"
  type: "Pooling"
  bottom: "conv2"
  top: "pool2"
  pooling_param {
    pool: MAX
    kernel_size: 2
    stride: 2
  }
}
layer {
  name: "ip1"
  type: "InnerProduct"
  bottom: "pool2"
  top: "ip1"
  param {
    lr_mult: 1
  }
  param {
    lr_mult: 2
  }
  inner_product_param {
    num_output: 120
    weight_filler {
      type: "xavier"
    }
    bias_filler {
      type: "constant"
    }
  }
}
layer {
  name: "relu3"
  type: "ReLU"
  bottom: "ip1"
  top: "ip1"
}
layer {
  name: "ip2"
  type: "InnerProduct"
  bottom: "ip1"
  top: "ip2"
  param {
    lr_mult: 1
  }
  param {
    lr_mult: 2
  }
  inner_product_param {
    num_output: 50
    weight_filler {
      type: "xavier"
    }
    bias_filler {
      type: "constant"
    }
  }
}
layer {
  name: "relu4"
  type: "ReLU"
  bottom: "ip2"
  top: "ip2"
}
layer {
  name: "ip3"
  type: "InnerProduct"
  bottom: "ip2"
  top: "ip3"
  param {
    lr_mult: 1
  }
  param {
    lr_mult: 2
  }
  inner_product_param {
    num_output: 10
    weight_filler {
      type: "xavier"
    }
    bias_filler {
      type: "constant"
    }
  }
}
layer {
  name: "accuracy"
  type: "Accuracy"
  bottom: "ip3"
  bottom: "label"
  top: "accuracy"
  include {
    phase: TEST
  }
}
layer {
  name: "loss"
  type: "SoftmaxWithLoss"
  bottom: "ip3"
  bottom: "label"
  top: "loss"
}
I0414 05:20:57.450525  3900 layer_factory.hpp:77] Creating layer CNN
I0414 05:20:57.450570  3900 db_lmdb.cpp:35] Opened lmdb input/dataset-01/test_lmdb
I0414 05:20:57.450584  3900 net.cpp:84] Creating Layer CNN
I0414 05:20:57.450592  3900 net.cpp:380] CNN -> data
I0414 05:20:57.450598  3900 net.cpp:380] CNN -> label
I0414 05:20:57.450605  3900 data_transformer.cpp:25] Loading mean file from: input/dataset-01/mean_image.binaryproto
I0414 05:20:57.450721  3900 data_layer.cpp:45] output data size: 220,1,28,28
I0414 05:20:57.452134  3900 net.cpp:122] Setting up CNN
I0414 05:20:57.452148  3900 net.cpp:129] Top shape: 220 1 28 28 (172480)
I0414 05:20:57.452152  3900 net.cpp:129] Top shape: 220 (220)
I0414 05:20:57.452154  3900 net.cpp:137] Memory required for data: 690800
I0414 05:20:57.452158  3900 layer_factory.hpp:77] Creating layer label_CNN_1_split
I0414 05:20:57.452164  3900 net.cpp:84] Creating Layer label_CNN_1_split
I0414 05:20:57.452168  3900 net.cpp:406] label_CNN_1_split <- label
I0414 05:20:57.452178  3900 net.cpp:380] label_CNN_1_split -> label_CNN_1_split_0
I0414 05:20:57.452184  3900 net.cpp:380] label_CNN_1_split -> label_CNN_1_split_1
I0414 05:20:57.452275  3900 net.cpp:122] Setting up label_CNN_1_split
I0414 05:20:57.452281  3900 net.cpp:129] Top shape: 220 (220)
I0414 05:20:57.452284  3900 net.cpp:129] Top shape: 220 (220)
I0414 05:20:57.452286  3900 net.cpp:137] Memory required for data: 692560
I0414 05:20:57.452289  3900 layer_factory.hpp:77] Creating layer conv1
I0414 05:20:57.452297  3900 net.cpp:84] Creating Layer conv1
I0414 05:20:57.452301  3900 net.cpp:406] conv1 <- data
I0414 05:20:57.452307  3900 net.cpp:380] conv1 -> conv1
I0414 05:20:57.453289  3900 net.cpp:122] Setting up conv1
I0414 05:20:57.453302  3900 net.cpp:129] Top shape: 220 16 28 28 (2759680)
I0414 05:20:57.453305  3900 net.cpp:137] Memory required for data: 11731280
I0414 05:20:57.453313  3900 layer_factory.hpp:77] Creating layer relu1
I0414 05:20:57.453320  3900 net.cpp:84] Creating Layer relu1
I0414 05:20:57.453323  3900 net.cpp:406] relu1 <- conv1
I0414 05:20:57.453327  3900 net.cpp:367] relu1 -> conv1 (in-place)
I0414 05:20:57.453647  3900 net.cpp:122] Setting up relu1
I0414 05:20:57.453657  3900 net.cpp:129] Top shape: 220 16 28 28 (2759680)
I0414 05:20:57.453660  3900 net.cpp:137] Memory required for data: 22770000
I0414 05:20:57.453663  3900 layer_factory.hpp:77] Creating layer pool1
I0414 05:20:57.453670  3900 net.cpp:84] Creating Layer pool1
I0414 05:20:57.453675  3900 net.cpp:406] pool1 <- conv1
I0414 05:20:57.453680  3900 net.cpp:380] pool1 -> pool1
I0414 05:20:57.453758  3900 net.cpp:122] Setting up pool1
I0414 05:20:57.453765  3900 net.cpp:129] Top shape: 220 16 14 14 (689920)
I0414 05:20:57.453770  3900 net.cpp:137] Memory required for data: 25529680
I0414 05:20:57.453773  3900 layer_factory.hpp:77] Creating layer conv2
I0414 05:20:57.453780  3900 net.cpp:84] Creating Layer conv2
I0414 05:20:57.453783  3900 net.cpp:406] conv2 <- pool1
I0414 05:20:57.453789  3900 net.cpp:380] conv2 -> conv2
I0414 05:20:57.454761  3900 net.cpp:122] Setting up conv2
I0414 05:20:57.454771  3900 net.cpp:129] Top shape: 220 32 14 14 (1379840)
I0414 05:20:57.454776  3900 net.cpp:137] Memory required for data: 31049040
I0414 05:20:57.454782  3900 layer_factory.hpp:77] Creating layer relu2
I0414 05:20:57.454788  3900 net.cpp:84] Creating Layer relu2
I0414 05:20:57.454792  3900 net.cpp:406] relu2 <- conv2
I0414 05:20:57.454797  3900 net.cpp:367] relu2 -> conv2 (in-place)
I0414 05:20:57.454957  3900 net.cpp:122] Setting up relu2
I0414 05:20:57.454967  3900 net.cpp:129] Top shape: 220 32 14 14 (1379840)
I0414 05:20:57.454969  3900 net.cpp:137] Memory required for data: 36568400
I0414 05:20:57.454972  3900 layer_factory.hpp:77] Creating layer pool2
I0414 05:20:57.454977  3900 net.cpp:84] Creating Layer pool2
I0414 05:20:57.454982  3900 net.cpp:406] pool2 <- conv2
I0414 05:20:57.454988  3900 net.cpp:380] pool2 -> pool2
I0414 05:20:57.455024  3900 net.cpp:122] Setting up pool2
I0414 05:20:57.455030  3900 net.cpp:129] Top shape: 220 32 7 7 (344960)
I0414 05:20:57.455035  3900 net.cpp:137] Memory required for data: 37948240
I0414 05:20:57.455039  3900 layer_factory.hpp:77] Creating layer ip1
I0414 05:20:57.455046  3900 net.cpp:84] Creating Layer ip1
I0414 05:20:57.455051  3900 net.cpp:406] ip1 <- pool2
I0414 05:20:57.455056  3900 net.cpp:380] ip1 -> ip1
I0414 05:20:57.456504  3900 net.cpp:122] Setting up ip1
I0414 05:20:57.456517  3900 net.cpp:129] Top shape: 220 120 (26400)
I0414 05:20:57.456521  3900 net.cpp:137] Memory required for data: 38053840
I0414 05:20:57.456529  3900 layer_factory.hpp:77] Creating layer relu3
I0414 05:20:57.456535  3900 net.cpp:84] Creating Layer relu3
I0414 05:20:57.456538  3900 net.cpp:406] relu3 <- ip1
I0414 05:20:57.456542  3900 net.cpp:367] relu3 -> ip1 (in-place)
I0414 05:20:57.456707  3900 net.cpp:122] Setting up relu3
I0414 05:20:57.456714  3900 net.cpp:129] Top shape: 220 120 (26400)
I0414 05:20:57.456717  3900 net.cpp:137] Memory required for data: 38159440
I0414 05:20:57.456719  3900 layer_factory.hpp:77] Creating layer ip2
I0414 05:20:57.456725  3900 net.cpp:84] Creating Layer ip2
I0414 05:20:57.456729  3900 net.cpp:406] ip2 <- ip1
I0414 05:20:57.456733  3900 net.cpp:380] ip2 -> ip2
I0414 05:20:57.456851  3900 net.cpp:122] Setting up ip2
I0414 05:20:57.456856  3900 net.cpp:129] Top shape: 220 50 (11000)
I0414 05:20:57.456859  3900 net.cpp:137] Memory required for data: 38203440
I0414 05:20:57.456863  3900 layer_factory.hpp:77] Creating layer relu4
I0414 05:20:57.456867  3900 net.cpp:84] Creating Layer relu4
I0414 05:20:57.456871  3900 net.cpp:406] relu4 <- ip2
I0414 05:20:57.456876  3900 net.cpp:367] relu4 -> ip2 (in-place)
I0414 05:20:57.457027  3900 net.cpp:122] Setting up relu4
I0414 05:20:57.457034  3900 net.cpp:129] Top shape: 220 50 (11000)
I0414 05:20:57.457036  3900 net.cpp:137] Memory required for data: 38247440
I0414 05:20:57.457039  3900 layer_factory.hpp:77] Creating layer ip3
I0414 05:20:57.457043  3900 net.cpp:84] Creating Layer ip3
I0414 05:20:57.457046  3900 net.cpp:406] ip3 <- ip2
I0414 05:20:57.457051  3900 net.cpp:380] ip3 -> ip3
I0414 05:20:57.457151  3900 net.cpp:122] Setting up ip3
I0414 05:20:57.457157  3900 net.cpp:129] Top shape: 220 10 (2200)
I0414 05:20:57.457159  3900 net.cpp:137] Memory required for data: 38256240
I0414 05:20:57.457168  3900 layer_factory.hpp:77] Creating layer ip3_ip3_0_split
I0414 05:20:57.457176  3900 net.cpp:84] Creating Layer ip3_ip3_0_split
I0414 05:20:57.457181  3900 net.cpp:406] ip3_ip3_0_split <- ip3
I0414 05:20:57.457186  3900 net.cpp:380] ip3_ip3_0_split -> ip3_ip3_0_split_0
I0414 05:20:57.457211  3900 net.cpp:380] ip3_ip3_0_split -> ip3_ip3_0_split_1
I0414 05:20:57.457257  3900 net.cpp:122] Setting up ip3_ip3_0_split
I0414 05:20:57.457263  3900 net.cpp:129] Top shape: 220 10 (2200)
I0414 05:20:57.457267  3900 net.cpp:129] Top shape: 220 10 (2200)
I0414 05:20:57.457269  3900 net.cpp:137] Memory required for data: 38273840
I0414 05:20:57.457271  3900 layer_factory.hpp:77] Creating layer accuracy
I0414 05:20:57.457278  3900 net.cpp:84] Creating Layer accuracy
I0414 05:20:57.457281  3900 net.cpp:406] accuracy <- ip3_ip3_0_split_0
I0414 05:20:57.457286  3900 net.cpp:406] accuracy <- label_CNN_1_split_0
I0414 05:20:57.457293  3900 net.cpp:380] accuracy -> accuracy
…
