…
I0414 05:15:40.487677  3628 net.cpp:294] The NetState phase (0) differed from the phase (1) specified by a rule in layer accuracy
I0414 05:15:40.487754  3628 net.cpp:51] Initializing net from parameters: 
name: "Model"
state {
  phase: TRAIN
  level: 0
  stage: ""
}
layer {
  name: "CNN"
  type: "Data"
  top: "data"
  top: "label"
  include {
    phase: TRAIN
  }
  transform_param {
    scale: 0.00390625
    mean_file: "input/dataset-01/mean_image.binaryproto"
  }
  data_param {
    source: "input/dataset-01/train_lmdb"
    batch_size: 128
    backend: LMDB
  }
}
layer {
  name: "conv1"
  type: "Convolution"
  bottom: "data"
  top: "conv1"
  param {
    lr_mult: 1
  }
  param {
    lr_mult: 2
  }
  convolution_param {
    num_output: 16
    pad: 3
    kernel_size: 7
    stride: 1
    weight_filler {
      type: "xavier"
    }
    bias_filler {
      type: "constant"
    }
  }
}
layer {
  name: "relu1"
  type: "ReLU"
  bottom: "conv1"
  top: "conv1"
}
layer {
  name: "pool1"
  type: "Pooling"
  bottom: "conv1"
  top: "pool1"
  pooling_param {
    pool: MAX
    kernel_size: 2
    stride: 2
  }
}
layer {
  name: "conv2"
  type: "Convolution"
  bottom: "pool1"
  top: "conv2"
  param {
    lr_mult: 1
  }
  param {
    lr_mult: 2
  }
  convolution_param {
    num_output: 32
    pad: 2
    kernel_size: 5
    stride: 1
    weight_filler {
      type: "xavier"
    }
    bias_filler {
      type: "constant"
    }
  }
}
layer {
  name: "relu2"
  type: "ReLU"
  bottom: "conv2"
  top: "conv2"
}
layer {
  name: "pool2"
  type: "Pooling"
  bottom: "conv2"
  top: "pool2"
  pooling_param {
    pool: MAX
    kernel_size: 2
    stride: 2
  }
}
layer {
  name: "ip1"
  type: "InnerProduct"
  bottom: "pool2"
  top: "ip1"
  param {
    lr_mult: 1
  }
  param {
    lr_mult: 2
  }
  inner_product_param {
    num_output: 120
    weight_filler {
      type: "xavier"
    }
    bias_filler {
      type: "constant"
    }
  }
}
layer {
  name: "relu3"
  type: "ReLU"
  bottom: "ip1"
  top: "ip1"
}
layer {
  name: "ip2"
  type: "InnerProduct"
  bottom: "ip1"
  top: "ip2"
  param {
    lr_mult: 1
  }
  param {
    lr_mult: 2
  }
  inner_product_param {
    num_output: 50
    weight_filler {
      type: "xavier"
    }
    bias_filler {
      type: "constant"
    }
  }
}
layer {
  name: "relu4"
  type: "ReLU"
  bottom: "ip2"
  top: "ip2"
}
layer {
  name: "ip3"
  type: "InnerProduct"
  bottom: "ip2"
  top: "ip3"
  param {
    lr_mult: 1
  }
  param {
    lr_mult: 2
  }
  inner_product_param {
    num_output: 10
    weight_filler {
      type: "xavier"
    }
    bias_filler {
      type: "constant"
    }
  }
}
layer {
  name: "loss"
  type: "SoftmaxWithLoss"
  bottom: "ip3"
  bottom: "label"
  top: "loss"
}
I0414 05:15:40.487812  3628 layer_factory.hpp:77] Creating layer CNN
I0414 05:15:40.487905  3628 db_lmdb.cpp:35] Opened lmdb input/dataset-01/train_lmdb
I0414 05:15:40.487927  3628 net.cpp:84] Creating Layer CNN
I0414 05:15:40.487936  3628 net.cpp:380] CNN -> data
I0414 05:15:40.487952  3628 net.cpp:380] CNN -> label
I0414 05:15:40.487965  3628 data_transformer.cpp:25] Loading mean file from: input/dataset-01/mean_image.binaryproto
I0414 05:15:40.489250  3628 data_layer.cpp:45] output data size: 128,1,28,28
I0414 05:15:40.490406  3628 net.cpp:122] Setting up CNN
I0414 05:15:40.490423  3628 net.cpp:129] Top shape: 128 1 28 28 (100352)
I0414 05:15:40.490427  3628 net.cpp:129] Top shape: 128 (128)
I0414 05:15:40.490453  3628 net.cpp:137] Memory required for data: 401920
I0414 05:15:40.490459  3628 layer_factory.hpp:77] Creating layer conv1
I0414 05:15:40.490476  3628 net.cpp:84] Creating Layer conv1
I0414 05:15:40.490483  3628 net.cpp:406] conv1 <- data
I0414 05:15:40.490494  3628 net.cpp:380] conv1 -> conv1
I0414 05:15:40.892385  3628 net.cpp:122] Setting up conv1
I0414 05:15:40.892410  3628 net.cpp:129] Top shape: 128 16 28 28 (1605632)
I0414 05:15:40.892412  3628 net.cpp:137] Memory required for data: 6824448
I0414 05:15:40.892429  3628 layer_factory.hpp:77] Creating layer relu1
I0414 05:15:40.892438  3628 net.cpp:84] Creating Layer relu1
I0414 05:15:40.892442  3628 net.cpp:406] relu1 <- conv1
I0414 05:15:40.892447  3628 net.cpp:367] relu1 -> conv1 (in-place)
I0414 05:15:40.892591  3628 net.cpp:122] Setting up relu1
I0414 05:15:40.892598  3628 net.cpp:129] Top shape: 128 16 28 28 (1605632)
I0414 05:15:40.892601  3628 net.cpp:137] Memory required for data: 13246976
I0414 05:15:40.892604  3628 layer_factory.hpp:77] Creating layer pool1
I0414 05:15:40.892608  3628 net.cpp:84] Creating Layer pool1
I0414 05:15:40.892611  3628 net.cpp:406] pool1 <- conv1
I0414 05:15:40.892616  3628 net.cpp:380] pool1 -> pool1
I0414 05:15:40.892657  3628 net.cpp:122] Setting up pool1
I0414 05:15:40.892663  3628 net.cpp:129] Top shape: 128 16 14 14 (401408)
I0414 05:15:40.892665  3628 net.cpp:137] Memory required for data: 14852608
I0414 05:15:40.892668  3628 layer_factory.hpp:77] Creating layer conv2
I0414 05:15:40.892675  3628 net.cpp:84] Creating Layer conv2
I0414 05:15:40.892678  3628 net.cpp:406] conv2 <- pool1
I0414 05:15:40.892683  3628 net.cpp:380] conv2 -> conv2
I0414 05:15:40.894183  3628 net.cpp:122] Setting up conv2
I0414 05:15:40.894196  3628 net.cpp:129] Top shape: 128 32 14 14 (802816)
I0414 05:15:40.894198  3628 net.cpp:137] Memory required for data: 18063872
I0414 05:15:40.894207  3628 layer_factory.hpp:77] Creating layer relu2
I0414 05:15:40.894212  3628 net.cpp:84] Creating Layer relu2
I0414 05:15:40.894215  3628 net.cpp:406] relu2 <- conv2
I0414 05:15:40.894219  3628 net.cpp:367] relu2 -> conv2 (in-place)
I0414 05:15:40.894362  3628 net.cpp:122] Setting up relu2
I0414 05:15:40.894369  3628 net.cpp:129] Top shape: 128 32 14 14 (802816)
I0414 05:15:40.894372  3628 net.cpp:137] Memory required for data: 21275136
I0414 05:15:40.894374  3628 layer_factory.hpp:77] Creating layer pool2
I0414 05:15:40.894379  3628 net.cpp:84] Creating Layer pool2
I0414 05:15:40.894381  3628 net.cpp:406] pool2 <- conv2
I0414 05:15:40.894385  3628 net.cpp:380] pool2 -> pool2
I0414 05:15:40.894421  3628 net.cpp:122] Setting up pool2
I0414 05:15:40.894426  3628 net.cpp:129] Top shape: 128 32 7 7 (200704)
I0414 05:15:40.894429  3628 net.cpp:137] Memory required for data: 22077952
I0414 05:15:40.894431  3628 layer_factory.hpp:77] Creating layer ip1
I0414 05:15:40.894436  3628 net.cpp:84] Creating Layer ip1
I0414 05:15:40.894438  3628 net.cpp:406] ip1 <- pool2
I0414 05:15:40.894443  3628 net.cpp:380] ip1 -> ip1
I0414 05:15:40.895854  3628 net.cpp:122] Setting up ip1
I0414 05:15:40.895866  3628 net.cpp:129] Top shape: 128 120 (15360)
I0414 05:15:40.895869  3628 net.cpp:137] Memory required for data: 22139392
I0414 05:15:40.895876  3628 layer_factory.hpp:77] Creating layer relu3
I0414 05:15:40.895882  3628 net.cpp:84] Creating Layer relu3
I0414 05:15:40.895885  3628 net.cpp:406] relu3 <- ip1
I0414 05:15:40.895889  3628 net.cpp:367] relu3 -> ip1 (in-place)
I0414 05:15:40.896174  3628 net.cpp:122] Setting up relu3
I0414 05:15:40.896183  3628 net.cpp:129] Top shape: 128 120 (15360)
I0414 05:15:40.896186  3628 net.cpp:137] Memory required for data: 22200832
I0414 05:15:40.896189  3628 layer_factory.hpp:77] Creating layer ip2
I0414 05:15:40.896194  3628 net.cpp:84] Creating Layer ip2
I0414 05:15:40.896198  3628 net.cpp:406] ip2 <- ip1
I0414 05:15:40.896203  3628 net.cpp:380] ip2 -> ip2
I0414 05:15:40.896308  3628 net.cpp:122] Setting up ip2
I0414 05:15:40.896314  3628 net.cpp:129] Top shape: 128 50 (6400)
I0414 05:15:40.896334  3628 net.cpp:137] Memory required for data: 22226432
I0414 05:15:40.896340  3628 layer_factory.hpp:77] Creating layer relu4
I0414 05:15:40.896344  3628 net.cpp:84] Creating Layer relu4
I0414 05:15:40.896347  3628 net.cpp:406] relu4 <- ip2
I0414 05:15:40.896350  3628 net.cpp:367] relu4 -> ip2 (in-place)
I0414 05:15:40.896490  3628 net.cpp:122] Setting up relu4
I0414 05:15:40.896497  3628 net.cpp:129] Top shape: 128 50 (6400)
I0414 05:15:40.896499  3628 net.cpp:137] Memory required for data: 22252032
I0414 05:15:40.896502  3628 layer_factory.hpp:77] Creating layer ip3
I0414 05:15:40.896507  3628 net.cpp:84] Creating Layer ip3
I0414 05:15:40.896508  3628 net.cpp:406] ip3 <- ip2
I0414 05:15:40.896512  3628 net.cpp:380] ip3 -> ip3
I0414 05:15:40.896595  3628 net.cpp:122] Setting up ip3
I0414 05:15:40.896601  3628 net.cpp:129] Top shape: 128 10 (1280)
I0414 05:15:40.896603  3628 net.cpp:137] Memory required for data: 22257152
I0414 05:15:40.896610  3628 layer_factory.hpp:77] Creating layer loss
I0414 05:15:40.896615  3628 net.cpp:84] Creating Layer loss
I0414 05:15:40.896616  3628 net.cpp:406] loss <- ip3
I0414 05:15:40.896620  3628 net.cpp:406] loss <- label
I0414 05:15:40.896625  3628 net.cpp:380] loss -> loss
I0414 05:15:40.896634  3628 layer_factory.hpp:77] Creating layer loss
…
I0414 05:15:40.897603  3628 solver.cpp:190] Creating test net (#0) specified by net file: models/model-02/model_train_val.prototxt
I0414 05:15:40.897622  3628 net.cpp:294] The NetState phase (1) differed from the phase (0) specified by a rule in layer CNN
I0414 05:15:40.897696  3628 net.cpp:51] Initializing net from parameters: 
name: "Model"
state {
  phase: TEST
}
layer {
  name: "CNN"
  type: "Data"
  top: "data"
  top: "label"
  include {
    phase: TEST
  }
  transform_param {
    scale: 0.00390625
    mean_file: "input/dataset-01/mean_image.binaryproto"
  }
  data_param {
    source: "input/dataset-01/test_lmdb"
    batch_size: 220
    backend: LMDB
  }
}
layer {
  name: "conv1"
  type: "Convolution"
  bottom: "data"
  top: "conv1"
  param {
    lr_mult: 1
  }
  param {
    lr_mult: 2
  }
  convolution_param {
    num_output: 16
    pad: 3
    kernel_size: 7
    stride: 1
    weight_filler {
      type: "xavier"
    }
    bias_filler {
      type: "constant"
    }
  }
}
layer {
  name: "relu1"
  type: "ReLU"
  bottom: "conv1"
  top: "conv1"
}
layer {
  name: "pool1"
  type: "Pooling"
  bottom: "conv1"
  top: "pool1"
  pooling_param {
    pool: MAX
    kernel_size: 2
    stride: 2
  }
}
layer {
  name: "conv2"
  type: "Convolution"
  bottom: "pool1"
  top: "conv2"
  param {
    lr_mult: 1
  }
  param {
    lr_mult: 2
  }
  convolution_param {
    num_output: 32
    pad: 2
    kernel_size: 5
    stride: 1
    weight_filler {
      type: "xavier"
    }
    bias_filler {
      type: "constant"
    }
  }
}
layer {
  name: "relu2"
  type: "ReLU"
  bottom: "conv2"
  top: "conv2"
}
layer {
  name: "pool2"
  type: "Pooling"
  bottom: "conv2"
  top: "pool2"
  pooling_param {
    pool: MAX
    kernel_size: 2
    stride: 2
  }
}
layer {
  name: "ip1"
  type: "InnerProduct"
  bottom: "pool2"
  top: "ip1"
  param {
    lr_mult: 1
  }
  param {
    lr_mult: 2
  }
  inner_product_param {
    num_output: 120
    weight_filler {
      type: "xavier"
    }
    bias_filler {
      type: "constant"
    }
  }
}
layer {
  name: "relu3"
  type: "ReLU"
  bottom: "ip1"
  top: "ip1"
}
layer {
  name: "ip2"
  type: "InnerProduct"
  bottom: "ip1"
  top: "ip2"
  param {
    lr_mult: 1
  }
  param {
    lr_mult: 2
  }
  inner_product_param {
    num_output: 50
    weight_filler {
      type: "xavier"
    }
    bias_filler {
      type: "constant"
    }
  }
}
layer {
  name: "relu4"
  type: "ReLU"
  bottom: "ip2"
  top: "ip2"
}
layer {
  name: "ip3"
  type: "InnerProduct"
  bottom: "ip2"
  top: "ip3"
  param {
    lr_mult: 1
  }
  param {
    lr_mult: 2
  }
  inner_product_param {
    num_output: 10
    weight_filler {
      type: "xavier"
    }
    bias_filler {
      type: "constant"
    }
  }
}
layer {
  name: "accuracy"
  type: "Accuracy"
  bottom: "ip3"
  bottom: "label"
  top: "accuracy"
  include {
    phase: TEST
  }
}
layer {
  name: "loss"
  type: "SoftmaxWithLoss"
  bottom: "ip3"
  bottom: "label"
  top: "loss"
}
I0414 05:15:40.897756  3628 layer_factory.hpp:77] Creating layer CNN
I0414 05:15:40.897804  3628 db_lmdb.cpp:35] Opened lmdb input/dataset-01/test_lmdb
I0414 05:15:40.897814  3628 net.cpp:84] Creating Layer CNN
I0414 05:15:40.897819  3628 net.cpp:380] CNN -> data
I0414 05:15:40.897825  3628 net.cpp:380] CNN -> label
I0414 05:15:40.897830  3628 data_transformer.cpp:25] Loading mean file from: input/dataset-01/mean_image.binaryproto
I0414 05:15:40.897941  3628 data_layer.cpp:45] output data size: 220,1,28,28
I0414 05:15:40.899976  3628 net.cpp:122] Setting up CNN
I0414 05:15:40.899996  3628 net.cpp:129] Top shape: 220 1 28 28 (172480)
I0414 05:15:40.899998  3628 net.cpp:129] Top shape: 220 (220)
I0414 05:15:40.900002  3628 net.cpp:137] Memory required for data: 690800
I0414 05:15:40.900005  3628 layer_factory.hpp:77] Creating layer label_CNN_1_split
I0414 05:15:40.900013  3628 net.cpp:84] Creating Layer label_CNN_1_split
I0414 05:15:40.900017  3628 net.cpp:406] label_CNN_1_split <- label
I0414 05:15:40.900020  3628 net.cpp:380] label_CNN_1_split -> label_CNN_1_split_0
I0414 05:15:40.900027  3628 net.cpp:380] label_CNN_1_split -> label_CNN_1_split_1
I0414 05:15:40.900090  3628 net.cpp:122] Setting up label_CNN_1_split
I0414 05:15:40.900096  3628 net.cpp:129] Top shape: 220 (220)
I0414 05:15:40.900099  3628 net.cpp:129] Top shape: 220 (220)
I0414 05:15:40.900101  3628 net.cpp:137] Memory required for data: 692560
I0414 05:15:40.900104  3628 layer_factory.hpp:77] Creating layer conv1
I0414 05:15:40.900112  3628 net.cpp:84] Creating Layer conv1
I0414 05:15:40.900116  3628 net.cpp:406] conv1 <- data
I0414 05:15:40.900120  3628 net.cpp:380] conv1 -> conv1
I0414 05:15:40.901201  3628 net.cpp:122] Setting up conv1
I0414 05:15:40.901216  3628 net.cpp:129] Top shape: 220 16 28 28 (2759680)
I0414 05:15:40.901218  3628 net.cpp:137] Memory required for data: 11731280
I0414 05:15:40.901227  3628 layer_factory.hpp:77] Creating layer relu1
I0414 05:15:40.901235  3628 net.cpp:84] Creating Layer relu1
I0414 05:15:40.901240  3628 net.cpp:406] relu1 <- conv1
I0414 05:15:40.901244  3628 net.cpp:367] relu1 -> conv1 (in-place)
I0414 05:15:40.901551  3628 net.cpp:122] Setting up relu1
I0414 05:15:40.901561  3628 net.cpp:129] Top shape: 220 16 28 28 (2759680)
I0414 05:15:40.901563  3628 net.cpp:137] Memory required for data: 22770000
I0414 05:15:40.901566  3628 layer_factory.hpp:77] Creating layer pool1
I0414 05:15:40.901573  3628 net.cpp:84] Creating Layer pool1
I0414 05:15:40.901578  3628 net.cpp:406] pool1 <- conv1
I0414 05:15:40.901583  3628 net.cpp:380] pool1 -> pool1
I0414 05:15:40.901641  3628 net.cpp:122] Setting up pool1
I0414 05:15:40.901648  3628 net.cpp:129] Top shape: 220 16 14 14 (689920)
I0414 05:15:40.901650  3628 net.cpp:137] Memory required for data: 25529680
I0414 05:15:40.901652  3628 layer_factory.hpp:77] Creating layer conv2
I0414 05:15:40.901660  3628 net.cpp:84] Creating Layer conv2
I0414 05:15:40.901664  3628 net.cpp:406] conv2 <- pool1
I0414 05:15:40.901669  3628 net.cpp:380] conv2 -> conv2
I0414 05:15:40.902599  3628 net.cpp:122] Setting up conv2
I0414 05:15:40.902609  3628 net.cpp:129] Top shape: 220 32 14 14 (1379840)
I0414 05:15:40.902612  3628 net.cpp:137] Memory required for data: 31049040
I0414 05:15:40.902619  3628 layer_factory.hpp:77] Creating layer relu2
I0414 05:15:40.902626  3628 net.cpp:84] Creating Layer relu2
I0414 05:15:40.902631  3628 net.cpp:406] relu2 <- conv2
I0414 05:15:40.902634  3628 net.cpp:367] relu2 -> conv2 (in-place)
I0414 05:15:40.902874  3628 net.cpp:122] Setting up relu2
I0414 05:15:40.902882  3628 net.cpp:129] Top shape: 220 32 14 14 (1379840)
I0414 05:15:40.902885  3628 net.cpp:137] Memory required for data: 36568400
I0414 05:15:40.902889  3628 layer_factory.hpp:77] Creating layer pool2
I0414 05:15:40.902899  3628 net.cpp:84] Creating Layer pool2
I0414 05:15:40.902902  3628 net.cpp:406] pool2 <- conv2
I0414 05:15:40.902906  3628 net.cpp:380] pool2 -> pool2
I0414 05:15:40.902947  3628 net.cpp:122] Setting up pool2
I0414 05:15:40.902953  3628 net.cpp:129] Top shape: 220 32 7 7 (344960)
I0414 05:15:40.902956  3628 net.cpp:137] Memory required for data: 37948240
I0414 05:15:40.902958  3628 layer_factory.hpp:77] Creating layer ip1
I0414 05:15:40.902966  3628 net.cpp:84] Creating Layer ip1
I0414 05:15:40.902969  3628 net.cpp:406] ip1 <- pool2
I0414 05:15:40.902974  3628 net.cpp:380] ip1 -> ip1
I0414 05:15:40.904443  3628 net.cpp:122] Setting up ip1
I0414 05:15:40.904456  3628 net.cpp:129] Top shape: 220 120 (26400)
I0414 05:15:40.904459  3628 net.cpp:137] Memory required for data: 38053840
I0414 05:15:40.904467  3628 layer_factory.hpp:77] Creating layer relu3
I0414 05:15:40.904474  3628 net.cpp:84] Creating Layer relu3
I0414 05:15:40.904476  3628 net.cpp:406] relu3 <- ip1
I0414 05:15:40.904480  3628 net.cpp:367] relu3 -> ip1 (in-place)
I0414 05:15:40.904644  3628 net.cpp:122] Setting up relu3
I0414 05:15:40.904652  3628 net.cpp:129] Top shape: 220 120 (26400)
I0414 05:15:40.904654  3628 net.cpp:137] Memory required for data: 38159440
I0414 05:15:40.904657  3628 layer_factory.hpp:77] Creating layer ip2
I0414 05:15:40.904661  3628 net.cpp:84] Creating Layer ip2
I0414 05:15:40.904664  3628 net.cpp:406] ip2 <- ip1
I0414 05:15:40.904670  3628 net.cpp:380] ip2 -> ip2
I0414 05:15:40.904788  3628 net.cpp:122] Setting up ip2
I0414 05:15:40.904793  3628 net.cpp:129] Top shape: 220 50 (11000)
I0414 05:15:40.904796  3628 net.cpp:137] Memory required for data: 38203440
I0414 05:15:40.904800  3628 layer_factory.hpp:77] Creating layer relu4
I0414 05:15:40.904805  3628 net.cpp:84] Creating Layer relu4
I0414 05:15:40.904808  3628 net.cpp:406] relu4 <- ip2
I0414 05:15:40.904811  3628 net.cpp:367] relu4 -> ip2 (in-place)
I0414 05:15:40.904959  3628 net.cpp:122] Setting up relu4
I0414 05:15:40.904966  3628 net.cpp:129] Top shape: 220 50 (11000)
I0414 05:15:40.904968  3628 net.cpp:137] Memory required for data: 38247440
I0414 05:15:40.904971  3628 layer_factory.hpp:77] Creating layer ip3
I0414 05:15:40.904976  3628 net.cpp:84] Creating Layer ip3
I0414 05:15:40.904979  3628 net.cpp:406] ip3 <- ip2
I0414 05:15:40.904984  3628 net.cpp:380] ip3 -> ip3
I0414 05:15:40.905079  3628 net.cpp:122] Setting up ip3
I0414 05:15:40.905086  3628 net.cpp:129] Top shape: 220 10 (2200)
I0414 05:15:40.905087  3628 net.cpp:137] Memory required for data: 38256240
I0414 05:15:40.905093  3628 layer_factory.hpp:77] Creating layer ip3_ip3_0_split
I0414 05:15:40.905098  3628 net.cpp:84] Creating Layer ip3_ip3_0_split
I0414 05:15:40.905100  3628 net.cpp:406] ip3_ip3_0_split <- ip3
I0414 05:15:40.905105  3628 net.cpp:380] ip3_ip3_0_split -> ip3_ip3_0_split_0
I0414 05:15:40.905124  3628 net.cpp:380] ip3_ip3_0_split -> ip3_ip3_0_split_1
I0414 05:15:40.905155  3628 net.cpp:122] Setting up ip3_ip3_0_split
I0414 05:15:40.905161  3628 net.cpp:129] Top shape: 220 10 (2200)
I0414 05:15:40.905164  3628 net.cpp:129] Top shape: 220 10 (2200)
I0414 05:15:40.905166  3628 net.cpp:137] Memory required for data: 38273840
I0414 05:15:40.905169  3628 layer_factory.hpp:77] Creating layer accuracy
I0414 05:15:40.905174  3628 net.cpp:84] Creating Layer accuracy
I0414 05:15:40.905176  3628 net.cpp:406] accuracy <- ip3_ip3_0_split_0
I0414 05:15:40.905180  3628 net.cpp:406] accuracy <- label_CNN_1_split_0
I0414 05:15:40.905184  3628 net.cpp:380] accuracy -> accuracy
…
