…
I0414 05:12:57.201285  3522 net.cpp:294] The NetState phase (0) differed from the phase (1) specified by a rule in layer accuracy
I0414 05:12:57.201357  3522 net.cpp:51] Initializing net from parameters: 
name: "Model"
state {
  phase: TRAIN
  level: 0
  stage: ""
}
layer {
  name: "CNN"
  type: "Data"
  top: "data"
  top: "label"
  include {
    phase: TRAIN
  }
  transform_param {
    scale: 0.00390625
    mean_file: "input/dataset-01/mean_image.binaryproto"
  }
  data_param {
    source: "input/dataset-01/train_lmdb"
    batch_size: 128
    backend: LMDB
  }
}
layer {
  name: "conv1"
  type: "Convolution"
  bottom: "data"
  top: "conv1"
  param {
    lr_mult: 1
  }
  param {
    lr_mult: 2
  }
  convolution_param {
    num_output: 16
    pad: 3
    kernel_size: 7
    stride: 1
    weight_filler {
      type: "xavier"
    }
    bias_filler {
      type: "constant"
    }
  }
}
layer {
  name: "relu1"
  type: "ReLU"
  bottom: "conv1"
  top: "conv1"
}
layer {
  name: "pool1"
  type: "Pooling"
  bottom: "conv1"
  top: "pool1"
  pooling_param {
    pool: MAX
    kernel_size: 2
    stride: 2
  }
}
layer {
  name: "conv2"
  type: "Convolution"
  bottom: "pool1"
  top: "conv2"
  param {
    lr_mult: 1
  }
  param {
    lr_mult: 2
  }
  convolution_param {
    num_output: 32
    pad: 2
    kernel_size: 5
    stride: 1
    weight_filler {
      type: "xavier"
    }
    bias_filler {
      type: "constant"
    }
  }
}
layer {
  name: "relu2"
  type: "ReLU"
  bottom: "conv2"
  top: "conv2"
}
layer {
  name: "pool2"
  type: "Pooling"
  bottom: "conv2"
  top: "pool2"
  pooling_param {
    pool: MAX
    kernel_size: 2
    stride: 2
  }
}
layer {
  name: "ip1"
  type: "InnerProduct"
  bottom: "pool2"
  top: "ip1"
  param {
    lr_mult: 1
  }
  param {
    lr_mult: 2
  }
  inner_product_param {
    num_output: 480
    weight_filler {
      type: "xavier"
    }
    bias_filler {
      type: "constant"
    }
  }
}
layer {
  name: "relu3"
  type: "ReLU"
  bottom: "ip1"
  top: "ip1"
}
layer {
  name: "ip2"
  type: "InnerProduct"
  bottom: "ip1"
  top: "ip2"
  param {
    lr_mult: 1
  }
  param {
    lr_mult: 2
  }
  inner_product_param {
    num_output: 200
    weight_filler {
      type: "xavier"
    }
    bias_filler {
      type: "constant"
    }
  }
}
layer {
  name: "relu4"
  type: "ReLU"
  bottom: "ip2"
  top: "ip2"
}
layer {
  name: "ip3"
  type: "InnerProduct"
  bottom: "ip2"
  top: "ip3"
  param {
    lr_mult: 1
  }
  param {
    lr_mult: 2
  }
  inner_product_param {
    num_output: 10
    weight_filler {
      type: "xavier"
    }
    bias_filler {
      type: "constant"
    }
  }
}
layer {
  name: "loss"
  type: "SoftmaxWithLoss"
  bottom: "ip3"
  bottom: "label"
  top: "loss"
}
I0414 05:12:57.201406  3522 layer_factory.hpp:77] Creating layer CNN
I0414 05:12:57.201495  3522 db_lmdb.cpp:35] Opened lmdb input/dataset-01/train_lmdb
I0414 05:12:57.201519  3522 net.cpp:84] Creating Layer CNN
I0414 05:12:57.201529  3522 net.cpp:380] CNN -> data
I0414 05:12:57.201546  3522 net.cpp:380] CNN -> label
I0414 05:12:57.201557  3522 data_transformer.cpp:25] Loading mean file from: input/dataset-01/mean_image.binaryproto
I0414 05:12:57.202845  3522 data_layer.cpp:45] output data size: 128,1,28,28
I0414 05:12:57.204046  3522 net.cpp:122] Setting up CNN
I0414 05:12:57.204066  3522 net.cpp:129] Top shape: 128 1 28 28 (100352)
I0414 05:12:57.204072  3522 net.cpp:129] Top shape: 128 (128)
I0414 05:12:57.204095  3522 net.cpp:137] Memory required for data: 401920
I0414 05:12:57.204105  3522 layer_factory.hpp:77] Creating layer conv1
I0414 05:12:57.204126  3522 net.cpp:84] Creating Layer conv1
I0414 05:12:57.204133  3522 net.cpp:406] conv1 <- data
I0414 05:12:57.204147  3522 net.cpp:380] conv1 -> conv1
I0414 05:12:57.606024  3522 net.cpp:122] Setting up conv1
I0414 05:12:57.606050  3522 net.cpp:129] Top shape: 128 16 28 28 (1605632)
I0414 05:12:57.606053  3522 net.cpp:137] Memory required for data: 6824448
I0414 05:12:57.606071  3522 layer_factory.hpp:77] Creating layer relu1
I0414 05:12:57.606081  3522 net.cpp:84] Creating Layer relu1
I0414 05:12:57.606084  3522 net.cpp:406] relu1 <- conv1
I0414 05:12:57.606089  3522 net.cpp:367] relu1 -> conv1 (in-place)
I0414 05:12:57.606235  3522 net.cpp:122] Setting up relu1
I0414 05:12:57.606243  3522 net.cpp:129] Top shape: 128 16 28 28 (1605632)
I0414 05:12:57.606245  3522 net.cpp:137] Memory required for data: 13246976
I0414 05:12:57.606248  3522 layer_factory.hpp:77] Creating layer pool1
I0414 05:12:57.606253  3522 net.cpp:84] Creating Layer pool1
I0414 05:12:57.606256  3522 net.cpp:406] pool1 <- conv1
I0414 05:12:57.606259  3522 net.cpp:380] pool1 -> pool1
I0414 05:12:57.606302  3522 net.cpp:122] Setting up pool1
I0414 05:12:57.606307  3522 net.cpp:129] Top shape: 128 16 14 14 (401408)
I0414 05:12:57.606310  3522 net.cpp:137] Memory required for data: 14852608
I0414 05:12:57.606312  3522 layer_factory.hpp:77] Creating layer conv2
I0414 05:12:57.606321  3522 net.cpp:84] Creating Layer conv2
I0414 05:12:57.606324  3522 net.cpp:406] conv2 <- pool1
I0414 05:12:57.606329  3522 net.cpp:380] conv2 -> conv2
I0414 05:12:57.607866  3522 net.cpp:122] Setting up conv2
I0414 05:12:57.607879  3522 net.cpp:129] Top shape: 128 32 14 14 (802816)
I0414 05:12:57.607882  3522 net.cpp:137] Memory required for data: 18063872
I0414 05:12:57.607889  3522 layer_factory.hpp:77] Creating layer relu2
I0414 05:12:57.607897  3522 net.cpp:84] Creating Layer relu2
I0414 05:12:57.607900  3522 net.cpp:406] relu2 <- conv2
I0414 05:12:57.607905  3522 net.cpp:367] relu2 -> conv2 (in-place)
I0414 05:12:57.608063  3522 net.cpp:122] Setting up relu2
I0414 05:12:57.608072  3522 net.cpp:129] Top shape: 128 32 14 14 (802816)
I0414 05:12:57.608073  3522 net.cpp:137] Memory required for data: 21275136
I0414 05:12:57.608076  3522 layer_factory.hpp:77] Creating layer pool2
I0414 05:12:57.608081  3522 net.cpp:84] Creating Layer pool2
I0414 05:12:57.608085  3522 net.cpp:406] pool2 <- conv2
I0414 05:12:57.608088  3522 net.cpp:380] pool2 -> pool2
I0414 05:12:57.608126  3522 net.cpp:122] Setting up pool2
I0414 05:12:57.608132  3522 net.cpp:129] Top shape: 128 32 7 7 (200704)
I0414 05:12:57.608135  3522 net.cpp:137] Memory required for data: 22077952
I0414 05:12:57.608137  3522 layer_factory.hpp:77] Creating layer ip1
I0414 05:12:57.608142  3522 net.cpp:84] Creating Layer ip1
I0414 05:12:57.608145  3522 net.cpp:406] ip1 <- pool2
I0414 05:12:57.608150  3522 net.cpp:380] ip1 -> ip1
I0414 05:12:57.612121  3522 net.cpp:122] Setting up ip1
I0414 05:12:57.612138  3522 net.cpp:129] Top shape: 128 480 (61440)
I0414 05:12:57.612141  3522 net.cpp:137] Memory required for data: 22323712
I0414 05:12:57.612150  3522 layer_factory.hpp:77] Creating layer relu3
I0414 05:12:57.612159  3522 net.cpp:84] Creating Layer relu3
I0414 05:12:57.612162  3522 net.cpp:406] relu3 <- ip1
I0414 05:12:57.612166  3522 net.cpp:367] relu3 -> ip1 (in-place)
I0414 05:12:57.612494  3522 net.cpp:122] Setting up relu3
I0414 05:12:57.612504  3522 net.cpp:129] Top shape: 128 480 (61440)
I0414 05:12:57.612506  3522 net.cpp:137] Memory required for data: 22569472
I0414 05:12:57.612509  3522 layer_factory.hpp:77] Creating layer ip2
I0414 05:12:57.612515  3522 net.cpp:84] Creating Layer ip2
I0414 05:12:57.612519  3522 net.cpp:406] ip2 <- ip1
I0414 05:12:57.612524  3522 net.cpp:380] ip2 -> ip2
I0414 05:12:57.613015  3522 net.cpp:122] Setting up ip2
I0414 05:12:57.613023  3522 net.cpp:129] Top shape: 128 200 (25600)
I0414 05:12:57.613044  3522 net.cpp:137] Memory required for data: 22671872
I0414 05:12:57.613050  3522 layer_factory.hpp:77] Creating layer relu4
I0414 05:12:57.613054  3522 net.cpp:84] Creating Layer relu4
I0414 05:12:57.613056  3522 net.cpp:406] relu4 <- ip2
I0414 05:12:57.613061  3522 net.cpp:367] relu4 -> ip2 (in-place)
I0414 05:12:57.613214  3522 net.cpp:122] Setting up relu4
I0414 05:12:57.613220  3522 net.cpp:129] Top shape: 128 200 (25600)
I0414 05:12:57.613222  3522 net.cpp:137] Memory required for data: 22774272
I0414 05:12:57.613225  3522 layer_factory.hpp:77] Creating layer ip3
I0414 05:12:57.613229  3522 net.cpp:84] Creating Layer ip3
I0414 05:12:57.613232  3522 net.cpp:406] ip3 <- ip2
I0414 05:12:57.613237  3522 net.cpp:380] ip3 -> ip3
I0414 05:12:57.613907  3522 net.cpp:122] Setting up ip3
I0414 05:12:57.613917  3522 net.cpp:129] Top shape: 128 10 (1280)
I0414 05:12:57.613920  3522 net.cpp:137] Memory required for data: 22779392
I0414 05:12:57.613927  3522 layer_factory.hpp:77] Creating layer loss
I0414 05:12:57.613936  3522 net.cpp:84] Creating Layer loss
I0414 05:12:57.613940  3522 net.cpp:406] loss <- ip3
I0414 05:12:57.613943  3522 net.cpp:406] loss <- label
I0414 05:12:57.613950  3522 net.cpp:380] loss -> loss
I0414 05:12:57.613961  3522 layer_factory.hpp:77] Creating layer loss
…
I0414 05:12:57.614414  3522 solver.cpp:190] Creating test net (#0) specified by net file: models/model-01/model_train_val.prototxt
I0414 05:12:57.614434  3522 net.cpp:294] The NetState phase (1) differed from the phase (0) specified by a rule in layer CNN
I0414 05:12:57.614506  3522 net.cpp:51] Initializing net from parameters: 
name: "Model"
state {
  phase: TEST
}
layer {
  name: "CNN"
  type: "Data"
  top: "data"
  top: "label"
  include {
    phase: TEST
  }
  transform_param {
    scale: 0.00390625
    mean_file: "input/dataset-01/mean_image.binaryproto"
  }
  data_param {
    source: "input/dataset-01/test_lmdb"
    batch_size: 220
    backend: LMDB
  }
}
layer {
  name: "conv1"
  type: "Convolution"
  bottom: "data"
  top: "conv1"
  param {
    lr_mult: 1
  }
  param {
    lr_mult: 2
  }
  convolution_param {
    num_output: 16
    pad: 3
    kernel_size: 7
    stride: 1
    weight_filler {
      type: "xavier"
    }
    bias_filler {
      type: "constant"
    }
  }
}
layer {
  name: "relu1"
  type: "ReLU"
  bottom: "conv1"
  top: "conv1"
}
layer {
  name: "pool1"
  type: "Pooling"
  bottom: "conv1"
  top: "pool1"
  pooling_param {
    pool: MAX
    kernel_size: 2
    stride: 2
  }
}
layer {
  name: "conv2"
  type: "Convolution"
  bottom: "pool1"
  top: "conv2"
  param {
    lr_mult: 1
  }
  param {
    lr_mult: 2
  }
  convolution_param {
    num_output: 32
    pad: 2
    kernel_size: 5
    stride: 1
    weight_filler {
      type: "xavier"
    }
    bias_filler {
      type: "constant"
    }
  }
}
layer {
  name: "relu2"
  type: "ReLU"
  bottom: "conv2"
  top: "conv2"
}
layer {
  name: "pool2"
  type: "Pooling"
  bottom: "conv2"
  top: "pool2"
  pooling_param {
    pool: MAX
    kernel_size: 2
    stride: 2
  }
}
layer {
  name: "ip1"
  type: "InnerProduct"
  bottom: "pool2"
  top: "ip1"
  param {
    lr_mult: 1
  }
  param {
    lr_mult: 2
  }
  inner_product_param {
    num_output: 480
    weight_filler {
      type: "xavier"
    }
    bias_filler {
      type: "constant"
    }
  }
}
layer {
  name: "relu3"
  type: "ReLU"
  bottom: "ip1"
  top: "ip1"
}
layer {
  name: "ip2"
  type: "InnerProduct"
  bottom: "ip1"
  top: "ip2"
  param {
    lr_mult: 1
  }
  param {
    lr_mult: 2
  }
  inner_product_param {
    num_output: 200
    weight_filler {
      type: "xavier"
    }
    bias_filler {
      type: "constant"
    }
  }
}
layer {
  name: "relu4"
  type: "ReLU"
  bottom: "ip2"
  top: "ip2"
}
layer {
  name: "ip3"
  type: "InnerProduct"
  bottom: "ip2"
  top: "ip3"
  param {
    lr_mult: 1
  }
  param {
    lr_mult: 2
  }
  inner_product_param {
    num_output: 10
    weight_filler {
      type: "xavier"
    }
    bias_filler {
      type: "constant"
    }
  }
}
layer {
  name: "accuracy"
  type: "Accuracy"
  bottom: "ip3"
  bottom: "label"
  top: "accuracy"
  include {
    phase: TEST
  }
}
layer {
  name: "loss"
  type: "SoftmaxWithLoss"
  bottom: "ip3"
  bottom: "label"
  top: "loss"
}
I0414 05:12:57.614575  3522 layer_factory.hpp:77] Creating layer CNN
I0414 05:12:57.614621  3522 db_lmdb.cpp:35] Opened lmdb input/dataset-01/test_lmdb
I0414 05:12:57.614634  3522 net.cpp:84] Creating Layer CNN
I0414 05:12:57.614640  3522 net.cpp:380] CNN -> data
I0414 05:12:57.614646  3522 net.cpp:380] CNN -> label
I0414 05:12:57.614653  3522 data_transformer.cpp:25] Loading mean file from: input/dataset-01/mean_image.binaryproto
I0414 05:12:57.614768  3522 data_layer.cpp:45] output data size: 220,1,28,28
I0414 05:12:57.616740  3522 net.cpp:122] Setting up CNN
I0414 05:12:57.616760  3522 net.cpp:129] Top shape: 220 1 28 28 (172480)
I0414 05:12:57.616765  3522 net.cpp:129] Top shape: 220 (220)
I0414 05:12:57.616767  3522 net.cpp:137] Memory required for data: 690800
I0414 05:12:57.616771  3522 layer_factory.hpp:77] Creating layer label_CNN_1_split
I0414 05:12:57.616780  3522 net.cpp:84] Creating Layer label_CNN_1_split
I0414 05:12:57.616783  3522 net.cpp:406] label_CNN_1_split <- label
I0414 05:12:57.616791  3522 net.cpp:380] label_CNN_1_split -> label_CNN_1_split_0
I0414 05:12:57.616798  3522 net.cpp:380] label_CNN_1_split -> label_CNN_1_split_1
I0414 05:12:57.616890  3522 net.cpp:122] Setting up label_CNN_1_split
I0414 05:12:57.616896  3522 net.cpp:129] Top shape: 220 (220)
I0414 05:12:57.616899  3522 net.cpp:129] Top shape: 220 (220)
I0414 05:12:57.616901  3522 net.cpp:137] Memory required for data: 692560
I0414 05:12:57.616904  3522 layer_factory.hpp:77] Creating layer conv1
I0414 05:12:57.616915  3522 net.cpp:84] Creating Layer conv1
I0414 05:12:57.616919  3522 net.cpp:406] conv1 <- data
I0414 05:12:57.616925  3522 net.cpp:380] conv1 -> conv1
I0414 05:12:57.617941  3522 net.cpp:122] Setting up conv1
I0414 05:12:57.617959  3522 net.cpp:129] Top shape: 220 16 28 28 (2759680)
I0414 05:12:57.617964  3522 net.cpp:137] Memory required for data: 11731280
I0414 05:12:57.617980  3522 layer_factory.hpp:77] Creating layer relu1
I0414 05:12:57.617990  3522 net.cpp:84] Creating Layer relu1
I0414 05:12:57.617993  3522 net.cpp:406] relu1 <- conv1
I0414 05:12:57.617997  3522 net.cpp:367] relu1 -> conv1 (in-place)
I0414 05:12:57.618340  3522 net.cpp:122] Setting up relu1
I0414 05:12:57.618351  3522 net.cpp:129] Top shape: 220 16 28 28 (2759680)
I0414 05:12:57.618355  3522 net.cpp:137] Memory required for data: 22770000
I0414 05:12:57.618357  3522 layer_factory.hpp:77] Creating layer pool1
I0414 05:12:57.618366  3522 net.cpp:84] Creating Layer pool1
I0414 05:12:57.618369  3522 net.cpp:406] pool1 <- conv1
I0414 05:12:57.618374  3522 net.cpp:380] pool1 -> pool1
I0414 05:12:57.618455  3522 net.cpp:122] Setting up pool1
I0414 05:12:57.618463  3522 net.cpp:129] Top shape: 220 16 14 14 (689920)
I0414 05:12:57.618465  3522 net.cpp:137] Memory required for data: 25529680
I0414 05:12:57.618468  3522 layer_factory.hpp:77] Creating layer conv2
I0414 05:12:57.618475  3522 net.cpp:84] Creating Layer conv2
I0414 05:12:57.618479  3522 net.cpp:406] conv2 <- pool1
I0414 05:12:57.618485  3522 net.cpp:380] conv2 -> conv2
I0414 05:12:57.619602  3522 net.cpp:122] Setting up conv2
I0414 05:12:57.619621  3522 net.cpp:129] Top shape: 220 32 14 14 (1379840)
I0414 05:12:57.619627  3522 net.cpp:137] Memory required for data: 31049040
I0414 05:12:57.619640  3522 layer_factory.hpp:77] Creating layer relu2
I0414 05:12:57.619652  3522 net.cpp:84] Creating Layer relu2
I0414 05:12:57.619659  3522 net.cpp:406] relu2 <- conv2
I0414 05:12:57.619668  3522 net.cpp:367] relu2 -> conv2 (in-place)
I0414 05:12:57.619858  3522 net.cpp:122] Setting up relu2
I0414 05:12:57.619870  3522 net.cpp:129] Top shape: 220 32 14 14 (1379840)
I0414 05:12:57.619874  3522 net.cpp:137] Memory required for data: 36568400
I0414 05:12:57.619876  3522 layer_factory.hpp:77] Creating layer pool2
I0414 05:12:57.619881  3522 net.cpp:84] Creating Layer pool2
I0414 05:12:57.619884  3522 net.cpp:406] pool2 <- conv2
I0414 05:12:57.619889  3522 net.cpp:380] pool2 -> pool2
I0414 05:12:57.619928  3522 net.cpp:122] Setting up pool2
I0414 05:12:57.619935  3522 net.cpp:129] Top shape: 220 32 7 7 (344960)
I0414 05:12:57.619940  3522 net.cpp:137] Memory required for data: 37948240
I0414 05:12:57.619941  3522 layer_factory.hpp:77] Creating layer ip1
I0414 05:12:57.619949  3522 net.cpp:84] Creating Layer ip1
I0414 05:12:57.619953  3522 net.cpp:406] ip1 <- pool2
I0414 05:12:57.619958  3522 net.cpp:380] ip1 -> ip1
I0414 05:12:57.623956  3522 net.cpp:122] Setting up ip1
I0414 05:12:57.623971  3522 net.cpp:129] Top shape: 220 480 (105600)
I0414 05:12:57.623975  3522 net.cpp:137] Memory required for data: 38370640
I0414 05:12:57.623986  3522 layer_factory.hpp:77] Creating layer relu3
I0414 05:12:57.623992  3522 net.cpp:84] Creating Layer relu3
I0414 05:12:57.623996  3522 net.cpp:406] relu3 <- ip1
I0414 05:12:57.624002  3522 net.cpp:367] relu3 -> ip1 (in-place)
I0414 05:12:57.624178  3522 net.cpp:122] Setting up relu3
I0414 05:12:57.624186  3522 net.cpp:129] Top shape: 220 480 (105600)
I0414 05:12:57.624189  3522 net.cpp:137] Memory required for data: 38793040
I0414 05:12:57.624191  3522 layer_factory.hpp:77] Creating layer ip2
I0414 05:12:57.624197  3522 net.cpp:84] Creating Layer ip2
I0414 05:12:57.624202  3522 net.cpp:406] ip2 <- ip1
I0414 05:12:57.624207  3522 net.cpp:380] ip2 -> ip2
I0414 05:12:57.624709  3522 net.cpp:122] Setting up ip2
I0414 05:12:57.624716  3522 net.cpp:129] Top shape: 220 200 (44000)
I0414 05:12:57.624718  3522 net.cpp:137] Memory required for data: 38969040
I0414 05:12:57.624722  3522 layer_factory.hpp:77] Creating layer relu4
I0414 05:12:57.624727  3522 net.cpp:84] Creating Layer relu4
I0414 05:12:57.624729  3522 net.cpp:406] relu4 <- ip2
I0414 05:12:57.624732  3522 net.cpp:367] relu4 -> ip2 (in-place)
I0414 05:12:57.624886  3522 net.cpp:122] Setting up relu4
I0414 05:12:57.624892  3522 net.cpp:129] Top shape: 220 200 (44000)
I0414 05:12:57.624895  3522 net.cpp:137] Memory required for data: 39145040
I0414 05:12:57.624897  3522 layer_factory.hpp:77] Creating layer ip3
I0414 05:12:57.624902  3522 net.cpp:84] Creating Layer ip3
I0414 05:12:57.624905  3522 net.cpp:406] ip3 <- ip2
I0414 05:12:57.624910  3522 net.cpp:380] ip3 -> ip3
I0414 05:12:57.625006  3522 net.cpp:122] Setting up ip3
I0414 05:12:57.625011  3522 net.cpp:129] Top shape: 220 10 (2200)
I0414 05:12:57.625015  3522 net.cpp:137] Memory required for data: 39153840
I0414 05:12:57.625021  3522 layer_factory.hpp:77] Creating layer ip3_ip3_0_split
I0414 05:12:57.625027  3522 net.cpp:84] Creating Layer ip3_ip3_0_split
I0414 05:12:57.625030  3522 net.cpp:406] ip3_ip3_0_split <- ip3
I0414 05:12:57.625035  3522 net.cpp:380] ip3_ip3_0_split -> ip3_ip3_0_split_0
I0414 05:12:57.625054  3522 net.cpp:380] ip3_ip3_0_split -> ip3_ip3_0_split_1
I0414 05:12:57.625088  3522 net.cpp:122] Setting up ip3_ip3_0_split
I0414 05:12:57.625093  3522 net.cpp:129] Top shape: 220 10 (2200)
I0414 05:12:57.625097  3522 net.cpp:129] Top shape: 220 10 (2200)
I0414 05:12:57.625098  3522 net.cpp:137] Memory required for data: 39171440
I0414 05:12:57.625100  3522 layer_factory.hpp:77] Creating layer accuracy
I0414 05:12:57.625105  3522 net.cpp:84] Creating Layer accuracy
I0414 05:12:57.625108  3522 net.cpp:406] accuracy <- ip3_ip3_0_split_0
I0414 05:12:57.625113  3522 net.cpp:406] accuracy <- label_CNN_1_split_0
I0414 05:12:57.625118  3522 net.cpp:380] accuracy -> accuracy
…
