…
W0414 06:39:38.997037  7951 _caffe.cpp:140] Use this instead (with the named "weights" parameter):
W0414 06:39:38.997041  7951 _caffe.cpp:142] Net('/home/dennis/Desktop/cnn-caffe-scripts/models/model-01/model_deploy.prototxt', 1, weights='/home/dennis/Desktop/cnn-caffe-scripts/models/model-01/train_iter_6000.caffemodel')
I0414 06:39:39.204082  7951 net.cpp:51] Initializing net from parameters: 
name: "Model"
state {
  phase: TEST
  level: 0
}
layer {
  name: "data"
  type: "Input"
  top: "data"
  input_param {
    shape {
      dim: 1
      dim: 1
      dim: 28
      dim: 28
    }
  }
}
layer {
  name: "conv1"
  type: "Convolution"
  bottom: "data"
  top: "conv1"
  param {
    lr_mult: 1
  }
  param {
    lr_mult: 2
  }
  convolution_param {
    num_output: 16
    pad: 3
    kernel_size: 7
    stride: 1
    weight_filler {
      type: "xavier"
    }
    bias_filler {
      type: "constant"
    }
  }
}
layer {
  name: "relu1"
  type: "ReLU"
  bottom: "conv1"
  top: "conv1"
}
layer {
  name: "pool1"
  type: "Pooling"
  bottom: "conv1"
  top: "pool1"
  pooling_param {
    pool: MAX
    kernel_size: 2
    stride: 2
  }
}
layer {
  name: "conv2"
  type: "Convolution"
  bottom: "pool1"
  top: "conv2"
  param {
    lr_mult: 1
  }
  param {
    lr_mult: 2
  }
  convolution_param {
    num_output: 32
    pad: 2
    kernel_size: 5
    stride: 1
    weight_filler {
      type: "xavier"
    }
    bias_filler {
      type: "constant"
    }
  }
}
layer {
  name: "relu2"
  type: "ReLU"
  bottom: "conv2"
  top: "conv2"
}
layer {
  name: "pool2"
  type: "Pooling"
  bottom: "conv2"
  top: "pool2"
  pooling_param {
    pool: MAX
    kernel_size: 2
    stride: 2
  }
}
layer {
  name: "ip1"
  type: "InnerProduct"
  bottom: "pool2"
  top: "ip1"
  param {
    lr_mult: 1
  }
  param {
    lr_mult: 2
  }
  inner_product_param {
    num_output: 480
    weight_filler {
      type: "xavier"
    }
    bias_filler {
      type: "constant"
    }
  }
}
layer {
  name: "relu3"
  type: "ReLU"
  bottom: "ip1"
  top: "ip1"
}
layer {
  name: "ip2"
  type: "InnerProduct"
  bottom: "ip1"
  top: "ip2"
  param {
    lr_mult: 1
  }
  param {
    lr_mult: 2
  }
  inner_product_param {
    num_output: 200
    weight_filler {
      type: "xavier"
    }
    bias_filler {
      type: "constant"
    }
  }
}
layer {
  name: "relu4"
  type: "ReLU"
  bottom: "ip2"
  top: "ip2"
}
layer {
  name: "ip3"
  type: "InnerProduct"
  bottom: "ip2"
  top: "ip3"
  param {
    lr_mult: 1
  }
  param {
    lr_mult: 2
  }
  inner_product_param {
    num_output: 10
    weight_filler {
      type: "xavier"
    }
    bias_filler {
      type: "constant"
    }
  }
}
layer {
  name: "prob"
  type: "Softmax"
  bottom: "ip3"
  top: "prob"
}
I0414 06:39:39.204143  7951 layer_factory.hpp:77] Creating layer data
I0414 06:39:39.204166  7951 net.cpp:84] Creating Layer data
I0414 06:39:39.204180  7951 net.cpp:380] data -> data
I0414 06:39:39.204195  7951 net.cpp:122] Setting up data
I0414 06:39:39.204202  7951 net.cpp:129] Top shape: 1 1 28 28 (784)
I0414 06:39:39.204206  7951 net.cpp:137] Memory required for data: 3136
I0414 06:39:39.204211  7951 layer_factory.hpp:77] Creating layer conv1
I0414 06:39:39.204226  7951 net.cpp:84] Creating Layer conv1
I0414 06:39:39.204233  7951 net.cpp:406] conv1 <- data
I0414 06:39:39.204242  7951 net.cpp:380] conv1 -> conv1
I0414 06:39:39.614033  7951 net.cpp:122] Setting up conv1
I0414 06:39:39.614059  7951 net.cpp:129] Top shape: 1 16 28 28 (12544)
I0414 06:39:39.614063  7951 net.cpp:137] Memory required for data: 53312
I0414 06:39:39.614079  7951 layer_factory.hpp:77] Creating layer relu1
I0414 06:39:39.614091  7951 net.cpp:84] Creating Layer relu1
I0414 06:39:39.614099  7951 net.cpp:406] relu1 <- conv1
I0414 06:39:39.614104  7951 net.cpp:367] relu1 -> conv1 (in-place)
I0414 06:39:39.614259  7951 net.cpp:122] Setting up relu1
I0414 06:39:39.614267  7951 net.cpp:129] Top shape: 1 16 28 28 (12544)
I0414 06:39:39.614272  7951 net.cpp:137] Memory required for data: 103488
I0414 06:39:39.614276  7951 layer_factory.hpp:77] Creating layer pool1
I0414 06:39:39.614284  7951 net.cpp:84] Creating Layer pool1
I0414 06:39:39.614289  7951 net.cpp:406] pool1 <- conv1
I0414 06:39:39.614296  7951 net.cpp:380] pool1 -> pool1
I0414 06:39:39.614315  7951 net.cpp:122] Setting up pool1
I0414 06:39:39.614325  7951 net.cpp:129] Top shape: 1 16 14 14 (3136)
I0414 06:39:39.614329  7951 net.cpp:137] Memory required for data: 116032
I0414 06:39:39.614333  7951 layer_factory.hpp:77] Creating layer conv2
I0414 06:39:39.614346  7951 net.cpp:84] Creating Layer conv2
I0414 06:39:39.614352  7951 net.cpp:406] conv2 <- pool1
I0414 06:39:39.614358  7951 net.cpp:380] conv2 -> conv2
I0414 06:39:39.614997  7951 net.cpp:122] Setting up conv2
I0414 06:39:39.615010  7951 net.cpp:129] Top shape: 1 32 14 14 (6272)
I0414 06:39:39.615015  7951 net.cpp:137] Memory required for data: 141120
I0414 06:39:39.615027  7951 layer_factory.hpp:77] Creating layer relu2
I0414 06:39:39.615036  7951 net.cpp:84] Creating Layer relu2
I0414 06:39:39.615042  7951 net.cpp:406] relu2 <- conv2
I0414 06:39:39.615049  7951 net.cpp:367] relu2 -> conv2 (in-place)
I0414 06:39:39.615208  7951 net.cpp:122] Setting up relu2
I0414 06:39:39.615217  7951 net.cpp:129] Top shape: 1 32 14 14 (6272)
I0414 06:39:39.615221  7951 net.cpp:137] Memory required for data: 166208
I0414 06:39:39.615226  7951 layer_factory.hpp:77] Creating layer pool2
I0414 06:39:39.615234  7951 net.cpp:84] Creating Layer pool2
I0414 06:39:39.615240  7951 net.cpp:406] pool2 <- conv2
I0414 06:39:39.615248  7951 net.cpp:380] pool2 -> pool2
I0414 06:39:39.615260  7951 net.cpp:122] Setting up pool2
I0414 06:39:39.615268  7951 net.cpp:129] Top shape: 1 32 7 7 (1568)
I0414 06:39:39.615273  7951 net.cpp:137] Memory required for data: 172480
I0414 06:39:39.615278  7951 layer_factory.hpp:77] Creating layer ip1
I0414 06:39:39.615286  7951 net.cpp:84] Creating Layer ip1
I0414 06:39:39.615293  7951 net.cpp:406] ip1 <- pool2
I0414 06:39:39.615303  7951 net.cpp:380] ip1 -> ip1
I0414 06:39:39.619318  7951 net.cpp:122] Setting up ip1
I0414 06:39:39.619333  7951 net.cpp:129] Top shape: 1 480 (480)
I0414 06:39:39.619335  7951 net.cpp:137] Memory required for data: 174400
I0414 06:39:39.619346  7951 layer_factory.hpp:77] Creating layer relu3
I0414 06:39:39.619356  7951 net.cpp:84] Creating Layer relu3
I0414 06:39:39.619362  7951 net.cpp:406] relu3 <- ip1
I0414 06:39:39.619369  7951 net.cpp:367] relu3 -> ip1 (in-place)
I0414 06:39:39.619722  7951 net.cpp:122] Setting up relu3
I0414 06:39:39.619732  7951 net.cpp:129] Top shape: 1 480 (480)
I0414 06:39:39.619736  7951 net.cpp:137] Memory required for data: 176320
I0414 06:39:39.619741  7951 layer_factory.hpp:77] Creating layer ip2
I0414 06:39:39.619751  7951 net.cpp:84] Creating Layer ip2
I0414 06:39:39.619757  7951 net.cpp:406] ip2 <- ip1
I0414 06:39:39.619768  7951 net.cpp:380] ip2 -> ip2
I0414 06:39:39.620296  7951 net.cpp:122] Setting up ip2
I0414 06:39:39.620306  7951 net.cpp:129] Top shape: 1 200 (200)
I0414 06:39:39.620309  7951 net.cpp:137] Memory required for data: 177120
I0414 06:39:39.620318  7951 layer_factory.hpp:77] Creating layer relu4
I0414 06:39:39.620326  7951 net.cpp:84] Creating Layer relu4
I0414 06:39:39.620332  7951 net.cpp:406] relu4 <- ip2
I0414 06:39:39.620337  7951 net.cpp:367] relu4 -> ip2 (in-place)
I0414 06:39:39.620499  7951 net.cpp:122] Setting up relu4
I0414 06:39:39.620508  7951 net.cpp:129] Top shape: 1 200 (200)
I0414 06:39:39.620513  7951 net.cpp:137] Memory required for data: 177920
I0414 06:39:39.620517  7951 layer_factory.hpp:77] Creating layer ip3
I0414 06:39:39.620527  7951 net.cpp:84] Creating Layer ip3
I0414 06:39:39.620532  7951 net.cpp:406] ip3 <- ip2
I0414 06:39:39.620540  7951 net.cpp:380] ip3 -> ip3
I0414 06:39:39.620576  7951 net.cpp:122] Setting up ip3
I0414 06:39:39.620584  7951 net.cpp:129] Top shape: 1 10 (10)
I0414 06:39:39.620586  7951 net.cpp:137] Memory required for data: 177960
I0414 06:39:39.620597  7951 layer_factory.hpp:77] Creating layer prob
I0414 06:39:39.620606  7951 net.cpp:84] Creating Layer prob
I0414 06:39:39.620610  7951 net.cpp:406] prob <- ip3
I0414 06:39:39.620616  7951 net.cpp:380] prob -> prob
I0414 06:39:39.620776  7951 net.cpp:122] Setting up prob
I0414 06:39:39.620785  7951 net.cpp:129] Top shape: 1 10 (10)
I0414 06:39:39.620790  7951 net.cpp:137] Memory required for data: 178000
I0414 06:39:39.620795  7951 net.cpp:200] prob does not need backward computation.
I0414 06:39:39.620801  7951 net.cpp:200] ip3 does not need backward computation.
I0414 06:39:39.620805  7951 net.cpp:200] relu4 does not need backward computation.
I0414 06:39:39.620811  7951 net.cpp:200] ip2 does not need backward computation.
…
