…
W0414 06:47:46.487974  9762 _caffe.cpp:140] Use this instead (with the named "weights" parameter):
W0414 06:47:46.487977  9762 _caffe.cpp:142] Net('/home/dennis/Desktop/cnn-caffe-scripts/models/model-02/model_deploy.prototxt', 1, weights='/home/dennis/Desktop/cnn-caffe-scripts/models/model-02/train_iter_6000.caffemodel')
I0414 06:47:46.717099  9762 net.cpp:51] Initializing net from parameters: 
name: "Model"
state {
  phase: TEST
  level: 0
}
layer {
  name: "data"
  type: "Input"
  top: "data"
  input_param {
    shape {
      dim: 1
      dim: 1
      dim: 28
      dim: 28
    }
  }
}
layer {
  name: "conv1"
  type: "Convolution"
  bottom: "data"
  top: "conv1"
  param {
    lr_mult: 1
  }
  param {
    lr_mult: 2
  }
  convolution_param {
    num_output: 16
    pad: 3
    kernel_size: 7
    stride: 1
    weight_filler {
      type: "xavier"
    }
    bias_filler {
      type: "constant"
    }
  }
}
layer {
  name: "relu1"
  type: "ReLU"
  bottom: "conv1"
  top: "conv1"
}
layer {
  name: "pool1"
  type: "Pooling"
  bottom: "conv1"
  top: "pool1"
  pooling_param {
    pool: MAX
    kernel_size: 2
    stride: 2
  }
}
layer {
  name: "conv2"
  type: "Convolution"
  bottom: "pool1"
  top: "conv2"
  param {
    lr_mult: 1
  }
  param {
    lr_mult: 2
  }
  convolution_param {
    num_output: 32
    pad: 2
    kernel_size: 5
    stride: 1
    weight_filler {
      type: "xavier"
    }
    bias_filler {
      type: "constant"
    }
  }
}
layer {
  name: "relu2"
  type: "ReLU"
  bottom: "conv2"
  top: "conv2"
}
layer {
  name: "pool2"
  type: "Pooling"
  bottom: "conv2"
  top: "pool2"
  pooling_param {
    pool: MAX
    kernel_size: 2
    stride: 2
  }
}
layer {
  name: "ip1"
  type: "InnerProduct"
  bottom: "pool2"
  top: "ip1"
  param {
    lr_mult: 1
  }
  param {
    lr_mult: 2
  }
  inner_product_param {
    num_output: 120
    weight_filler {
      type: "xavier"
    }
    bias_filler {
      type: "constant"
    }
  }
}
layer {
  name: "relu3"
  type: "ReLU"
  bottom: "ip1"
  top: "ip1"
}
layer {
  name: "ip2"
  type: "InnerProduct"
  bottom: "ip1"
  top: "ip2"
  param {
    lr_mult: 1
  }
  param {
    lr_mult: 2
  }
  inner_product_param {
    num_output: 50
    weight_filler {
      type: "xavier"
    }
    bias_filler {
      type: "constant"
    }
  }
}
layer {
  name: "relu4"
  type: "ReLU"
  bottom: "ip2"
  top: "ip2"
}
layer {
  name: "ip3"
  type: "InnerProduct"
  bottom: "ip2"
  top: "ip3"
  param {
    lr_mult: 1
  }
  param {
    lr_mult: 2
  }
  inner_product_param {
    num_output: 10
    weight_filler {
      type: "xavier"
    }
    bias_filler {
      type: "constant"
    }
  }
}
layer {
  name: "prob"
  type: "Softmax"
  bottom: "ip3"
  top: "prob"
}
I0414 06:47:46.717166  9762 layer_factory.hpp:77] Creating layer data
I0414 06:47:46.717183  9762 net.cpp:84] Creating Layer data
I0414 06:47:46.717195  9762 net.cpp:380] data -> data
I0414 06:47:46.717209  9762 net.cpp:122] Setting up data
I0414 06:47:46.717218  9762 net.cpp:129] Top shape: 1 1 28 28 (784)
I0414 06:47:46.717222  9762 net.cpp:137] Memory required for data: 3136
I0414 06:47:46.717226  9762 layer_factory.hpp:77] Creating layer conv1
I0414 06:47:46.717243  9762 net.cpp:84] Creating Layer conv1
I0414 06:47:46.717250  9762 net.cpp:406] conv1 <- data
I0414 06:47:46.717260  9762 net.cpp:380] conv1 -> conv1
I0414 06:47:47.128510  9762 net.cpp:122] Setting up conv1
I0414 06:47:47.128538  9762 net.cpp:129] Top shape: 1 16 28 28 (12544)
I0414 06:47:47.128541  9762 net.cpp:137] Memory required for data: 53312
I0414 06:47:47.128558  9762 layer_factory.hpp:77] Creating layer relu1
I0414 06:47:47.128567  9762 net.cpp:84] Creating Layer relu1
I0414 06:47:47.128572  9762 net.cpp:406] relu1 <- conv1
I0414 06:47:47.128577  9762 net.cpp:367] relu1 -> conv1 (in-place)
I0414 06:47:47.128718  9762 net.cpp:122] Setting up relu1
I0414 06:47:47.128727  9762 net.cpp:129] Top shape: 1 16 28 28 (12544)
I0414 06:47:47.128731  9762 net.cpp:137] Memory required for data: 103488
I0414 06:47:47.128734  9762 layer_factory.hpp:77] Creating layer pool1
I0414 06:47:47.128739  9762 net.cpp:84] Creating Layer pool1
I0414 06:47:47.128742  9762 net.cpp:406] pool1 <- conv1
I0414 06:47:47.128746  9762 net.cpp:380] pool1 -> pool1
I0414 06:47:47.128759  9762 net.cpp:122] Setting up pool1
I0414 06:47:47.128765  9762 net.cpp:129] Top shape: 1 16 14 14 (3136)
I0414 06:47:47.128768  9762 net.cpp:137] Memory required for data: 116032
I0414 06:47:47.128770  9762 layer_factory.hpp:77] Creating layer conv2
I0414 06:47:47.128779  9762 net.cpp:84] Creating Layer conv2
I0414 06:47:47.128783  9762 net.cpp:406] conv2 <- pool1
I0414 06:47:47.128787  9762 net.cpp:380] conv2 -> conv2
I0414 06:47:47.129415  9762 net.cpp:122] Setting up conv2
I0414 06:47:47.129426  9762 net.cpp:129] Top shape: 1 32 14 14 (6272)
I0414 06:47:47.129429  9762 net.cpp:137] Memory required for data: 141120
I0414 06:47:47.129437  9762 layer_factory.hpp:77] Creating layer relu2
I0414 06:47:47.129443  9762 net.cpp:84] Creating Layer relu2
I0414 06:47:47.129446  9762 net.cpp:406] relu2 <- conv2
I0414 06:47:47.129451  9762 net.cpp:367] relu2 -> conv2 (in-place)
I0414 06:47:47.129581  9762 net.cpp:122] Setting up relu2
I0414 06:47:47.129590  9762 net.cpp:129] Top shape: 1 32 14 14 (6272)
I0414 06:47:47.129593  9762 net.cpp:137] Memory required for data: 166208
I0414 06:47:47.129595  9762 layer_factory.hpp:77] Creating layer pool2
I0414 06:47:47.129601  9762 net.cpp:84] Creating Layer pool2
I0414 06:47:47.129603  9762 net.cpp:406] pool2 <- conv2
I0414 06:47:47.129607  9762 net.cpp:380] pool2 -> pool2
I0414 06:47:47.129616  9762 net.cpp:122] Setting up pool2
I0414 06:47:47.129621  9762 net.cpp:129] Top shape: 1 32 7 7 (1568)
I0414 06:47:47.129623  9762 net.cpp:137] Memory required for data: 172480
I0414 06:47:47.129626  9762 layer_factory.hpp:77] Creating layer ip1
I0414 06:47:47.129631  9762 net.cpp:84] Creating Layer ip1
I0414 06:47:47.129635  9762 net.cpp:406] ip1 <- pool2
I0414 06:47:47.129638  9762 net.cpp:380] ip1 -> ip1
I0414 06:47:47.130643  9762 net.cpp:122] Setting up ip1
I0414 06:47:47.130650  9762 net.cpp:129] Top shape: 1 120 (120)
I0414 06:47:47.130653  9762 net.cpp:137] Memory required for data: 172960
I0414 06:47:47.130661  9762 layer_factory.hpp:77] Creating layer relu3
I0414 06:47:47.130666  9762 net.cpp:84] Creating Layer relu3
I0414 06:47:47.130668  9762 net.cpp:406] relu3 <- ip1
I0414 06:47:47.130672  9762 net.cpp:367] relu3 -> ip1 (in-place)
I0414 06:47:47.130944  9762 net.cpp:122] Setting up relu3
I0414 06:47:47.130954  9762 net.cpp:129] Top shape: 1 120 (120)
I0414 06:47:47.130956  9762 net.cpp:137] Memory required for data: 173440
I0414 06:47:47.130959  9762 layer_factory.hpp:77] Creating layer ip2
I0414 06:47:47.130964  9762 net.cpp:84] Creating Layer ip2
I0414 06:47:47.130969  9762 net.cpp:406] ip2 <- ip1
I0414 06:47:47.130973  9762 net.cpp:380] ip2 -> ip2
I0414 06:47:47.131011  9762 net.cpp:122] Setting up ip2
I0414 06:47:47.131016  9762 net.cpp:129] Top shape: 1 50 (50)
I0414 06:47:47.131019  9762 net.cpp:137] Memory required for data: 173640
I0414 06:47:47.131026  9762 layer_factory.hpp:77] Creating layer relu4
I0414 06:47:47.131029  9762 net.cpp:84] Creating Layer relu4
I0414 06:47:47.131032  9762 net.cpp:406] relu4 <- ip2
I0414 06:47:47.131036  9762 net.cpp:367] relu4 -> ip2 (in-place)
I0414 06:47:47.131175  9762 net.cpp:122] Setting up relu4
I0414 06:47:47.131182  9762 net.cpp:129] Top shape: 1 50 (50)
I0414 06:47:47.131184  9762 net.cpp:137] Memory required for data: 173840
I0414 06:47:47.131187  9762 layer_factory.hpp:77] Creating layer ip3
I0414 06:47:47.131192  9762 net.cpp:84] Creating Layer ip3
I0414 06:47:47.131196  9762 net.cpp:406] ip3 <- ip2
I0414 06:47:47.131201  9762 net.cpp:380] ip3 -> ip3
I0414 06:47:47.131215  9762 net.cpp:122] Setting up ip3
I0414 06:47:47.131220  9762 net.cpp:129] Top shape: 1 10 (10)
I0414 06:47:47.131222  9762 net.cpp:137] Memory required for data: 173880
I0414 06:47:47.131230  9762 layer_factory.hpp:77] Creating layer prob
I0414 06:47:47.131237  9762 net.cpp:84] Creating Layer prob
I0414 06:47:47.131239  9762 net.cpp:406] prob <- ip3
I0414 06:47:47.131244  9762 net.cpp:380] prob -> prob
I0414 06:47:47.131386  9762 net.cpp:122] Setting up prob
I0414 06:47:47.131393  9762 net.cpp:129] Top shape: 1 10 (10)
I0414 06:47:47.131397  9762 net.cpp:137] Memory required for data: 173920
I0414 06:47:47.131400  9762 net.cpp:200] prob does not need backward computation.
I0414 06:47:47.131403  9762 net.cpp:200] ip3 does not need backward computation.
I0414 06:47:47.131407  9762 net.cpp:200] relu4 does not need backward computation.
I0414 06:47:47.131408  9762 net.cpp:200] ip2 does not need backward computation.
…
