…
W0414 06:42:24.071466  8111 _caffe.cpp:140] Use this instead (with the named "weights" parameter):
W0414 06:42:24.071470  8111 _caffe.cpp:142] Net('/home/dennis/Desktop/cnn-caffe-scripts/models/model-01/model_deploy.prototxt', 1, weights='/home/dennis/Desktop/cnn-caffe-scripts/models/model-01/train_iter_6000.caffemodel')
I0414 06:42:24.277412  8111 net.cpp:51] Initializing net from parameters: 
name: "Model"
state {
  phase: TEST
  level: 0
}
layer {
  name: "data"
  type: "Input"
  top: "data"
  input_param {
    shape {
      dim: 1
      dim: 1
      dim: 28
      dim: 28
    }
  }
}
layer {
  name: "conv1"
  type: "Convolution"
  bottom: "data"
  top: "conv1"
  param {
    lr_mult: 1
  }
  param {
    lr_mult: 2
  }
  convolution_param {
    num_output: 16
    pad: 3
    kernel_size: 7
    stride: 1
    weight_filler {
      type: "xavier"
    }
    bias_filler {
      type: "constant"
    }
  }
}
layer {
  name: "relu1"
  type: "ReLU"
  bottom: "conv1"
  top: "conv1"
}
layer {
  name: "pool1"
  type: "Pooling"
  bottom: "conv1"
  top: "pool1"
  pooling_param {
    pool: MAX
    kernel_size: 2
    stride: 2
  }
}
layer {
  name: "conv2"
  type: "Convolution"
  bottom: "pool1"
  top: "conv2"
  param {
    lr_mult: 1
  }
  param {
    lr_mult: 2
  }
  convolution_param {
    num_output: 32
    pad: 2
    kernel_size: 5
    stride: 1
    weight_filler {
      type: "xavier"
    }
    bias_filler {
      type: "constant"
    }
  }
}
layer {
  name: "relu2"
  type: "ReLU"
  bottom: "conv2"
  top: "conv2"
}
layer {
  name: "pool2"
  type: "Pooling"
  bottom: "conv2"
  top: "pool2"
  pooling_param {
    pool: MAX
    kernel_size: 2
    stride: 2
  }
}
layer {
  name: "ip1"
  type: "InnerProduct"
  bottom: "pool2"
  top: "ip1"
  param {
    lr_mult: 1
  }
  param {
    lr_mult: 2
  }
  inner_product_param {
    num_output: 480
    weight_filler {
      type: "xavier"
    }
    bias_filler {
      type: "constant"
    }
  }
}
layer {
  name: "relu3"
  type: "ReLU"
  bottom: "ip1"
  top: "ip1"
}
layer {
  name: "ip2"
  type: "InnerProduct"
  bottom: "ip1"
  top: "ip2"
  param {
    lr_mult: 1
  }
  param {
    lr_mult: 2
  }
  inner_product_param {
    num_output: 200
    weight_filler {
      type: "xavier"
    }
    bias_filler {
      type: "constant"
    }
  }
}
layer {
  name: "relu4"
  type: "ReLU"
  bottom: "ip2"
  top: "ip2"
}
layer {
  name: "ip3"
  type: "InnerProduct"
  bottom: "ip2"
  top: "ip3"
  param {
    lr_mult: 1
  }
  param {
    lr_mult: 2
  }
  inner_product_param {
    num_output: 10
    weight_filler {
      type: "xavier"
    }
    bias_filler {
      type: "constant"
    }
  }
}
layer {
  name: "prob"
  type: "Softmax"
  bottom: "ip3"
  top: "prob"
}
I0414 06:42:24.277475  8111 layer_factory.hpp:77] Creating layer data
I0414 06:42:24.277493  8111 net.cpp:84] Creating Layer data
I0414 06:42:24.277505  8111 net.cpp:380] data -> data
I0414 06:42:24.277529  8111 net.cpp:122] Setting up data
I0414 06:42:24.277537  8111 net.cpp:129] Top shape: 1 1 28 28 (784)
I0414 06:42:24.277542  8111 net.cpp:137] Memory required for data: 3136
I0414 06:42:24.277546  8111 layer_factory.hpp:77] Creating layer conv1
I0414 06:42:24.277557  8111 net.cpp:84] Creating Layer conv1
I0414 06:42:24.277564  8111 net.cpp:406] conv1 <- data
I0414 06:42:24.277571  8111 net.cpp:380] conv1 -> conv1
I0414 06:42:24.687515  8111 net.cpp:122] Setting up conv1
I0414 06:42:24.687544  8111 net.cpp:129] Top shape: 1 16 28 28 (12544)
I0414 06:42:24.687549  8111 net.cpp:137] Memory required for data: 53312
I0414 06:42:24.687571  8111 layer_factory.hpp:77] Creating layer relu1
I0414 06:42:24.687585  8111 net.cpp:84] Creating Layer relu1
I0414 06:42:24.687592  8111 net.cpp:406] relu1 <- conv1
I0414 06:42:24.687600  8111 net.cpp:367] relu1 -> conv1 (in-place)
I0414 06:42:24.687755  8111 net.cpp:122] Setting up relu1
I0414 06:42:24.687764  8111 net.cpp:129] Top shape: 1 16 28 28 (12544)
I0414 06:42:24.687767  8111 net.cpp:137] Memory required for data: 103488
I0414 06:42:24.687770  8111 layer_factory.hpp:77] Creating layer pool1
I0414 06:42:24.687775  8111 net.cpp:84] Creating Layer pool1
I0414 06:42:24.687778  8111 net.cpp:406] pool1 <- conv1
I0414 06:42:24.687783  8111 net.cpp:380] pool1 -> pool1
I0414 06:42:24.687793  8111 net.cpp:122] Setting up pool1
I0414 06:42:24.687798  8111 net.cpp:129] Top shape: 1 16 14 14 (3136)
I0414 06:42:24.687800  8111 net.cpp:137] Memory required for data: 116032
I0414 06:42:24.687803  8111 layer_factory.hpp:77] Creating layer conv2
I0414 06:42:24.687811  8111 net.cpp:84] Creating Layer conv2
I0414 06:42:24.687815  8111 net.cpp:406] conv2 <- pool1
I0414 06:42:24.687819  8111 net.cpp:380] conv2 -> conv2
I0414 06:42:24.688439  8111 net.cpp:122] Setting up conv2
I0414 06:42:24.688450  8111 net.cpp:129] Top shape: 1 32 14 14 (6272)
I0414 06:42:24.688455  8111 net.cpp:137] Memory required for data: 141120
I0414 06:42:24.688463  8111 layer_factory.hpp:77] Creating layer relu2
I0414 06:42:24.688468  8111 net.cpp:84] Creating Layer relu2
I0414 06:42:24.688472  8111 net.cpp:406] relu2 <- conv2
I0414 06:42:24.688477  8111 net.cpp:367] relu2 -> conv2 (in-place)
I0414 06:42:24.688618  8111 net.cpp:122] Setting up relu2
I0414 06:42:24.688627  8111 net.cpp:129] Top shape: 1 32 14 14 (6272)
I0414 06:42:24.688629  8111 net.cpp:137] Memory required for data: 166208
I0414 06:42:24.688632  8111 layer_factory.hpp:77] Creating layer pool2
I0414 06:42:24.688637  8111 net.cpp:84] Creating Layer pool2
I0414 06:42:24.688640  8111 net.cpp:406] pool2 <- conv2
I0414 06:42:24.688644  8111 net.cpp:380] pool2 -> pool2
I0414 06:42:24.688652  8111 net.cpp:122] Setting up pool2
I0414 06:42:24.688657  8111 net.cpp:129] Top shape: 1 32 7 7 (1568)
I0414 06:42:24.688659  8111 net.cpp:137] Memory required for data: 172480
I0414 06:42:24.688663  8111 layer_factory.hpp:77] Creating layer ip1
I0414 06:42:24.688669  8111 net.cpp:84] Creating Layer ip1
I0414 06:42:24.688673  8111 net.cpp:406] ip1 <- pool2
I0414 06:42:24.688678  8111 net.cpp:380] ip1 -> ip1
I0414 06:42:24.692678  8111 net.cpp:122] Setting up ip1
I0414 06:42:24.692690  8111 net.cpp:129] Top shape: 1 480 (480)
I0414 06:42:24.692692  8111 net.cpp:137] Memory required for data: 174400
I0414 06:42:24.692703  8111 layer_factory.hpp:77] Creating layer relu3
I0414 06:42:24.692709  8111 net.cpp:84] Creating Layer relu3
I0414 06:42:24.692713  8111 net.cpp:406] relu3 <- ip1
I0414 06:42:24.692718  8111 net.cpp:367] relu3 -> ip1 (in-place)
I0414 06:42:24.693049  8111 net.cpp:122] Setting up relu3
I0414 06:42:24.693059  8111 net.cpp:129] Top shape: 1 480 (480)
I0414 06:42:24.693063  8111 net.cpp:137] Memory required for data: 176320
I0414 06:42:24.693065  8111 layer_factory.hpp:77] Creating layer ip2
I0414 06:42:24.693073  8111 net.cpp:84] Creating Layer ip2
I0414 06:42:24.693078  8111 net.cpp:406] ip2 <- ip1
I0414 06:42:24.693083  8111 net.cpp:380] ip2 -> ip2
I0414 06:42:24.693601  8111 net.cpp:122] Setting up ip2
I0414 06:42:24.693608  8111 net.cpp:129] Top shape: 1 200 (200)
I0414 06:42:24.693610  8111 net.cpp:137] Memory required for data: 177120
I0414 06:42:24.693616  8111 layer_factory.hpp:77] Creating layer relu4
I0414 06:42:24.693621  8111 net.cpp:84] Creating Layer relu4
I0414 06:42:24.693624  8111 net.cpp:406] relu4 <- ip2
I0414 06:42:24.693629  8111 net.cpp:367] relu4 -> ip2 (in-place)
I0414 06:42:24.693774  8111 net.cpp:122] Setting up relu4
I0414 06:42:24.693781  8111 net.cpp:129] Top shape: 1 200 (200)
I0414 06:42:24.693783  8111 net.cpp:137] Memory required for data: 177920
I0414 06:42:24.693786  8111 layer_factory.hpp:77] Creating layer ip3
I0414 06:42:24.693794  8111 net.cpp:84] Creating Layer ip3
I0414 06:42:24.693797  8111 net.cpp:406] ip3 <- ip2
I0414 06:42:24.693802  8111 net.cpp:380] ip3 -> ip3
I0414 06:42:24.693825  8111 net.cpp:122] Setting up ip3
I0414 06:42:24.693830  8111 net.cpp:129] Top shape: 1 10 (10)
I0414 06:42:24.693833  8111 net.cpp:137] Memory required for data: 177960
I0414 06:42:24.693840  8111 layer_factory.hpp:77] Creating layer prob
I0414 06:42:24.693846  8111 net.cpp:84] Creating Layer prob
I0414 06:42:24.693850  8111 net.cpp:406] prob <- ip3
I0414 06:42:24.693853  8111 net.cpp:380] prob -> prob
I0414 06:42:24.693994  8111 net.cpp:122] Setting up prob
I0414 06:42:24.694001  8111 net.cpp:129] Top shape: 1 10 (10)
I0414 06:42:24.694005  8111 net.cpp:137] Memory required for data: 178000
I0414 06:42:24.694007  8111 net.cpp:200] prob does not need backward computation.
I0414 06:42:24.694010  8111 net.cpp:200] ip3 does not need backward computation.
I0414 06:42:24.694013  8111 net.cpp:200] relu4 does not need backward computation.
I0414 06:42:24.694016  8111 net.cpp:200] ip2 does not need backward computation.
…
