…
W0414 06:45:05.733990  9338 _caffe.cpp:140] Use this instead (with the named "weights" parameter):
W0414 06:45:05.733994  9338 _caffe.cpp:142] Net('/home/dennis/Desktop/cnn-caffe-scripts/models/model-02/model_deploy.prototxt', 1, weights='/home/dennis/Desktop/cnn-caffe-scripts/models/model-02/train_iter_6000.caffemodel')
I0414 06:45:05.949434  9338 net.cpp:51] Initializing net from parameters: 
name: "Model"
state {
  phase: TEST
  level: 0
}
layer {
  name: "data"
  type: "Input"
  top: "data"
  input_param {
    shape {
      dim: 1
      dim: 1
      dim: 28
      dim: 28
    }
  }
}
layer {
  name: "conv1"
  type: "Convolution"
  bottom: "data"
  top: "conv1"
  param {
    lr_mult: 1
  }
  param {
    lr_mult: 2
  }
  convolution_param {
    num_output: 16
    pad: 3
    kernel_size: 7
    stride: 1
    weight_filler {
      type: "xavier"
    }
    bias_filler {
      type: "constant"
    }
  }
}
layer {
  name: "relu1"
  type: "ReLU"
  bottom: "conv1"
  top: "conv1"
}
layer {
  name: "pool1"
  type: "Pooling"
  bottom: "conv1"
  top: "pool1"
  pooling_param {
    pool: MAX
    kernel_size: 2
    stride: 2
  }
}
layer {
  name: "conv2"
  type: "Convolution"
  bottom: "pool1"
  top: "conv2"
  param {
    lr_mult: 1
  }
  param {
    lr_mult: 2
  }
  convolution_param {
    num_output: 32
    pad: 2
    kernel_size: 5
    stride: 1
    weight_filler {
      type: "xavier"
    }
    bias_filler {
      type: "constant"
    }
  }
}
layer {
  name: "relu2"
  type: "ReLU"
  bottom: "conv2"
  top: "conv2"
}
layer {
  name: "pool2"
  type: "Pooling"
  bottom: "conv2"
  top: "pool2"
  pooling_param {
    pool: MAX
    kernel_size: 2
    stride: 2
  }
}
layer {
  name: "ip1"
  type: "InnerProduct"
  bottom: "pool2"
  top: "ip1"
  param {
    lr_mult: 1
  }
  param {
    lr_mult: 2
  }
  inner_product_param {
    num_output: 120
    weight_filler {
      type: "xavier"
    }
    bias_filler {
      type: "constant"
    }
  }
}
layer {
  name: "relu3"
  type: "ReLU"
  bottom: "ip1"
  top: "ip1"
}
layer {
  name: "ip2"
  type: "InnerProduct"
  bottom: "ip1"
  top: "ip2"
  param {
    lr_mult: 1
  }
  param {
    lr_mult: 2
  }
  inner_product_param {
    num_output: 50
    weight_filler {
      type: "xavier"
    }
    bias_filler {
      type: "constant"
    }
  }
}
layer {
  name: "relu4"
  type: "ReLU"
  bottom: "ip2"
  top: "ip2"
}
layer {
  name: "ip3"
  type: "InnerProduct"
  bottom: "ip2"
  top: "ip3"
  param {
    lr_mult: 1
  }
  param {
    lr_mult: 2
  }
  inner_product_param {
    num_output: 10
    weight_filler {
      type: "xavier"
    }
    bias_filler {
      type: "constant"
    }
  }
}
layer {
  name: "prob"
  type: "Softmax"
  bottom: "ip3"
  top: "prob"
}
I0414 06:45:05.949501  9338 layer_factory.hpp:77] Creating layer data
I0414 06:45:05.949510  9338 net.cpp:84] Creating Layer data
I0414 06:45:05.949514  9338 net.cpp:380] data -> data
I0414 06:45:05.949530  9338 net.cpp:122] Setting up data
I0414 06:45:05.949537  9338 net.cpp:129] Top shape: 1 1 28 28 (784)
I0414 06:45:05.949542  9338 net.cpp:137] Memory required for data: 3136
I0414 06:45:05.949545  9338 layer_factory.hpp:77] Creating layer conv1
I0414 06:45:05.949558  9338 net.cpp:84] Creating Layer conv1
I0414 06:45:05.949563  9338 net.cpp:406] conv1 <- data
I0414 06:45:05.949570  9338 net.cpp:380] conv1 -> conv1
I0414 06:45:06.378535  9338 net.cpp:122] Setting up conv1
I0414 06:45:06.378557  9338 net.cpp:129] Top shape: 1 16 28 28 (12544)
I0414 06:45:06.378561  9338 net.cpp:137] Memory required for data: 53312
I0414 06:45:06.378576  9338 layer_factory.hpp:77] Creating layer relu1
I0414 06:45:06.378587  9338 net.cpp:84] Creating Layer relu1
I0414 06:45:06.378590  9338 net.cpp:406] relu1 <- conv1
I0414 06:45:06.378594  9338 net.cpp:367] relu1 -> conv1 (in-place)
I0414 06:45:06.378736  9338 net.cpp:122] Setting up relu1
I0414 06:45:06.378746  9338 net.cpp:129] Top shape: 1 16 28 28 (12544)
I0414 06:45:06.378751  9338 net.cpp:137] Memory required for data: 103488
I0414 06:45:06.378756  9338 layer_factory.hpp:77] Creating layer pool1
I0414 06:45:06.378763  9338 net.cpp:84] Creating Layer pool1
I0414 06:45:06.378767  9338 net.cpp:406] pool1 <- conv1
I0414 06:45:06.378773  9338 net.cpp:380] pool1 -> pool1
I0414 06:45:06.378788  9338 net.cpp:122] Setting up pool1
I0414 06:45:06.378794  9338 net.cpp:129] Top shape: 1 16 14 14 (3136)
I0414 06:45:06.378798  9338 net.cpp:137] Memory required for data: 116032
I0414 06:45:06.378799  9338 layer_factory.hpp:77] Creating layer conv2
I0414 06:45:06.378810  9338 net.cpp:84] Creating Layer conv2
I0414 06:45:06.378813  9338 net.cpp:406] conv2 <- pool1
I0414 06:45:06.378818  9338 net.cpp:380] conv2 -> conv2
I0414 06:45:06.379884  9338 net.cpp:122] Setting up conv2
I0414 06:45:06.379907  9338 net.cpp:129] Top shape: 1 32 14 14 (6272)
I0414 06:45:06.379914  9338 net.cpp:137] Memory required for data: 141120
I0414 06:45:06.379928  9338 layer_factory.hpp:77] Creating layer relu2
I0414 06:45:06.379936  9338 net.cpp:84] Creating Layer relu2
I0414 06:45:06.379941  9338 net.cpp:406] relu2 <- conv2
I0414 06:45:06.379945  9338 net.cpp:367] relu2 -> conv2 (in-place)
I0414 06:45:06.380093  9338 net.cpp:122] Setting up relu2
I0414 06:45:06.380101  9338 net.cpp:129] Top shape: 1 32 14 14 (6272)
I0414 06:45:06.380105  9338 net.cpp:137] Memory required for data: 166208
I0414 06:45:06.380107  9338 layer_factory.hpp:77] Creating layer pool2
I0414 06:45:06.380112  9338 net.cpp:84] Creating Layer pool2
I0414 06:45:06.380115  9338 net.cpp:406] pool2 <- conv2
I0414 06:45:06.380120  9338 net.cpp:380] pool2 -> pool2
I0414 06:45:06.380127  9338 net.cpp:122] Setting up pool2
I0414 06:45:06.380132  9338 net.cpp:129] Top shape: 1 32 7 7 (1568)
I0414 06:45:06.380136  9338 net.cpp:137] Memory required for data: 172480
I0414 06:45:06.380138  9338 layer_factory.hpp:77] Creating layer ip1
I0414 06:45:06.380146  9338 net.cpp:84] Creating Layer ip1
I0414 06:45:06.380148  9338 net.cpp:406] ip1 <- pool2
I0414 06:45:06.380152  9338 net.cpp:380] ip1 -> ip1
I0414 06:45:06.381165  9338 net.cpp:122] Setting up ip1
I0414 06:45:06.381173  9338 net.cpp:129] Top shape: 1 120 (120)
I0414 06:45:06.381176  9338 net.cpp:137] Memory required for data: 172960
I0414 06:45:06.381184  9338 layer_factory.hpp:77] Creating layer relu3
I0414 06:45:06.381189  9338 net.cpp:84] Creating Layer relu3
I0414 06:45:06.381192  9338 net.cpp:406] relu3 <- ip1
I0414 06:45:06.381196  9338 net.cpp:367] relu3 -> ip1 (in-place)
I0414 06:45:06.381589  9338 net.cpp:122] Setting up relu3
I0414 06:45:06.381600  9338 net.cpp:129] Top shape: 1 120 (120)
I0414 06:45:06.381603  9338 net.cpp:137] Memory required for data: 173440
I0414 06:45:06.381606  9338 layer_factory.hpp:77] Creating layer ip2
I0414 06:45:06.381613  9338 net.cpp:84] Creating Layer ip2
I0414 06:45:06.381615  9338 net.cpp:406] ip2 <- ip1
I0414 06:45:06.381621  9338 net.cpp:380] ip2 -> ip2
I0414 06:45:06.381666  9338 net.cpp:122] Setting up ip2
I0414 06:45:06.381672  9338 net.cpp:129] Top shape: 1 50 (50)
I0414 06:45:06.381675  9338 net.cpp:137] Memory required for data: 173640
I0414 06:45:06.381680  9338 layer_factory.hpp:77] Creating layer relu4
I0414 06:45:06.381685  9338 net.cpp:84] Creating Layer relu4
I0414 06:45:06.381686  9338 net.cpp:406] relu4 <- ip2
I0414 06:45:06.381690  9338 net.cpp:367] relu4 -> ip2 (in-place)
I0414 06:45:06.381837  9338 net.cpp:122] Setting up relu4
I0414 06:45:06.381846  9338 net.cpp:129] Top shape: 1 50 (50)
I0414 06:45:06.381850  9338 net.cpp:137] Memory required for data: 173840
I0414 06:45:06.381853  9338 layer_factory.hpp:77] Creating layer ip3
I0414 06:45:06.381857  9338 net.cpp:84] Creating Layer ip3
I0414 06:45:06.381860  9338 net.cpp:406] ip3 <- ip2
I0414 06:45:06.381865  9338 net.cpp:380] ip3 -> ip3
I0414 06:45:06.381880  9338 net.cpp:122] Setting up ip3
I0414 06:45:06.381884  9338 net.cpp:129] Top shape: 1 10 (10)
I0414 06:45:06.381887  9338 net.cpp:137] Memory required for data: 173880
I0414 06:45:06.381896  9338 layer_factory.hpp:77] Creating layer prob
I0414 06:45:06.381901  9338 net.cpp:84] Creating Layer prob
I0414 06:45:06.381903  9338 net.cpp:406] prob <- ip3
I0414 06:45:06.381907  9338 net.cpp:380] prob -> prob
I0414 06:45:06.382052  9338 net.cpp:122] Setting up prob
I0414 06:45:06.382059  9338 net.cpp:129] Top shape: 1 10 (10)
I0414 06:45:06.382062  9338 net.cpp:137] Memory required for data: 173920
I0414 06:45:06.382066  9338 net.cpp:200] prob does not need backward computation.
I0414 06:45:06.382068  9338 net.cpp:200] ip3 does not need backward computation.
I0414 06:45:06.382071  9338 net.cpp:200] relu4 does not need backward computation.
I0414 06:45:06.382073  9338 net.cpp:200] ip2 does not need backward computation.
…
