…
I0414 06:43:44.444212  8864 net.cpp:294] The NetState phase (0) differed from the phase (1) specified by a rule in layer accuracy
I0414 06:43:44.444281  8864 net.cpp:51] Initializing net from parameters: 
name: "Model"
state {
  phase: TRAIN
  level: 0
  stage: ""
}
layer {
  name: "CNN"
  type: "Data"
  top: "data"
  top: "label"
  include {
    phase: TRAIN
  }
  transform_param {
    scale: 0.00390625
    mean_file: "input/dataset-01/mean_image.binaryproto"
  }
  data_param {
    source: "input/dataset-01/train_lmdb"
    batch_size: 128
    backend: LMDB
  }
}
layer {
  name: "conv1"
  type: "Convolution"
  bottom: "data"
  top: "conv1"
  param {
    lr_mult: 1
  }
  param {
    lr_mult: 2
  }
  convolution_param {
    num_output: 16
    pad: 3
    kernel_size: 7
    stride: 1
    weight_filler {
      type: "xavier"
    }
    bias_filler {
      type: "constant"
    }
  }
}
layer {
  name: "relu1"
  type: "ReLU"
  bottom: "conv1"
  top: "conv1"
}
layer {
  name: "pool1"
  type: "Pooling"
  bottom: "conv1"
  top: "pool1"
  pooling_param {
    pool: MAX
    kernel_size: 2
    stride: 2
  }
}
layer {
  name: "conv2"
  type: "Convolution"
  bottom: "pool1"
  top: "conv2"
  param {
    lr_mult: 1
  }
  param {
    lr_mult: 2
  }
  convolution_param {
    num_output: 32
    pad: 2
    kernel_size: 5
    stride: 1
    weight_filler {
      type: "xavier"
    }
    bias_filler {
      type: "constant"
    }
  }
}
layer {
  name: "relu2"
  type: "ReLU"
  bottom: "conv2"
  top: "conv2"
}
layer {
  name: "pool2"
  type: "Pooling"
  bottom: "conv2"
  top: "pool2"
  pooling_param {
    pool: MAX
    kernel_size: 2
    stride: 2
  }
}
layer {
  name: "ip1"
  type: "InnerProduct"
  bottom: "pool2"
  top: "ip1"
  param {
    lr_mult: 1
  }
  param {
    lr_mult: 2
  }
  inner_product_param {
    num_output: 120
    weight_filler {
      type: "xavier"
    }
    bias_filler {
      type: "constant"
    }
  }
}
layer {
  name: "relu3"
  type: "ReLU"
  bottom: "ip1"
  top: "ip1"
}
layer {
  name: "ip2"
  type: "InnerProduct"
  bottom: "ip1"
  top: "ip2"
  param {
    lr_mult: 1
  }
  param {
    lr_mult: 2
  }
  inner_product_param {
    num_output: 50
    weight_filler {
      type: "xavier"
    }
    bias_filler {
      type: "constant"
    }
  }
}
layer {
  name: "relu4"
  type: "ReLU"
  bottom: "ip2"
  top: "ip2"
}
layer {
  name: "ip3"
  type: "InnerProduct"
  bottom: "ip2"
  top: "ip3"
  param {
    lr_mult: 1
  }
  param {
    lr_mult: 2
  }
  inner_product_param {
    num_output: 10
    weight_filler {
      type: "xavier"
    }
    bias_filler {
      type: "constant"
    }
  }
}
layer {
  name: "loss"
  type: "SoftmaxWithLoss"
  bottom: "ip3"
  bottom: "label"
  top: "loss"
}
I0414 06:43:44.444334  8864 layer_factory.hpp:77] Creating layer CNN
I0414 06:43:44.444420  8864 db_lmdb.cpp:35] Opened lmdb input/dataset-01/train_lmdb
I0414 06:43:44.444444  8864 net.cpp:84] Creating Layer CNN
I0414 06:43:44.444452  8864 net.cpp:380] CNN -> data
I0414 06:43:44.444468  8864 net.cpp:380] CNN -> label
I0414 06:43:44.444478  8864 data_transformer.cpp:25] Loading mean file from: input/dataset-01/mean_image.binaryproto
I0414 06:43:44.445760  8864 data_layer.cpp:45] output data size: 128,1,28,28
I0414 06:43:44.446923  8864 net.cpp:122] Setting up CNN
I0414 06:43:44.446939  8864 net.cpp:129] Top shape: 128 1 28 28 (100352)
I0414 06:43:44.446943  8864 net.cpp:129] Top shape: 128 (128)
I0414 06:43:44.446967  8864 net.cpp:137] Memory required for data: 401920
I0414 06:43:44.446977  8864 layer_factory.hpp:77] Creating layer conv1
I0414 06:43:44.446995  8864 net.cpp:84] Creating Layer conv1
I0414 06:43:44.447000  8864 net.cpp:406] conv1 <- data
I0414 06:43:44.447010  8864 net.cpp:380] conv1 -> conv1
I0414 06:43:44.852466  8864 net.cpp:122] Setting up conv1
I0414 06:43:44.852494  8864 net.cpp:129] Top shape: 128 16 28 28 (1605632)
I0414 06:43:44.852499  8864 net.cpp:137] Memory required for data: 6824448
I0414 06:43:44.852515  8864 layer_factory.hpp:77] Creating layer relu1
I0414 06:43:44.852526  8864 net.cpp:84] Creating Layer relu1
I0414 06:43:44.852530  8864 net.cpp:406] relu1 <- conv1
I0414 06:43:44.852535  8864 net.cpp:367] relu1 -> conv1 (in-place)
I0414 06:43:44.852676  8864 net.cpp:122] Setting up relu1
I0414 06:43:44.852684  8864 net.cpp:129] Top shape: 128 16 28 28 (1605632)
I0414 06:43:44.852686  8864 net.cpp:137] Memory required for data: 13246976
I0414 06:43:44.852689  8864 layer_factory.hpp:77] Creating layer pool1
I0414 06:43:44.852694  8864 net.cpp:84] Creating Layer pool1
I0414 06:43:44.852697  8864 net.cpp:406] pool1 <- conv1
I0414 06:43:44.852701  8864 net.cpp:380] pool1 -> pool1
I0414 06:43:44.852743  8864 net.cpp:122] Setting up pool1
I0414 06:43:44.852749  8864 net.cpp:129] Top shape: 128 16 14 14 (401408)
I0414 06:43:44.852751  8864 net.cpp:137] Memory required for data: 14852608
I0414 06:43:44.852754  8864 layer_factory.hpp:77] Creating layer conv2
I0414 06:43:44.852762  8864 net.cpp:84] Creating Layer conv2
I0414 06:43:44.852766  8864 net.cpp:406] conv2 <- pool1
I0414 06:43:44.852771  8864 net.cpp:380] conv2 -> conv2
I0414 06:43:44.854291  8864 net.cpp:122] Setting up conv2
I0414 06:43:44.854303  8864 net.cpp:129] Top shape: 128 32 14 14 (802816)
I0414 06:43:44.854306  8864 net.cpp:137] Memory required for data: 18063872
I0414 06:43:44.854315  8864 layer_factory.hpp:77] Creating layer relu2
I0414 06:43:44.854321  8864 net.cpp:84] Creating Layer relu2
I0414 06:43:44.854323  8864 net.cpp:406] relu2 <- conv2
I0414 06:43:44.854327  8864 net.cpp:367] relu2 -> conv2 (in-place)
I0414 06:43:44.854462  8864 net.cpp:122] Setting up relu2
I0414 06:43:44.854468  8864 net.cpp:129] Top shape: 128 32 14 14 (802816)
I0414 06:43:44.854471  8864 net.cpp:137] Memory required for data: 21275136
I0414 06:43:44.854475  8864 layer_factory.hpp:77] Creating layer pool2
I0414 06:43:44.854478  8864 net.cpp:84] Creating Layer pool2
I0414 06:43:44.854480  8864 net.cpp:406] pool2 <- conv2
I0414 06:43:44.854485  8864 net.cpp:380] pool2 -> pool2
I0414 06:43:44.854518  8864 net.cpp:122] Setting up pool2
I0414 06:43:44.854524  8864 net.cpp:129] Top shape: 128 32 7 7 (200704)
I0414 06:43:44.854526  8864 net.cpp:137] Memory required for data: 22077952
I0414 06:43:44.854529  8864 layer_factory.hpp:77] Creating layer ip1
I0414 06:43:44.854534  8864 net.cpp:84] Creating Layer ip1
I0414 06:43:44.854537  8864 net.cpp:406] ip1 <- pool2
I0414 06:43:44.854540  8864 net.cpp:380] ip1 -> ip1
I0414 06:43:44.855981  8864 net.cpp:122] Setting up ip1
I0414 06:43:44.855991  8864 net.cpp:129] Top shape: 128 120 (15360)
I0414 06:43:44.855994  8864 net.cpp:137] Memory required for data: 22139392
I0414 06:43:44.856001  8864 layer_factory.hpp:77] Creating layer relu3
I0414 06:43:44.856009  8864 net.cpp:84] Creating Layer relu3
I0414 06:43:44.856011  8864 net.cpp:406] relu3 <- ip1
I0414 06:43:44.856014  8864 net.cpp:367] relu3 -> ip1 (in-place)
I0414 06:43:44.856294  8864 net.cpp:122] Setting up relu3
I0414 06:43:44.856303  8864 net.cpp:129] Top shape: 128 120 (15360)
I0414 06:43:44.856307  8864 net.cpp:137] Memory required for data: 22200832
I0414 06:43:44.856309  8864 layer_factory.hpp:77] Creating layer ip2
I0414 06:43:44.856314  8864 net.cpp:84] Creating Layer ip2
I0414 06:43:44.856318  8864 net.cpp:406] ip2 <- ip1
I0414 06:43:44.856323  8864 net.cpp:380] ip2 -> ip2
I0414 06:43:44.856429  8864 net.cpp:122] Setting up ip2
I0414 06:43:44.856434  8864 net.cpp:129] Top shape: 128 50 (6400)
I0414 06:43:44.856456  8864 net.cpp:137] Memory required for data: 22226432
I0414 06:43:44.856462  8864 layer_factory.hpp:77] Creating layer relu4
I0414 06:43:44.856465  8864 net.cpp:84] Creating Layer relu4
I0414 06:43:44.856467  8864 net.cpp:406] relu4 <- ip2
I0414 06:43:44.856472  8864 net.cpp:367] relu4 -> ip2 (in-place)
I0414 06:43:44.856613  8864 net.cpp:122] Setting up relu4
I0414 06:43:44.856621  8864 net.cpp:129] Top shape: 128 50 (6400)
I0414 06:43:44.856623  8864 net.cpp:137] Memory required for data: 22252032
I0414 06:43:44.856627  8864 layer_factory.hpp:77] Creating layer ip3
I0414 06:43:44.856633  8864 net.cpp:84] Creating Layer ip3
I0414 06:43:44.856638  8864 net.cpp:406] ip3 <- ip2
I0414 06:43:44.856645  8864 net.cpp:380] ip3 -> ip3
I0414 06:43:44.856732  8864 net.cpp:122] Setting up ip3
I0414 06:43:44.856739  8864 net.cpp:129] Top shape: 128 10 (1280)
I0414 06:43:44.856741  8864 net.cpp:137] Memory required for data: 22257152
I0414 06:43:44.856750  8864 layer_factory.hpp:77] Creating layer loss
I0414 06:43:44.856756  8864 net.cpp:84] Creating Layer loss
I0414 06:43:44.856760  8864 net.cpp:406] loss <- ip3
I0414 06:43:44.856762  8864 net.cpp:406] loss <- label
I0414 06:43:44.856766  8864 net.cpp:380] loss -> loss
I0414 06:43:44.856778  8864 layer_factory.hpp:77] Creating layer loss
…
I0414 06:43:44.857792  8864 solver.cpp:190] Creating test net (#0) specified by net file: models/model-02/model_train_val.prototxt
I0414 06:43:44.857815  8864 net.cpp:294] The NetState phase (1) differed from the phase (0) specified by a rule in layer CNN
I0414 06:43:44.857889  8864 net.cpp:51] Initializing net from parameters: 
name: "Model"
state {
  phase: TEST
}
layer {
  name: "CNN"
  type: "Data"
  top: "data"
  top: "label"
  include {
    phase: TEST
  }
  transform_param {
    scale: 0.00390625
    mean_file: "input/dataset-01/mean_image.binaryproto"
  }
  data_param {
    source: "input/dataset-01/test_lmdb"
    batch_size: 220
    backend: LMDB
  }
}
layer {
  name: "conv1"
  type: "Convolution"
  bottom: "data"
  top: "conv1"
  param {
    lr_mult: 1
  }
  param {
    lr_mult: 2
  }
  convolution_param {
    num_output: 16
    pad: 3
    kernel_size: 7
    stride: 1
    weight_filler {
      type: "xavier"
    }
    bias_filler {
      type: "constant"
    }
  }
}
layer {
  name: "relu1"
  type: "ReLU"
  bottom: "conv1"
  top: "conv1"
}
layer {
  name: "pool1"
  type: "Pooling"
  bottom: "conv1"
  top: "pool1"
  pooling_param {
    pool: MAX
    kernel_size: 2
    stride: 2
  }
}
layer {
  name: "conv2"
  type: "Convolution"
  bottom: "pool1"
  top: "conv2"
  param {
    lr_mult: 1
  }
  param {
    lr_mult: 2
  }
  convolution_param {
    num_output: 32
    pad: 2
    kernel_size: 5
    stride: 1
    weight_filler {
      type: "xavier"
    }
    bias_filler {
      type: "constant"
    }
  }
}
layer {
  name: "relu2"
  type: "ReLU"
  bottom: "conv2"
  top: "conv2"
}
layer {
  name: "pool2"
  type: "Pooling"
  bottom: "conv2"
  top: "pool2"
  pooling_param {
    pool: MAX
    kernel_size: 2
    stride: 2
  }
}
layer {
  name: "ip1"
  type: "InnerProduct"
  bottom: "pool2"
  top: "ip1"
  param {
    lr_mult: 1
  }
  param {
    lr_mult: 2
  }
  inner_product_param {
    num_output: 120
    weight_filler {
      type: "xavier"
    }
    bias_filler {
      type: "constant"
    }
  }
}
layer {
  name: "relu3"
  type: "ReLU"
  bottom: "ip1"
  top: "ip1"
}
layer {
  name: "ip2"
  type: "InnerProduct"
  bottom: "ip1"
  top: "ip2"
  param {
    lr_mult: 1
  }
  param {
    lr_mult: 2
  }
  inner_product_param {
    num_output: 50
    weight_filler {
      type: "xavier"
    }
    bias_filler {
      type: "constant"
    }
  }
}
layer {
  name: "relu4"
  type: "ReLU"
  bottom: "ip2"
  top: "ip2"
}
layer {
  name: "ip3"
  type: "InnerProduct"
  bottom: "ip2"
  top: "ip3"
  param {
    lr_mult: 1
  }
  param {
    lr_mult: 2
  }
  inner_product_param {
    num_output: 10
    weight_filler {
      type: "xavier"
    }
    bias_filler {
      type: "constant"
    }
  }
}
layer {
  name: "accuracy"
  type: "Accuracy"
  bottom: "ip3"
  bottom: "label"
  top: "accuracy"
  include {
    phase: TEST
  }
}
layer {
  name: "loss"
  type: "SoftmaxWithLoss"
  bottom: "ip3"
  bottom: "label"
  top: "loss"
}
I0414 06:43:44.857969  8864 layer_factory.hpp:77] Creating layer CNN
I0414 06:43:44.858022  8864 db_lmdb.cpp:35] Opened lmdb input/dataset-01/test_lmdb
I0414 06:43:44.858036  8864 net.cpp:84] Creating Layer CNN
I0414 06:43:44.858042  8864 net.cpp:380] CNN -> data
I0414 06:43:44.858052  8864 net.cpp:380] CNN -> label
I0414 06:43:44.858060  8864 data_transformer.cpp:25] Loading mean file from: input/dataset-01/mean_image.binaryproto
I0414 06:43:44.858175  8864 data_layer.cpp:45] output data size: 220,1,28,28
I0414 06:43:44.859591  8864 net.cpp:122] Setting up CNN
I0414 06:43:44.859606  8864 net.cpp:129] Top shape: 220 1 28 28 (172480)
I0414 06:43:44.859611  8864 net.cpp:129] Top shape: 220 (220)
I0414 06:43:44.859614  8864 net.cpp:137] Memory required for data: 690800
I0414 06:43:44.859619  8864 layer_factory.hpp:77] Creating layer label_CNN_1_split
I0414 06:43:44.859627  8864 net.cpp:84] Creating Layer label_CNN_1_split
I0414 06:43:44.859632  8864 net.cpp:406] label_CNN_1_split <- label
I0414 06:43:44.859635  8864 net.cpp:380] label_CNN_1_split -> label_CNN_1_split_0
I0414 06:43:44.859642  8864 net.cpp:380] label_CNN_1_split -> label_CNN_1_split_1
I0414 06:43:44.859731  8864 net.cpp:122] Setting up label_CNN_1_split
I0414 06:43:44.859737  8864 net.cpp:129] Top shape: 220 (220)
I0414 06:43:44.859741  8864 net.cpp:129] Top shape: 220 (220)
I0414 06:43:44.859743  8864 net.cpp:137] Memory required for data: 692560
I0414 06:43:44.859745  8864 layer_factory.hpp:77] Creating layer conv1
I0414 06:43:44.859753  8864 net.cpp:84] Creating Layer conv1
I0414 06:43:44.859757  8864 net.cpp:406] conv1 <- data
I0414 06:43:44.859761  8864 net.cpp:380] conv1 -> conv1
I0414 06:43:44.860846  8864 net.cpp:122] Setting up conv1
I0414 06:43:44.860867  8864 net.cpp:129] Top shape: 220 16 28 28 (2759680)
I0414 06:43:44.860872  8864 net.cpp:137] Memory required for data: 11731280
I0414 06:43:44.860885  8864 layer_factory.hpp:77] Creating layer relu1
I0414 06:43:44.860898  8864 net.cpp:84] Creating Layer relu1
I0414 06:43:44.860904  8864 net.cpp:406] relu1 <- conv1
I0414 06:43:44.860910  8864 net.cpp:367] relu1 -> conv1 (in-place)
I0414 06:43:44.861359  8864 net.cpp:122] Setting up relu1
I0414 06:43:44.861374  8864 net.cpp:129] Top shape: 220 16 28 28 (2759680)
I0414 06:43:44.861378  8864 net.cpp:137] Memory required for data: 22770000
I0414 06:43:44.861383  8864 layer_factory.hpp:77] Creating layer pool1
I0414 06:43:44.861394  8864 net.cpp:84] Creating Layer pool1
I0414 06:43:44.861400  8864 net.cpp:406] pool1 <- conv1
I0414 06:43:44.861407  8864 net.cpp:380] pool1 -> pool1
I0414 06:43:44.861523  8864 net.cpp:122] Setting up pool1
I0414 06:43:44.861534  8864 net.cpp:129] Top shape: 220 16 14 14 (689920)
I0414 06:43:44.861542  8864 net.cpp:137] Memory required for data: 25529680
I0414 06:43:44.861551  8864 layer_factory.hpp:77] Creating layer conv2
I0414 06:43:44.861564  8864 net.cpp:84] Creating Layer conv2
I0414 06:43:44.861570  8864 net.cpp:406] conv2 <- pool1
I0414 06:43:44.861577  8864 net.cpp:380] conv2 -> conv2
I0414 06:43:44.863157  8864 net.cpp:122] Setting up conv2
I0414 06:43:44.863173  8864 net.cpp:129] Top shape: 220 32 14 14 (1379840)
I0414 06:43:44.863181  8864 net.cpp:137] Memory required for data: 31049040
I0414 06:43:44.863191  8864 layer_factory.hpp:77] Creating layer relu2
I0414 06:43:44.863200  8864 net.cpp:84] Creating Layer relu2
I0414 06:43:44.863205  8864 net.cpp:406] relu2 <- conv2
I0414 06:43:44.863210  8864 net.cpp:367] relu2 -> conv2 (in-place)
I0414 06:43:44.863415  8864 net.cpp:122] Setting up relu2
I0414 06:43:44.863428  8864 net.cpp:129] Top shape: 220 32 14 14 (1379840)
I0414 06:43:44.863435  8864 net.cpp:137] Memory required for data: 36568400
I0414 06:43:44.863443  8864 layer_factory.hpp:77] Creating layer pool2
I0414 06:43:44.863454  8864 net.cpp:84] Creating Layer pool2
I0414 06:43:44.863461  8864 net.cpp:406] pool2 <- conv2
I0414 06:43:44.863467  8864 net.cpp:380] pool2 -> pool2
I0414 06:43:44.863521  8864 net.cpp:122] Setting up pool2
I0414 06:43:44.863533  8864 net.cpp:129] Top shape: 220 32 7 7 (344960)
I0414 06:43:44.863538  8864 net.cpp:137] Memory required for data: 37948240
I0414 06:43:44.863544  8864 layer_factory.hpp:77] Creating layer ip1
I0414 06:43:44.863554  8864 net.cpp:84] Creating Layer ip1
I0414 06:43:44.863561  8864 net.cpp:406] ip1 <- pool2
I0414 06:43:44.863569  8864 net.cpp:380] ip1 -> ip1
I0414 06:43:44.865958  8864 net.cpp:122] Setting up ip1
I0414 06:43:44.865993  8864 net.cpp:129] Top shape: 220 120 (26400)
I0414 06:43:44.865996  8864 net.cpp:137] Memory required for data: 38053840
I0414 06:43:44.866016  8864 layer_factory.hpp:77] Creating layer relu3
I0414 06:43:44.866029  8864 net.cpp:84] Creating Layer relu3
I0414 06:43:44.866034  8864 net.cpp:406] relu3 <- ip1
I0414 06:43:44.866041  8864 net.cpp:367] relu3 -> ip1 (in-place)
I0414 06:43:44.866307  8864 net.cpp:122] Setting up relu3
I0414 06:43:44.866319  8864 net.cpp:129] Top shape: 220 120 (26400)
I0414 06:43:44.866323  8864 net.cpp:137] Memory required for data: 38159440
I0414 06:43:44.866328  8864 layer_factory.hpp:77] Creating layer ip2
I0414 06:43:44.866339  8864 net.cpp:84] Creating Layer ip2
I0414 06:43:44.866346  8864 net.cpp:406] ip2 <- ip1
I0414 06:43:44.866354  8864 net.cpp:380] ip2 -> ip2
I0414 06:43:44.866581  8864 net.cpp:122] Setting up ip2
I0414 06:43:44.866591  8864 net.cpp:129] Top shape: 220 50 (11000)
I0414 06:43:44.866596  8864 net.cpp:137] Memory required for data: 38203440
I0414 06:43:44.866605  8864 layer_factory.hpp:77] Creating layer relu4
I0414 06:43:44.866612  8864 net.cpp:84] Creating Layer relu4
I0414 06:43:44.866619  8864 net.cpp:406] relu4 <- ip2
I0414 06:43:44.866626  8864 net.cpp:367] relu4 -> ip2 (in-place)
I0414 06:43:44.866901  8864 net.cpp:122] Setting up relu4
I0414 06:43:44.866916  8864 net.cpp:129] Top shape: 220 50 (11000)
I0414 06:43:44.866921  8864 net.cpp:137] Memory required for data: 38247440
I0414 06:43:44.866927  8864 layer_factory.hpp:77] Creating layer ip3
I0414 06:43:44.866938  8864 net.cpp:84] Creating Layer ip3
I0414 06:43:44.866945  8864 net.cpp:406] ip3 <- ip2
I0414 06:43:44.866952  8864 net.cpp:380] ip3 -> ip3
I0414 06:43:44.867156  8864 net.cpp:122] Setting up ip3
I0414 06:43:44.867166  8864 net.cpp:129] Top shape: 220 10 (2200)
I0414 06:43:44.867172  8864 net.cpp:137] Memory required for data: 38256240
I0414 06:43:44.867185  8864 layer_factory.hpp:77] Creating layer ip3_ip3_0_split
I0414 06:43:44.867194  8864 net.cpp:84] Creating Layer ip3_ip3_0_split
I0414 06:43:44.867202  8864 net.cpp:406] ip3_ip3_0_split <- ip3
I0414 06:43:44.867208  8864 net.cpp:380] ip3_ip3_0_split -> ip3_ip3_0_split_0
I0414 06:43:44.867242  8864 net.cpp:380] ip3_ip3_0_split -> ip3_ip3_0_split_1
I0414 06:43:44.867297  8864 net.cpp:122] Setting up ip3_ip3_0_split
I0414 06:43:44.867307  8864 net.cpp:129] Top shape: 220 10 (2200)
I0414 06:43:44.867314  8864 net.cpp:129] Top shape: 220 10 (2200)
I0414 06:43:44.867317  8864 net.cpp:137] Memory required for data: 38273840
I0414 06:43:44.867321  8864 layer_factory.hpp:77] Creating layer accuracy
I0414 06:43:44.867326  8864 net.cpp:84] Creating Layer accuracy
I0414 06:43:44.867332  8864 net.cpp:406] accuracy <- ip3_ip3_0_split_0
I0414 06:43:44.867337  8864 net.cpp:406] accuracy <- label_CNN_1_split_0
I0414 06:43:44.867344  8864 net.cpp:380] accuracy -> accuracy
…
