…
I0414 06:46:26.096618  9612 net.cpp:294] The NetState phase (0) differed from the phase (1) specified by a rule in layer accuracy
I0414 06:46:26.096698  9612 net.cpp:51] Initializing net from parameters: 
name: "Model"
state {
  phase: TRAIN
  level: 0
  stage: ""
}
layer {
  name: "CNN"
  type: "Data"
  top: "data"
  top: "label"
  include {
    phase: TRAIN
  }
  transform_param {
    scale: 0.00390625
    mean_file: "input/dataset-01/mean_image.binaryproto"
  }
  data_param {
    source: "input/dataset-01/train_lmdb"
    batch_size: 128
    backend: LMDB
  }
}
layer {
  name: "conv1"
  type: "Convolution"
  bottom: "data"
  top: "conv1"
  param {
    lr_mult: 1
  }
  param {
    lr_mult: 2
  }
  convolution_param {
    num_output: 16
    pad: 3
    kernel_size: 7
    stride: 1
    weight_filler {
      type: "xavier"
    }
    bias_filler {
      type: "constant"
    }
  }
}
layer {
  name: "relu1"
  type: "ReLU"
  bottom: "conv1"
  top: "conv1"
}
layer {
  name: "pool1"
  type: "Pooling"
  bottom: "conv1"
  top: "pool1"
  pooling_param {
    pool: MAX
    kernel_size: 2
    stride: 2
  }
}
layer {
  name: "conv2"
  type: "Convolution"
  bottom: "pool1"
  top: "conv2"
  param {
    lr_mult: 1
  }
  param {
    lr_mult: 2
  }
  convolution_param {
    num_output: 32
    pad: 2
    kernel_size: 5
    stride: 1
    weight_filler {
      type: "xavier"
    }
    bias_filler {
      type: "constant"
    }
  }
}
layer {
  name: "relu2"
  type: "ReLU"
  bottom: "conv2"
  top: "conv2"
}
layer {
  name: "pool2"
  type: "Pooling"
  bottom: "conv2"
  top: "pool2"
  pooling_param {
    pool: MAX
    kernel_size: 2
    stride: 2
  }
}
layer {
  name: "ip1"
  type: "InnerProduct"
  bottom: "pool2"
  top: "ip1"
  param {
    lr_mult: 1
  }
  param {
    lr_mult: 2
  }
  inner_product_param {
    num_output: 120
    weight_filler {
      type: "xavier"
    }
    bias_filler {
      type: "constant"
    }
  }
}
layer {
  name: "relu3"
  type: "ReLU"
  bottom: "ip1"
  top: "ip1"
}
layer {
  name: "ip2"
  type: "InnerProduct"
  bottom: "ip1"
  top: "ip2"
  param {
    lr_mult: 1
  }
  param {
    lr_mult: 2
  }
  inner_product_param {
    num_output: 50
    weight_filler {
      type: "xavier"
    }
    bias_filler {
      type: "constant"
    }
  }
}
layer {
  name: "relu4"
  type: "ReLU"
  bottom: "ip2"
  top: "ip2"
}
layer {
  name: "ip3"
  type: "InnerProduct"
  bottom: "ip2"
  top: "ip3"
  param {
    lr_mult: 1
  }
  param {
    lr_mult: 2
  }
  inner_product_param {
    num_output: 10
    weight_filler {
      type: "xavier"
    }
    bias_filler {
      type: "constant"
    }
  }
}
layer {
  name: "loss"
  type: "SoftmaxWithLoss"
  bottom: "ip3"
  bottom: "label"
  top: "loss"
}
I0414 06:46:26.096755  9612 layer_factory.hpp:77] Creating layer CNN
I0414 06:46:26.096860  9612 db_lmdb.cpp:35] Opened lmdb input/dataset-01/train_lmdb
I0414 06:46:26.096894  9612 net.cpp:84] Creating Layer CNN
I0414 06:46:26.096904  9612 net.cpp:380] CNN -> data
I0414 06:46:26.096925  9612 net.cpp:380] CNN -> label
I0414 06:46:26.096940  9612 data_transformer.cpp:25] Loading mean file from: input/dataset-01/mean_image.binaryproto
I0414 06:46:26.098189  9612 data_layer.cpp:45] output data size: 128,1,28,28
I0414 06:46:26.099352  9612 net.cpp:122] Setting up CNN
I0414 06:46:26.099370  9612 net.cpp:129] Top shape: 128 1 28 28 (100352)
I0414 06:46:26.099375  9612 net.cpp:129] Top shape: 128 (128)
I0414 06:46:26.099400  9612 net.cpp:137] Memory required for data: 401920
I0414 06:46:26.099412  9612 layer_factory.hpp:77] Creating layer conv1
I0414 06:46:26.099433  9612 net.cpp:84] Creating Layer conv1
I0414 06:46:26.099442  9612 net.cpp:406] conv1 <- data
I0414 06:46:26.099459  9612 net.cpp:380] conv1 -> conv1
I0414 06:46:26.518767  9612 net.cpp:122] Setting up conv1
I0414 06:46:26.518793  9612 net.cpp:129] Top shape: 128 16 28 28 (1605632)
I0414 06:46:26.518796  9612 net.cpp:137] Memory required for data: 6824448
I0414 06:46:26.518813  9612 layer_factory.hpp:77] Creating layer relu1
I0414 06:46:26.518826  9612 net.cpp:84] Creating Layer relu1
I0414 06:46:26.518829  9612 net.cpp:406] relu1 <- conv1
I0414 06:46:26.518833  9612 net.cpp:367] relu1 -> conv1 (in-place)
I0414 06:46:26.518981  9612 net.cpp:122] Setting up relu1
I0414 06:46:26.518990  9612 net.cpp:129] Top shape: 128 16 28 28 (1605632)
I0414 06:46:26.518991  9612 net.cpp:137] Memory required for data: 13246976
I0414 06:46:26.518995  9612 layer_factory.hpp:77] Creating layer pool1
I0414 06:46:26.518999  9612 net.cpp:84] Creating Layer pool1
I0414 06:46:26.519002  9612 net.cpp:406] pool1 <- conv1
I0414 06:46:26.519006  9612 net.cpp:380] pool1 -> pool1
I0414 06:46:26.519049  9612 net.cpp:122] Setting up pool1
I0414 06:46:26.519055  9612 net.cpp:129] Top shape: 128 16 14 14 (401408)
I0414 06:46:26.519058  9612 net.cpp:137] Memory required for data: 14852608
I0414 06:46:26.519060  9612 layer_factory.hpp:77] Creating layer conv2
I0414 06:46:26.519068  9612 net.cpp:84] Creating Layer conv2
I0414 06:46:26.519073  9612 net.cpp:406] conv2 <- pool1
I0414 06:46:26.519076  9612 net.cpp:380] conv2 -> conv2
I0414 06:46:26.520694  9612 net.cpp:122] Setting up conv2
I0414 06:46:26.520709  9612 net.cpp:129] Top shape: 128 32 14 14 (802816)
I0414 06:46:26.520711  9612 net.cpp:137] Memory required for data: 18063872
I0414 06:46:26.520720  9612 layer_factory.hpp:77] Creating layer relu2
I0414 06:46:26.520728  9612 net.cpp:84] Creating Layer relu2
I0414 06:46:26.520733  9612 net.cpp:406] relu2 <- conv2
I0414 06:46:26.520737  9612 net.cpp:367] relu2 -> conv2 (in-place)
I0414 06:46:26.520879  9612 net.cpp:122] Setting up relu2
I0414 06:46:26.520885  9612 net.cpp:129] Top shape: 128 32 14 14 (802816)
I0414 06:46:26.520889  9612 net.cpp:137] Memory required for data: 21275136
I0414 06:46:26.520891  9612 layer_factory.hpp:77] Creating layer pool2
I0414 06:46:26.520895  9612 net.cpp:84] Creating Layer pool2
I0414 06:46:26.520898  9612 net.cpp:406] pool2 <- conv2
I0414 06:46:26.520901  9612 net.cpp:380] pool2 -> pool2
I0414 06:46:26.520936  9612 net.cpp:122] Setting up pool2
I0414 06:46:26.520941  9612 net.cpp:129] Top shape: 128 32 7 7 (200704)
I0414 06:46:26.520944  9612 net.cpp:137] Memory required for data: 22077952
I0414 06:46:26.520946  9612 layer_factory.hpp:77] Creating layer ip1
I0414 06:46:26.520951  9612 net.cpp:84] Creating Layer ip1
I0414 06:46:26.520954  9612 net.cpp:406] ip1 <- pool2
I0414 06:46:26.520958  9612 net.cpp:380] ip1 -> ip1
I0414 06:46:26.522382  9612 net.cpp:122] Setting up ip1
I0414 06:46:26.522392  9612 net.cpp:129] Top shape: 128 120 (15360)
I0414 06:46:26.522394  9612 net.cpp:137] Memory required for data: 22139392
I0414 06:46:26.522402  9612 layer_factory.hpp:77] Creating layer relu3
I0414 06:46:26.522408  9612 net.cpp:84] Creating Layer relu3
I0414 06:46:26.522411  9612 net.cpp:406] relu3 <- ip1
I0414 06:46:26.522415  9612 net.cpp:367] relu3 -> ip1 (in-place)
I0414 06:46:26.522701  9612 net.cpp:122] Setting up relu3
I0414 06:46:26.522709  9612 net.cpp:129] Top shape: 128 120 (15360)
I0414 06:46:26.522712  9612 net.cpp:137] Memory required for data: 22200832
I0414 06:46:26.522716  9612 layer_factory.hpp:77] Creating layer ip2
I0414 06:46:26.522720  9612 net.cpp:84] Creating Layer ip2
I0414 06:46:26.522723  9612 net.cpp:406] ip2 <- ip1
I0414 06:46:26.522727  9612 net.cpp:380] ip2 -> ip2
I0414 06:46:26.522832  9612 net.cpp:122] Setting up ip2
I0414 06:46:26.522838  9612 net.cpp:129] Top shape: 128 50 (6400)
I0414 06:46:26.522858  9612 net.cpp:137] Memory required for data: 22226432
I0414 06:46:26.522863  9612 layer_factory.hpp:77] Creating layer relu4
I0414 06:46:26.522867  9612 net.cpp:84] Creating Layer relu4
I0414 06:46:26.522871  9612 net.cpp:406] relu4 <- ip2
I0414 06:46:26.522873  9612 net.cpp:367] relu4 -> ip2 (in-place)
I0414 06:46:26.523017  9612 net.cpp:122] Setting up relu4
I0414 06:46:26.523025  9612 net.cpp:129] Top shape: 128 50 (6400)
I0414 06:46:26.523028  9612 net.cpp:137] Memory required for data: 22252032
I0414 06:46:26.523031  9612 layer_factory.hpp:77] Creating layer ip3
I0414 06:46:26.523041  9612 net.cpp:84] Creating Layer ip3
I0414 06:46:26.523046  9612 net.cpp:406] ip3 <- ip2
I0414 06:46:26.523052  9612 net.cpp:380] ip3 -> ip3
I0414 06:46:26.523139  9612 net.cpp:122] Setting up ip3
I0414 06:46:26.523145  9612 net.cpp:129] Top shape: 128 10 (1280)
I0414 06:46:26.523147  9612 net.cpp:137] Memory required for data: 22257152
I0414 06:46:26.523154  9612 layer_factory.hpp:77] Creating layer loss
I0414 06:46:26.523159  9612 net.cpp:84] Creating Layer loss
I0414 06:46:26.523161  9612 net.cpp:406] loss <- ip3
I0414 06:46:26.523164  9612 net.cpp:406] loss <- label
I0414 06:46:26.523170  9612 net.cpp:380] loss -> loss
I0414 06:46:26.523185  9612 layer_factory.hpp:77] Creating layer loss
…
I0414 06:46:26.524200  9612 solver.cpp:190] Creating test net (#0) specified by net file: models/model-02/model_train_val.prototxt
I0414 06:46:26.524219  9612 net.cpp:294] The NetState phase (1) differed from the phase (0) specified by a rule in layer CNN
I0414 06:46:26.524291  9612 net.cpp:51] Initializing net from parameters: 
name: "Model"
state {
  phase: TEST
}
layer {
  name: "CNN"
  type: "Data"
  top: "data"
  top: "label"
  include {
    phase: TEST
  }
  transform_param {
    scale: 0.00390625
    mean_file: "input/dataset-01/mean_image.binaryproto"
  }
  data_param {
    source: "input/dataset-01/test_lmdb"
    batch_size: 220
    backend: LMDB
  }
}
layer {
  name: "conv1"
  type: "Convolution"
  bottom: "data"
  top: "conv1"
  param {
    lr_mult: 1
  }
  param {
    lr_mult: 2
  }
  convolution_param {
    num_output: 16
    pad: 3
    kernel_size: 7
    stride: 1
    weight_filler {
      type: "xavier"
    }
    bias_filler {
      type: "constant"
    }
  }
}
layer {
  name: "relu1"
  type: "ReLU"
  bottom: "conv1"
  top: "conv1"
}
layer {
  name: "pool1"
  type: "Pooling"
  bottom: "conv1"
  top: "pool1"
  pooling_param {
    pool: MAX
    kernel_size: 2
    stride: 2
  }
}
layer {
  name: "conv2"
  type: "Convolution"
  bottom: "pool1"
  top: "conv2"
  param {
    lr_mult: 1
  }
  param {
    lr_mult: 2
  }
  convolution_param {
    num_output: 32
    pad: 2
    kernel_size: 5
    stride: 1
    weight_filler {
      type: "xavier"
    }
    bias_filler {
      type: "constant"
    }
  }
}
layer {
  name: "relu2"
  type: "ReLU"
  bottom: "conv2"
  top: "conv2"
}
layer {
  name: "pool2"
  type: "Pooling"
  bottom: "conv2"
  top: "pool2"
  pooling_param {
    pool: MAX
    kernel_size: 2
    stride: 2
  }
}
layer {
  name: "ip1"
  type: "InnerProduct"
  bottom: "pool2"
  top: "ip1"
  param {
    lr_mult: 1
  }
  param {
    lr_mult: 2
  }
  inner_product_param {
    num_output: 120
    weight_filler {
      type: "xavier"
    }
    bias_filler {
      type: "constant"
    }
  }
}
layer {
  name: "relu3"
  type: "ReLU"
  bottom: "ip1"
  top: "ip1"
}
layer {
  name: "ip2"
  type: "InnerProduct"
  bottom: "ip1"
  top: "ip2"
  param {
    lr_mult: 1
  }
  param {
    lr_mult: 2
  }
  inner_product_param {
    num_output: 50
    weight_filler {
      type: "xavier"
    }
    bias_filler {
      type: "constant"
    }
  }
}
layer {
  name: "relu4"
  type: "ReLU"
  bottom: "ip2"
  top: "ip2"
}
layer {
  name: "ip3"
  type: "InnerProduct"
  bottom: "ip2"
  top: "ip3"
  param {
    lr_mult: 1
  }
  param {
    lr_mult: 2
  }
  inner_product_param {
    num_output: 10
    weight_filler {
      type: "xavier"
    }
    bias_filler {
      type: "constant"
    }
  }
}
layer {
  name: "accuracy"
  type: "Accuracy"
  bottom: "ip3"
  bottom: "label"
  top: "accuracy"
  include {
    phase: TEST
  }
}
layer {
  name: "loss"
  type: "SoftmaxWithLoss"
  bottom: "ip3"
  bottom: "label"
  top: "loss"
}
I0414 06:46:26.524371  9612 layer_factory.hpp:77] Creating layer CNN
I0414 06:46:26.524425  9612 db_lmdb.cpp:35] Opened lmdb input/dataset-01/test_lmdb
I0414 06:46:26.524441  9612 net.cpp:84] Creating Layer CNN
I0414 06:46:26.524446  9612 net.cpp:380] CNN -> data
I0414 06:46:26.524456  9612 net.cpp:380] CNN -> label
I0414 06:46:26.524466  9612 data_transformer.cpp:25] Loading mean file from: input/dataset-01/mean_image.binaryproto
I0414 06:46:26.524596  9612 data_layer.cpp:45] output data size: 220,1,28,28
I0414 06:46:26.526139  9612 net.cpp:122] Setting up CNN
I0414 06:46:26.526154  9612 net.cpp:129] Top shape: 220 1 28 28 (172480)
I0414 06:46:26.526160  9612 net.cpp:129] Top shape: 220 (220)
I0414 06:46:26.526163  9612 net.cpp:137] Memory required for data: 690800
I0414 06:46:26.526170  9612 layer_factory.hpp:77] Creating layer label_CNN_1_split
I0414 06:46:26.526178  9612 net.cpp:84] Creating Layer label_CNN_1_split
I0414 06:46:26.526182  9612 net.cpp:406] label_CNN_1_split <- label
I0414 06:46:26.526187  9612 net.cpp:380] label_CNN_1_split -> label_CNN_1_split_0
I0414 06:46:26.526194  9612 net.cpp:380] label_CNN_1_split -> label_CNN_1_split_1
I0414 06:46:26.526262  9612 net.cpp:122] Setting up label_CNN_1_split
I0414 06:46:26.526268  9612 net.cpp:129] Top shape: 220 (220)
I0414 06:46:26.526270  9612 net.cpp:129] Top shape: 220 (220)
I0414 06:46:26.526273  9612 net.cpp:137] Memory required for data: 692560
I0414 06:46:26.526275  9612 layer_factory.hpp:77] Creating layer conv1
I0414 06:46:26.526284  9612 net.cpp:84] Creating Layer conv1
I0414 06:46:26.526288  9612 net.cpp:406] conv1 <- data
I0414 06:46:26.526293  9612 net.cpp:380] conv1 -> conv1
I0414 06:46:26.527242  9612 net.cpp:122] Setting up conv1
I0414 06:46:26.527254  9612 net.cpp:129] Top shape: 220 16 28 28 (2759680)
I0414 06:46:26.527258  9612 net.cpp:137] Memory required for data: 11731280
I0414 06:46:26.527269  9612 layer_factory.hpp:77] Creating layer relu1
I0414 06:46:26.527276  9612 net.cpp:84] Creating Layer relu1
I0414 06:46:26.527281  9612 net.cpp:406] relu1 <- conv1
I0414 06:46:26.527284  9612 net.cpp:367] relu1 -> conv1 (in-place)
I0414 06:46:26.527576  9612 net.cpp:122] Setting up relu1
I0414 06:46:26.527587  9612 net.cpp:129] Top shape: 220 16 28 28 (2759680)
I0414 06:46:26.527590  9612 net.cpp:137] Memory required for data: 22770000
I0414 06:46:26.527593  9612 layer_factory.hpp:77] Creating layer pool1
I0414 06:46:26.527599  9612 net.cpp:84] Creating Layer pool1
I0414 06:46:26.527603  9612 net.cpp:406] pool1 <- conv1
I0414 06:46:26.527607  9612 net.cpp:380] pool1 -> pool1
I0414 06:46:26.527712  9612 net.cpp:122] Setting up pool1
I0414 06:46:26.527722  9612 net.cpp:129] Top shape: 220 16 14 14 (689920)
I0414 06:46:26.527725  9612 net.cpp:137] Memory required for data: 25529680
I0414 06:46:26.527729  9612 layer_factory.hpp:77] Creating layer conv2
I0414 06:46:26.527735  9612 net.cpp:84] Creating Layer conv2
I0414 06:46:26.527741  9612 net.cpp:406] conv2 <- pool1
I0414 06:46:26.527746  9612 net.cpp:380] conv2 -> conv2
I0414 06:46:26.528699  9612 net.cpp:122] Setting up conv2
I0414 06:46:26.528710  9612 net.cpp:129] Top shape: 220 32 14 14 (1379840)
I0414 06:46:26.528715  9612 net.cpp:137] Memory required for data: 31049040
I0414 06:46:26.528723  9612 layer_factory.hpp:77] Creating layer relu2
I0414 06:46:26.528729  9612 net.cpp:84] Creating Layer relu2
I0414 06:46:26.528733  9612 net.cpp:406] relu2 <- conv2
I0414 06:46:26.528736  9612 net.cpp:367] relu2 -> conv2 (in-place)
I0414 06:46:26.528879  9612 net.cpp:122] Setting up relu2
I0414 06:46:26.528887  9612 net.cpp:129] Top shape: 220 32 14 14 (1379840)
I0414 06:46:26.528892  9612 net.cpp:137] Memory required for data: 36568400
I0414 06:46:26.528895  9612 layer_factory.hpp:77] Creating layer pool2
I0414 06:46:26.528899  9612 net.cpp:84] Creating Layer pool2
I0414 06:46:26.528903  9612 net.cpp:406] pool2 <- conv2
I0414 06:46:26.528908  9612 net.cpp:380] pool2 -> pool2
I0414 06:46:26.528945  9612 net.cpp:122] Setting up pool2
I0414 06:46:26.528952  9612 net.cpp:129] Top shape: 220 32 7 7 (344960)
I0414 06:46:26.528957  9612 net.cpp:137] Memory required for data: 37948240
I0414 06:46:26.528961  9612 layer_factory.hpp:77] Creating layer ip1
I0414 06:46:26.528967  9612 net.cpp:84] Creating Layer ip1
I0414 06:46:26.528971  9612 net.cpp:406] ip1 <- pool2
I0414 06:46:26.528975  9612 net.cpp:380] ip1 -> ip1
I0414 06:46:26.530441  9612 net.cpp:122] Setting up ip1
I0414 06:46:26.530457  9612 net.cpp:129] Top shape: 220 120 (26400)
I0414 06:46:26.530459  9612 net.cpp:137] Memory required for data: 38053840
I0414 06:46:26.530469  9612 layer_factory.hpp:77] Creating layer relu3
I0414 06:46:26.530478  9612 net.cpp:84] Creating Layer relu3
I0414 06:46:26.530480  9612 net.cpp:406] relu3 <- ip1
I0414 06:46:26.530485  9612 net.cpp:367] relu3 -> ip1 (in-place)
I0414 06:46:26.530655  9612 net.cpp:122] Setting up relu3
I0414 06:46:26.530661  9612 net.cpp:129] Top shape: 220 120 (26400)
I0414 06:46:26.530664  9612 net.cpp:137] Memory required for data: 38159440
I0414 06:46:26.530668  9612 layer_factory.hpp:77] Creating layer ip2
I0414 06:46:26.530673  9612 net.cpp:84] Creating Layer ip2
I0414 06:46:26.530675  9612 net.cpp:406] ip2 <- ip1
I0414 06:46:26.530679  9612 net.cpp:380] ip2 -> ip2
I0414 06:46:26.530795  9612 net.cpp:122] Setting up ip2
I0414 06:46:26.530802  9612 net.cpp:129] Top shape: 220 50 (11000)
I0414 06:46:26.530803  9612 net.cpp:137] Memory required for data: 38203440
I0414 06:46:26.530808  9612 layer_factory.hpp:77] Creating layer relu4
I0414 06:46:26.530812  9612 net.cpp:84] Creating Layer relu4
I0414 06:46:26.530814  9612 net.cpp:406] relu4 <- ip2
I0414 06:46:26.530817  9612 net.cpp:367] relu4 -> ip2 (in-place)
I0414 06:46:26.530956  9612 net.cpp:122] Setting up relu4
I0414 06:46:26.530962  9612 net.cpp:129] Top shape: 220 50 (11000)
I0414 06:46:26.530966  9612 net.cpp:137] Memory required for data: 38247440
I0414 06:46:26.530967  9612 layer_factory.hpp:77] Creating layer ip3
I0414 06:46:26.530972  9612 net.cpp:84] Creating Layer ip3
I0414 06:46:26.530974  9612 net.cpp:406] ip3 <- ip2
I0414 06:46:26.530978  9612 net.cpp:380] ip3 -> ip3
I0414 06:46:26.531069  9612 net.cpp:122] Setting up ip3
I0414 06:46:26.531075  9612 net.cpp:129] Top shape: 220 10 (2200)
I0414 06:46:26.531076  9612 net.cpp:137] Memory required for data: 38256240
I0414 06:46:26.531082  9612 layer_factory.hpp:77] Creating layer ip3_ip3_0_split
I0414 06:46:26.531087  9612 net.cpp:84] Creating Layer ip3_ip3_0_split
I0414 06:46:26.531090  9612 net.cpp:406] ip3_ip3_0_split <- ip3
I0414 06:46:26.531095  9612 net.cpp:380] ip3_ip3_0_split -> ip3_ip3_0_split_0
I0414 06:46:26.531114  9612 net.cpp:380] ip3_ip3_0_split -> ip3_ip3_0_split_1
I0414 06:46:26.531147  9612 net.cpp:122] Setting up ip3_ip3_0_split
I0414 06:46:26.531152  9612 net.cpp:129] Top shape: 220 10 (2200)
I0414 06:46:26.531157  9612 net.cpp:129] Top shape: 220 10 (2200)
I0414 06:46:26.531162  9612 net.cpp:137] Memory required for data: 38273840
I0414 06:46:26.531165  9612 layer_factory.hpp:77] Creating layer accuracy
I0414 06:46:26.531172  9612 net.cpp:84] Creating Layer accuracy
I0414 06:46:26.531175  9612 net.cpp:406] accuracy <- ip3_ip3_0_split_0
I0414 06:46:26.531178  9612 net.cpp:406] accuracy <- label_CNN_1_split_0
I0414 06:46:26.531183  9612 net.cpp:380] accuracy -> accuracy
…
