…
I0414 06:40:59.228811  8024 net.cpp:294] The NetState phase (0) differed from the phase (1) specified by a rule in layer accuracy
I0414 06:40:59.228883  8024 net.cpp:51] Initializing net from parameters: 
name: "Model"
state {
  phase: TRAIN
  level: 0
  stage: ""
}
layer {
  name: "CNN"
  type: "Data"
  top: "data"
  top: "label"
  include {
    phase: TRAIN
  }
  transform_param {
    scale: 0.00390625
    mean_file: "input/dataset-01/mean_image.binaryproto"
  }
  data_param {
    source: "input/dataset-01/train_lmdb"
    batch_size: 128
    backend: LMDB
  }
}
layer {
  name: "conv1"
  type: "Convolution"
  bottom: "data"
  top: "conv1"
  param {
    lr_mult: 1
  }
  param {
    lr_mult: 2
  }
  convolution_param {
    num_output: 16
    pad: 3
    kernel_size: 7
    stride: 1
    weight_filler {
      type: "xavier"
    }
    bias_filler {
      type: "constant"
    }
  }
}
layer {
  name: "relu1"
  type: "ReLU"
  bottom: "conv1"
  top: "conv1"
}
layer {
  name: "pool1"
  type: "Pooling"
  bottom: "conv1"
  top: "pool1"
  pooling_param {
    pool: MAX
    kernel_size: 2
    stride: 2
  }
}
layer {
  name: "conv2"
  type: "Convolution"
  bottom: "pool1"
  top: "conv2"
  param {
    lr_mult: 1
  }
  param {
    lr_mult: 2
  }
  convolution_param {
    num_output: 32
    pad: 2
    kernel_size: 5
    stride: 1
    weight_filler {
      type: "xavier"
    }
    bias_filler {
      type: "constant"
    }
  }
}
layer {
  name: "relu2"
  type: "ReLU"
  bottom: "conv2"
  top: "conv2"
}
layer {
  name: "pool2"
  type: "Pooling"
  bottom: "conv2"
  top: "pool2"
  pooling_param {
    pool: MAX
    kernel_size: 2
    stride: 2
  }
}
layer {
  name: "ip1"
  type: "InnerProduct"
  bottom: "pool2"
  top: "ip1"
  param {
    lr_mult: 1
  }
  param {
    lr_mult: 2
  }
  inner_product_param {
    num_output: 480
    weight_filler {
      type: "xavier"
    }
    bias_filler {
      type: "constant"
    }
  }
}
layer {
  name: "relu3"
  type: "ReLU"
  bottom: "ip1"
  top: "ip1"
}
layer {
  name: "ip2"
  type: "InnerProduct"
  bottom: "ip1"
  top: "ip2"
  param {
    lr_mult: 1
  }
  param {
    lr_mult: 2
  }
  inner_product_param {
    num_output: 200
    weight_filler {
      type: "xavier"
    }
    bias_filler {
      type: "constant"
    }
  }
}
layer {
  name: "relu4"
  type: "ReLU"
  bottom: "ip2"
  top: "ip2"
}
layer {
  name: "ip3"
  type: "InnerProduct"
  bottom: "ip2"
  top: "ip3"
  param {
    lr_mult: 1
  }
  param {
    lr_mult: 2
  }
  inner_product_param {
    num_output: 10
    weight_filler {
      type: "xavier"
    }
    bias_filler {
      type: "constant"
    }
  }
}
layer {
  name: "loss"
  type: "SoftmaxWithLoss"
  bottom: "ip3"
  bottom: "label"
  top: "loss"
}
I0414 06:40:59.228930  8024 layer_factory.hpp:77] Creating layer CNN
I0414 06:40:59.229017  8024 db_lmdb.cpp:35] Opened lmdb input/dataset-01/train_lmdb
I0414 06:40:59.229043  8024 net.cpp:84] Creating Layer CNN
I0414 06:40:59.229051  8024 net.cpp:380] CNN -> data
I0414 06:40:59.229068  8024 net.cpp:380] CNN -> label
I0414 06:40:59.229079  8024 data_transformer.cpp:25] Loading mean file from: input/dataset-01/mean_image.binaryproto
I0414 06:40:59.230351  8024 data_layer.cpp:45] output data size: 128,1,28,28
I0414 06:40:59.231508  8024 net.cpp:122] Setting up CNN
I0414 06:40:59.231524  8024 net.cpp:129] Top shape: 128 1 28 28 (100352)
I0414 06:40:59.231528  8024 net.cpp:129] Top shape: 128 (128)
I0414 06:40:59.231550  8024 net.cpp:137] Memory required for data: 401920
I0414 06:40:59.231557  8024 layer_factory.hpp:77] Creating layer conv1
I0414 06:40:59.231577  8024 net.cpp:84] Creating Layer conv1
I0414 06:40:59.231583  8024 net.cpp:406] conv1 <- data
I0414 06:40:59.231593  8024 net.cpp:380] conv1 -> conv1
I0414 06:40:59.645076  8024 net.cpp:122] Setting up conv1
I0414 06:40:59.645102  8024 net.cpp:129] Top shape: 128 16 28 28 (1605632)
I0414 06:40:59.645105  8024 net.cpp:137] Memory required for data: 6824448
I0414 06:40:59.645121  8024 layer_factory.hpp:77] Creating layer relu1
I0414 06:40:59.645130  8024 net.cpp:84] Creating Layer relu1
I0414 06:40:59.645134  8024 net.cpp:406] relu1 <- conv1
I0414 06:40:59.645139  8024 net.cpp:367] relu1 -> conv1 (in-place)
I0414 06:40:59.645282  8024 net.cpp:122] Setting up relu1
I0414 06:40:59.645290  8024 net.cpp:129] Top shape: 128 16 28 28 (1605632)
I0414 06:40:59.645292  8024 net.cpp:137] Memory required for data: 13246976
I0414 06:40:59.645295  8024 layer_factory.hpp:77] Creating layer pool1
I0414 06:40:59.645300  8024 net.cpp:84] Creating Layer pool1
I0414 06:40:59.645303  8024 net.cpp:406] pool1 <- conv1
I0414 06:40:59.645308  8024 net.cpp:380] pool1 -> pool1
I0414 06:40:59.645349  8024 net.cpp:122] Setting up pool1
I0414 06:40:59.645354  8024 net.cpp:129] Top shape: 128 16 14 14 (401408)
I0414 06:40:59.645357  8024 net.cpp:137] Memory required for data: 14852608
I0414 06:40:59.645359  8024 layer_factory.hpp:77] Creating layer conv2
I0414 06:40:59.645368  8024 net.cpp:84] Creating Layer conv2
I0414 06:40:59.645371  8024 net.cpp:406] conv2 <- pool1
I0414 06:40:59.645376  8024 net.cpp:380] conv2 -> conv2
I0414 06:40:59.646872  8024 net.cpp:122] Setting up conv2
I0414 06:40:59.646885  8024 net.cpp:129] Top shape: 128 32 14 14 (802816)
I0414 06:40:59.646888  8024 net.cpp:137] Memory required for data: 18063872
I0414 06:40:59.646895  8024 layer_factory.hpp:77] Creating layer relu2
I0414 06:40:59.646901  8024 net.cpp:84] Creating Layer relu2
I0414 06:40:59.646904  8024 net.cpp:406] relu2 <- conv2
I0414 06:40:59.646908  8024 net.cpp:367] relu2 -> conv2 (in-place)
I0414 06:40:59.647044  8024 net.cpp:122] Setting up relu2
I0414 06:40:59.647051  8024 net.cpp:129] Top shape: 128 32 14 14 (802816)
I0414 06:40:59.647054  8024 net.cpp:137] Memory required for data: 21275136
I0414 06:40:59.647058  8024 layer_factory.hpp:77] Creating layer pool2
I0414 06:40:59.647061  8024 net.cpp:84] Creating Layer pool2
I0414 06:40:59.647064  8024 net.cpp:406] pool2 <- conv2
I0414 06:40:59.647068  8024 net.cpp:380] pool2 -> pool2
I0414 06:40:59.647102  8024 net.cpp:122] Setting up pool2
I0414 06:40:59.647107  8024 net.cpp:129] Top shape: 128 32 7 7 (200704)
I0414 06:40:59.647110  8024 net.cpp:137] Memory required for data: 22077952
I0414 06:40:59.647112  8024 layer_factory.hpp:77] Creating layer ip1
I0414 06:40:59.647117  8024 net.cpp:84] Creating Layer ip1
I0414 06:40:59.647120  8024 net.cpp:406] ip1 <- pool2
I0414 06:40:59.647123  8024 net.cpp:380] ip1 -> ip1
I0414 06:40:59.651055  8024 net.cpp:122] Setting up ip1
I0414 06:40:59.651069  8024 net.cpp:129] Top shape: 128 480 (61440)
I0414 06:40:59.651072  8024 net.cpp:137] Memory required for data: 22323712
I0414 06:40:59.651080  8024 layer_factory.hpp:77] Creating layer relu3
I0414 06:40:59.651087  8024 net.cpp:84] Creating Layer relu3
I0414 06:40:59.651091  8024 net.cpp:406] relu3 <- ip1
I0414 06:40:59.651095  8024 net.cpp:367] relu3 -> ip1 (in-place)
I0414 06:40:59.651401  8024 net.cpp:122] Setting up relu3
I0414 06:40:59.651410  8024 net.cpp:129] Top shape: 128 480 (61440)
I0414 06:40:59.651412  8024 net.cpp:137] Memory required for data: 22569472
I0414 06:40:59.651415  8024 layer_factory.hpp:77] Creating layer ip2
I0414 06:40:59.651422  8024 net.cpp:84] Creating Layer ip2
I0414 06:40:59.651425  8024 net.cpp:406] ip2 <- ip1
I0414 06:40:59.651430  8024 net.cpp:380] ip2 -> ip2
I0414 06:40:59.651921  8024 net.cpp:122] Setting up ip2
I0414 06:40:59.651926  8024 net.cpp:129] Top shape: 128 200 (25600)
I0414 06:40:59.651950  8024 net.cpp:137] Memory required for data: 22671872
I0414 06:40:59.651957  8024 layer_factory.hpp:77] Creating layer relu4
I0414 06:40:59.651959  8024 net.cpp:84] Creating Layer relu4
I0414 06:40:59.651962  8024 net.cpp:406] relu4 <- ip2
I0414 06:40:59.651967  8024 net.cpp:367] relu4 -> ip2 (in-place)
I0414 06:40:59.652106  8024 net.cpp:122] Setting up relu4
I0414 06:40:59.652112  8024 net.cpp:129] Top shape: 128 200 (25600)
I0414 06:40:59.652114  8024 net.cpp:137] Memory required for data: 22774272
I0414 06:40:59.652117  8024 layer_factory.hpp:77] Creating layer ip3
I0414 06:40:59.652122  8024 net.cpp:84] Creating Layer ip3
I0414 06:40:59.652124  8024 net.cpp:406] ip3 <- ip2
I0414 06:40:59.652128  8024 net.cpp:380] ip3 -> ip3
I0414 06:40:59.652784  8024 net.cpp:122] Setting up ip3
I0414 06:40:59.652796  8024 net.cpp:129] Top shape: 128 10 (1280)
I0414 06:40:59.652798  8024 net.cpp:137] Memory required for data: 22779392
I0414 06:40:59.652806  8024 layer_factory.hpp:77] Creating layer loss
I0414 06:40:59.652812  8024 net.cpp:84] Creating Layer loss
I0414 06:40:59.652815  8024 net.cpp:406] loss <- ip3
I0414 06:40:59.652819  8024 net.cpp:406] loss <- label
I0414 06:40:59.652824  8024 net.cpp:380] loss -> loss
I0414 06:40:59.652835  8024 layer_factory.hpp:77] Creating layer loss
…
I0414 06:40:59.653273  8024 solver.cpp:190] Creating test net (#0) specified by net file: models/model-01/model_train_val.prototxt
I0414 06:40:59.653293  8024 net.cpp:294] The NetState phase (1) differed from the phase (0) specified by a rule in layer CNN
I0414 06:40:59.653365  8024 net.cpp:51] Initializing net from parameters: 
name: "Model"
state {
  phase: TEST
}
layer {
  name: "CNN"
  type: "Data"
  top: "data"
  top: "label"
  include {
    phase: TEST
  }
  transform_param {
    scale: 0.00390625
    mean_file: "input/dataset-01/mean_image.binaryproto"
  }
  data_param {
    source: "input/dataset-01/test_lmdb"
    batch_size: 220
    backend: LMDB
  }
}
layer {
  name: "conv1"
  type: "Convolution"
  bottom: "data"
  top: "conv1"
  param {
    lr_mult: 1
  }
  param {
    lr_mult: 2
  }
  convolution_param {
    num_output: 16
    pad: 3
    kernel_size: 7
    stride: 1
    weight_filler {
      type: "xavier"
    }
    bias_filler {
      type: "constant"
    }
  }
}
layer {
  name: "relu1"
  type: "ReLU"
  bottom: "conv1"
  top: "conv1"
}
layer {
  name: "pool1"
  type: "Pooling"
  bottom: "conv1"
  top: "pool1"
  pooling_param {
    pool: MAX
    kernel_size: 2
    stride: 2
  }
}
layer {
  name: "conv2"
  type: "Convolution"
  bottom: "pool1"
  top: "conv2"
  param {
    lr_mult: 1
  }
  param {
    lr_mult: 2
  }
  convolution_param {
    num_output: 32
    pad: 2
    kernel_size: 5
    stride: 1
    weight_filler {
      type: "xavier"
    }
    bias_filler {
      type: "constant"
    }
  }
}
layer {
  name: "relu2"
  type: "ReLU"
  bottom: "conv2"
  top: "conv2"
}
layer {
  name: "pool2"
  type: "Pooling"
  bottom: "conv2"
  top: "pool2"
  pooling_param {
    pool: MAX
    kernel_size: 2
    stride: 2
  }
}
layer {
  name: "ip1"
  type: "InnerProduct"
  bottom: "pool2"
  top: "ip1"
  param {
    lr_mult: 1
  }
  param {
    lr_mult: 2
  }
  inner_product_param {
    num_output: 480
    weight_filler {
      type: "xavier"
    }
    bias_filler {
      type: "constant"
    }
  }
}
layer {
  name: "relu3"
  type: "ReLU"
  bottom: "ip1"
  top: "ip1"
}
layer {
  name: "ip2"
  type: "InnerProduct"
  bottom: "ip1"
  top: "ip2"
  param {
    lr_mult: 1
  }
  param {
    lr_mult: 2
  }
  inner_product_param {
    num_output: 200
    weight_filler {
      type: "xavier"
    }
    bias_filler {
      type: "constant"
    }
  }
}
layer {
  name: "relu4"
  type: "ReLU"
  bottom: "ip2"
  top: "ip2"
}
layer {
  name: "ip3"
  type: "InnerProduct"
  bottom: "ip2"
  top: "ip3"
  param {
    lr_mult: 1
  }
  param {
    lr_mult: 2
  }
  inner_product_param {
    num_output: 10
    weight_filler {
      type: "xavier"
    }
    bias_filler {
      type: "constant"
    }
  }
}
layer {
  name: "accuracy"
  type: "Accuracy"
  bottom: "ip3"
  bottom: "label"
  top: "accuracy"
  include {
    phase: TEST
  }
}
layer {
  name: "loss"
  type: "SoftmaxWithLoss"
  bottom: "ip3"
  bottom: "label"
  top: "loss"
}
I0414 06:40:59.653432  8024 layer_factory.hpp:77] Creating layer CNN
I0414 06:40:59.653483  8024 db_lmdb.cpp:35] Opened lmdb input/dataset-01/test_lmdb
I0414 06:40:59.653496  8024 net.cpp:84] Creating Layer CNN
I0414 06:40:59.653501  8024 net.cpp:380] CNN -> data
I0414 06:40:59.653508  8024 net.cpp:380] CNN -> label
I0414 06:40:59.653514  8024 data_transformer.cpp:25] Loading mean file from: input/dataset-01/mean_image.binaryproto
I0414 06:40:59.653626  8024 data_layer.cpp:45] output data size: 220,1,28,28
I0414 06:40:59.655632  8024 net.cpp:122] Setting up CNN
I0414 06:40:59.655648  8024 net.cpp:129] Top shape: 220 1 28 28 (172480)
I0414 06:40:59.655652  8024 net.cpp:129] Top shape: 220 (220)
I0414 06:40:59.655655  8024 net.cpp:137] Memory required for data: 690800
I0414 06:40:59.655660  8024 layer_factory.hpp:77] Creating layer label_CNN_1_split
I0414 06:40:59.655669  8024 net.cpp:84] Creating Layer label_CNN_1_split
I0414 06:40:59.655673  8024 net.cpp:406] label_CNN_1_split <- label
I0414 06:40:59.655679  8024 net.cpp:380] label_CNN_1_split -> label_CNN_1_split_0
I0414 06:40:59.655688  8024 net.cpp:380] label_CNN_1_split -> label_CNN_1_split_1
I0414 06:40:59.655787  8024 net.cpp:122] Setting up label_CNN_1_split
I0414 06:40:59.655794  8024 net.cpp:129] Top shape: 220 (220)
I0414 06:40:59.655798  8024 net.cpp:129] Top shape: 220 (220)
I0414 06:40:59.655800  8024 net.cpp:137] Memory required for data: 692560
I0414 06:40:59.655802  8024 layer_factory.hpp:77] Creating layer conv1
I0414 06:40:59.655812  8024 net.cpp:84] Creating Layer conv1
I0414 06:40:59.655817  8024 net.cpp:406] conv1 <- data
I0414 06:40:59.655822  8024 net.cpp:380] conv1 -> conv1
I0414 06:40:59.656801  8024 net.cpp:122] Setting up conv1
I0414 06:40:59.656814  8024 net.cpp:129] Top shape: 220 16 28 28 (2759680)
I0414 06:40:59.656817  8024 net.cpp:137] Memory required for data: 11731280
I0414 06:40:59.656826  8024 layer_factory.hpp:77] Creating layer relu1
I0414 06:40:59.656831  8024 net.cpp:84] Creating Layer relu1
I0414 06:40:59.656833  8024 net.cpp:406] relu1 <- conv1
I0414 06:40:59.656838  8024 net.cpp:367] relu1 -> conv1 (in-place)
I0414 06:40:59.657169  8024 net.cpp:122] Setting up relu1
I0414 06:40:59.657181  8024 net.cpp:129] Top shape: 220 16 28 28 (2759680)
I0414 06:40:59.657183  8024 net.cpp:137] Memory required for data: 22770000
I0414 06:40:59.657186  8024 layer_factory.hpp:77] Creating layer pool1
I0414 06:40:59.657198  8024 net.cpp:84] Creating Layer pool1
I0414 06:40:59.657204  8024 net.cpp:406] pool1 <- conv1
I0414 06:40:59.657212  8024 net.cpp:380] pool1 -> pool1
I0414 06:40:59.657300  8024 net.cpp:122] Setting up pool1
I0414 06:40:59.657311  8024 net.cpp:129] Top shape: 220 16 14 14 (689920)
I0414 06:40:59.657317  8024 net.cpp:137] Memory required for data: 25529680
I0414 06:40:59.657322  8024 layer_factory.hpp:77] Creating layer conv2
I0414 06:40:59.657335  8024 net.cpp:84] Creating Layer conv2
I0414 06:40:59.657341  8024 net.cpp:406] conv2 <- pool1
I0414 06:40:59.657346  8024 net.cpp:380] conv2 -> conv2
I0414 06:40:59.658358  8024 net.cpp:122] Setting up conv2
I0414 06:40:59.658368  8024 net.cpp:129] Top shape: 220 32 14 14 (1379840)
I0414 06:40:59.658373  8024 net.cpp:137] Memory required for data: 31049040
I0414 06:40:59.658381  8024 layer_factory.hpp:77] Creating layer relu2
I0414 06:40:59.658388  8024 net.cpp:84] Creating Layer relu2
I0414 06:40:59.658396  8024 net.cpp:406] relu2 <- conv2
I0414 06:40:59.658406  8024 net.cpp:367] relu2 -> conv2 (in-place)
I0414 06:40:59.658569  8024 net.cpp:122] Setting up relu2
I0414 06:40:59.658579  8024 net.cpp:129] Top shape: 220 32 14 14 (1379840)
I0414 06:40:59.658583  8024 net.cpp:137] Memory required for data: 36568400
I0414 06:40:59.658587  8024 layer_factory.hpp:77] Creating layer pool2
I0414 06:40:59.658594  8024 net.cpp:84] Creating Layer pool2
I0414 06:40:59.658599  8024 net.cpp:406] pool2 <- conv2
I0414 06:40:59.658607  8024 net.cpp:380] pool2 -> pool2
I0414 06:40:59.658653  8024 net.cpp:122] Setting up pool2
I0414 06:40:59.658660  8024 net.cpp:129] Top shape: 220 32 7 7 (344960)
I0414 06:40:59.658666  8024 net.cpp:137] Memory required for data: 37948240
I0414 06:40:59.658670  8024 layer_factory.hpp:77] Creating layer ip1
I0414 06:40:59.658682  8024 net.cpp:84] Creating Layer ip1
I0414 06:40:59.658687  8024 net.cpp:406] ip1 <- pool2
I0414 06:40:59.658694  8024 net.cpp:380] ip1 -> ip1
I0414 06:40:59.662797  8024 net.cpp:122] Setting up ip1
I0414 06:40:59.662816  8024 net.cpp:129] Top shape: 220 480 (105600)
I0414 06:40:59.662818  8024 net.cpp:137] Memory required for data: 38370640
I0414 06:40:59.662829  8024 layer_factory.hpp:77] Creating layer relu3
I0414 06:40:59.662837  8024 net.cpp:84] Creating Layer relu3
I0414 06:40:59.662840  8024 net.cpp:406] relu3 <- ip1
I0414 06:40:59.662845  8024 net.cpp:367] relu3 -> ip1 (in-place)
I0414 06:40:59.663028  8024 net.cpp:122] Setting up relu3
I0414 06:40:59.663036  8024 net.cpp:129] Top shape: 220 480 (105600)
I0414 06:40:59.663039  8024 net.cpp:137] Memory required for data: 38793040
I0414 06:40:59.663043  8024 layer_factory.hpp:77] Creating layer ip2
I0414 06:40:59.663053  8024 net.cpp:84] Creating Layer ip2
I0414 06:40:59.663058  8024 net.cpp:406] ip2 <- ip1
I0414 06:40:59.663062  8024 net.cpp:380] ip2 -> ip2
I0414 06:40:59.663568  8024 net.cpp:122] Setting up ip2
I0414 06:40:59.663575  8024 net.cpp:129] Top shape: 220 200 (44000)
I0414 06:40:59.663578  8024 net.cpp:137] Memory required for data: 38969040
I0414 06:40:59.663585  8024 layer_factory.hpp:77] Creating layer relu4
I0414 06:40:59.663590  8024 net.cpp:84] Creating Layer relu4
I0414 06:40:59.663594  8024 net.cpp:406] relu4 <- ip2
I0414 06:40:59.663599  8024 net.cpp:367] relu4 -> ip2 (in-place)
I0414 06:40:59.663764  8024 net.cpp:122] Setting up relu4
I0414 06:40:59.663771  8024 net.cpp:129] Top shape: 220 200 (44000)
I0414 06:40:59.663774  8024 net.cpp:137] Memory required for data: 39145040
I0414 06:40:59.663779  8024 layer_factory.hpp:77] Creating layer ip3
I0414 06:40:59.663786  8024 net.cpp:84] Creating Layer ip3
I0414 06:40:59.663789  8024 net.cpp:406] ip3 <- ip2
I0414 06:40:59.663794  8024 net.cpp:380] ip3 -> ip3
I0414 06:40:59.663897  8024 net.cpp:122] Setting up ip3
I0414 06:40:59.663902  8024 net.cpp:129] Top shape: 220 10 (2200)
I0414 06:40:59.663904  8024 net.cpp:137] Memory required for data: 39153840
I0414 06:40:59.663913  8024 layer_factory.hpp:77] Creating layer ip3_ip3_0_split
I0414 06:40:59.663919  8024 net.cpp:84] Creating Layer ip3_ip3_0_split
I0414 06:40:59.663924  8024 net.cpp:406] ip3_ip3_0_split <- ip3
I0414 06:40:59.663931  8024 net.cpp:380] ip3_ip3_0_split -> ip3_ip3_0_split_0
I0414 06:40:59.663954  8024 net.cpp:380] ip3_ip3_0_split -> ip3_ip3_0_split_1
I0414 06:40:59.663993  8024 net.cpp:122] Setting up ip3_ip3_0_split
I0414 06:40:59.664000  8024 net.cpp:129] Top shape: 220 10 (2200)
I0414 06:40:59.664003  8024 net.cpp:129] Top shape: 220 10 (2200)
I0414 06:40:59.664006  8024 net.cpp:137] Memory required for data: 39171440
I0414 06:40:59.664011  8024 layer_factory.hpp:77] Creating layer accuracy
I0414 06:40:59.664016  8024 net.cpp:84] Creating Layer accuracy
I0414 06:40:59.664018  8024 net.cpp:406] accuracy <- ip3_ip3_0_split_0
I0414 06:40:59.664022  8024 net.cpp:406] accuracy <- label_CNN_1_split_0
I0414 06:40:59.664026  8024 net.cpp:380] accuracy -> accuracy
…
