…
I0414 06:38:14.461459  7794 net.cpp:294] The NetState phase (0) differed from the phase (1) specified by a rule in layer accuracy
I0414 06:38:14.461529  7794 net.cpp:51] Initializing net from parameters: 
name: "Model"
state {
  phase: TRAIN
  level: 0
  stage: ""
}
layer {
  name: "CNN"
  type: "Data"
  top: "data"
  top: "label"
  include {
    phase: TRAIN
  }
  transform_param {
    scale: 0.00390625
    mean_file: "input/dataset-01/mean_image.binaryproto"
  }
  data_param {
    source: "input/dataset-01/train_lmdb"
    batch_size: 128
    backend: LMDB
  }
}
layer {
  name: "conv1"
  type: "Convolution"
  bottom: "data"
  top: "conv1"
  param {
    lr_mult: 1
  }
  param {
    lr_mult: 2
  }
  convolution_param {
    num_output: 16
    pad: 3
    kernel_size: 7
    stride: 1
    weight_filler {
      type: "xavier"
    }
    bias_filler {
      type: "constant"
    }
  }
}
layer {
  name: "relu1"
  type: "ReLU"
  bottom: "conv1"
  top: "conv1"
}
layer {
  name: "pool1"
  type: "Pooling"
  bottom: "conv1"
  top: "pool1"
  pooling_param {
    pool: MAX
    kernel_size: 2
    stride: 2
  }
}
layer {
  name: "conv2"
  type: "Convolution"
  bottom: "pool1"
  top: "conv2"
  param {
    lr_mult: 1
  }
  param {
    lr_mult: 2
  }
  convolution_param {
    num_output: 32
    pad: 2
    kernel_size: 5
    stride: 1
    weight_filler {
      type: "xavier"
    }
    bias_filler {
      type: "constant"
    }
  }
}
layer {
  name: "relu2"
  type: "ReLU"
  bottom: "conv2"
  top: "conv2"
}
layer {
  name: "pool2"
  type: "Pooling"
  bottom: "conv2"
  top: "pool2"
  pooling_param {
    pool: MAX
    kernel_size: 2
    stride: 2
  }
}
layer {
  name: "ip1"
  type: "InnerProduct"
  bottom: "pool2"
  top: "ip1"
  param {
    lr_mult: 1
  }
  param {
    lr_mult: 2
  }
  inner_product_param {
    num_output: 480
    weight_filler {
      type: "xavier"
    }
    bias_filler {
      type: "constant"
    }
  }
}
layer {
  name: "relu3"
  type: "ReLU"
  bottom: "ip1"
  top: "ip1"
}
layer {
  name: "ip2"
  type: "InnerProduct"
  bottom: "ip1"
  top: "ip2"
  param {
    lr_mult: 1
  }
  param {
    lr_mult: 2
  }
  inner_product_param {
    num_output: 200
    weight_filler {
      type: "xavier"
    }
    bias_filler {
      type: "constant"
    }
  }
}
layer {
  name: "relu4"
  type: "ReLU"
  bottom: "ip2"
  top: "ip2"
}
layer {
  name: "ip3"
  type: "InnerProduct"
  bottom: "ip2"
  top: "ip3"
  param {
    lr_mult: 1
  }
  param {
    lr_mult: 2
  }
  inner_product_param {
    num_output: 10
    weight_filler {
      type: "xavier"
    }
    bias_filler {
      type: "constant"
    }
  }
}
layer {
  name: "loss"
  type: "SoftmaxWithLoss"
  bottom: "ip3"
  bottom: "label"
  top: "loss"
}
I0414 06:38:14.461578  7794 layer_factory.hpp:77] Creating layer CNN
I0414 06:38:14.461664  7794 db_lmdb.cpp:35] Opened lmdb input/dataset-01/train_lmdb
I0414 06:38:14.461688  7794 net.cpp:84] Creating Layer CNN
I0414 06:38:14.461697  7794 net.cpp:380] CNN -> data
I0414 06:38:14.461714  7794 net.cpp:380] CNN -> label
I0414 06:38:14.461728  7794 data_transformer.cpp:25] Loading mean file from: input/dataset-01/mean_image.binaryproto
I0414 06:38:14.463019  7794 data_layer.cpp:45] output data size: 128,1,28,28
I0414 06:38:14.464222  7794 net.cpp:122] Setting up CNN
I0414 06:38:14.464241  7794 net.cpp:129] Top shape: 128 1 28 28 (100352)
I0414 06:38:14.464246  7794 net.cpp:129] Top shape: 128 (128)
I0414 06:38:14.464267  7794 net.cpp:137] Memory required for data: 401920
I0414 06:38:14.464273  7794 layer_factory.hpp:77] Creating layer conv1
I0414 06:38:14.464291  7794 net.cpp:84] Creating Layer conv1
I0414 06:38:14.464298  7794 net.cpp:406] conv1 <- data
I0414 06:38:14.464308  7794 net.cpp:380] conv1 -> conv1
I0414 06:38:14.876773  7794 net.cpp:122] Setting up conv1
I0414 06:38:14.876796  7794 net.cpp:129] Top shape: 128 16 28 28 (1605632)
I0414 06:38:14.876799  7794 net.cpp:137] Memory required for data: 6824448
I0414 06:38:14.876816  7794 layer_factory.hpp:77] Creating layer relu1
I0414 06:38:14.876827  7794 net.cpp:84] Creating Layer relu1
I0414 06:38:14.876832  7794 net.cpp:406] relu1 <- conv1
I0414 06:38:14.876835  7794 net.cpp:367] relu1 -> conv1 (in-place)
I0414 06:38:14.876981  7794 net.cpp:122] Setting up relu1
I0414 06:38:14.876987  7794 net.cpp:129] Top shape: 128 16 28 28 (1605632)
I0414 06:38:14.876991  7794 net.cpp:137] Memory required for data: 13246976
I0414 06:38:14.876992  7794 layer_factory.hpp:77] Creating layer pool1
I0414 06:38:14.876997  7794 net.cpp:84] Creating Layer pool1
I0414 06:38:14.876999  7794 net.cpp:406] pool1 <- conv1
I0414 06:38:14.877003  7794 net.cpp:380] pool1 -> pool1
I0414 06:38:14.877041  7794 net.cpp:122] Setting up pool1
I0414 06:38:14.877048  7794 net.cpp:129] Top shape: 128 16 14 14 (401408)
I0414 06:38:14.877049  7794 net.cpp:137] Memory required for data: 14852608
I0414 06:38:14.877051  7794 layer_factory.hpp:77] Creating layer conv2
I0414 06:38:14.877060  7794 net.cpp:84] Creating Layer conv2
I0414 06:38:14.877063  7794 net.cpp:406] conv2 <- pool1
I0414 06:38:14.877068  7794 net.cpp:380] conv2 -> conv2
I0414 06:38:14.878582  7794 net.cpp:122] Setting up conv2
I0414 06:38:14.878594  7794 net.cpp:129] Top shape: 128 32 14 14 (802816)
I0414 06:38:14.878597  7794 net.cpp:137] Memory required for data: 18063872
I0414 06:38:14.878604  7794 layer_factory.hpp:77] Creating layer relu2
I0414 06:38:14.878610  7794 net.cpp:84] Creating Layer relu2
I0414 06:38:14.878613  7794 net.cpp:406] relu2 <- conv2
I0414 06:38:14.878618  7794 net.cpp:367] relu2 -> conv2 (in-place)
I0414 06:38:14.878764  7794 net.cpp:122] Setting up relu2
I0414 06:38:14.878772  7794 net.cpp:129] Top shape: 128 32 14 14 (802816)
I0414 06:38:14.878774  7794 net.cpp:137] Memory required for data: 21275136
I0414 06:38:14.878777  7794 layer_factory.hpp:77] Creating layer pool2
I0414 06:38:14.878782  7794 net.cpp:84] Creating Layer pool2
I0414 06:38:14.878784  7794 net.cpp:406] pool2 <- conv2
I0414 06:38:14.878789  7794 net.cpp:380] pool2 -> pool2
I0414 06:38:14.878824  7794 net.cpp:122] Setting up pool2
I0414 06:38:14.878830  7794 net.cpp:129] Top shape: 128 32 7 7 (200704)
I0414 06:38:14.878832  7794 net.cpp:137] Memory required for data: 22077952
I0414 06:38:14.878834  7794 layer_factory.hpp:77] Creating layer ip1
I0414 06:38:14.878841  7794 net.cpp:84] Creating Layer ip1
I0414 06:38:14.878844  7794 net.cpp:406] ip1 <- pool2
I0414 06:38:14.878849  7794 net.cpp:380] ip1 -> ip1
I0414 06:38:14.882840  7794 net.cpp:122] Setting up ip1
I0414 06:38:14.882853  7794 net.cpp:129] Top shape: 128 480 (61440)
I0414 06:38:14.882856  7794 net.cpp:137] Memory required for data: 22323712
I0414 06:38:14.882865  7794 layer_factory.hpp:77] Creating layer relu3
I0414 06:38:14.882874  7794 net.cpp:84] Creating Layer relu3
I0414 06:38:14.882877  7794 net.cpp:406] relu3 <- ip1
I0414 06:38:14.882882  7794 net.cpp:367] relu3 -> ip1 (in-place)
I0414 06:38:14.883201  7794 net.cpp:122] Setting up relu3
I0414 06:38:14.883211  7794 net.cpp:129] Top shape: 128 480 (61440)
I0414 06:38:14.883213  7794 net.cpp:137] Memory required for data: 22569472
I0414 06:38:14.883216  7794 layer_factory.hpp:77] Creating layer ip2
I0414 06:38:14.883222  7794 net.cpp:84] Creating Layer ip2
I0414 06:38:14.883225  7794 net.cpp:406] ip2 <- ip1
I0414 06:38:14.883231  7794 net.cpp:380] ip2 -> ip2
I0414 06:38:14.883728  7794 net.cpp:122] Setting up ip2
I0414 06:38:14.883734  7794 net.cpp:129] Top shape: 128 200 (25600)
I0414 06:38:14.883755  7794 net.cpp:137] Memory required for data: 22671872
I0414 06:38:14.883761  7794 layer_factory.hpp:77] Creating layer relu4
I0414 06:38:14.883766  7794 net.cpp:84] Creating Layer relu4
I0414 06:38:14.883769  7794 net.cpp:406] relu4 <- ip2
I0414 06:38:14.883774  7794 net.cpp:367] relu4 -> ip2 (in-place)
I0414 06:38:14.883929  7794 net.cpp:122] Setting up relu4
I0414 06:38:14.883935  7794 net.cpp:129] Top shape: 128 200 (25600)
I0414 06:38:14.883937  7794 net.cpp:137] Memory required for data: 22774272
I0414 06:38:14.883940  7794 layer_factory.hpp:77] Creating layer ip3
I0414 06:38:14.883945  7794 net.cpp:84] Creating Layer ip3
I0414 06:38:14.883949  7794 net.cpp:406] ip3 <- ip2
I0414 06:38:14.883955  7794 net.cpp:380] ip3 -> ip3
I0414 06:38:14.884629  7794 net.cpp:122] Setting up ip3
I0414 06:38:14.884639  7794 net.cpp:129] Top shape: 128 10 (1280)
I0414 06:38:14.884642  7794 net.cpp:137] Memory required for data: 22779392
I0414 06:38:14.884650  7794 layer_factory.hpp:77] Creating layer loss
I0414 06:38:14.884656  7794 net.cpp:84] Creating Layer loss
I0414 06:38:14.884660  7794 net.cpp:406] loss <- ip3
I0414 06:38:14.884663  7794 net.cpp:406] loss <- label
I0414 06:38:14.884671  7794 net.cpp:380] loss -> loss
I0414 06:38:14.884681  7794 layer_factory.hpp:77] Creating layer loss
…
I0414 06:38:14.885133  7794 solver.cpp:190] Creating test net (#0) specified by net file: models/model-01/model_train_val.prototxt
I0414 06:38:14.885152  7794 net.cpp:294] The NetState phase (1) differed from the phase (0) specified by a rule in layer CNN
I0414 06:38:14.885224  7794 net.cpp:51] Initializing net from parameters: 
name: "Model"
state {
  phase: TEST
}
layer {
  name: "CNN"
  type: "Data"
  top: "data"
  top: "label"
  include {
    phase: TEST
  }
  transform_param {
    scale: 0.00390625
    mean_file: "input/dataset-01/mean_image.binaryproto"
  }
  data_param {
    source: "input/dataset-01/test_lmdb"
    batch_size: 220
    backend: LMDB
  }
}
layer {
  name: "conv1"
  type: "Convolution"
  bottom: "data"
  top: "conv1"
  param {
    lr_mult: 1
  }
  param {
    lr_mult: 2
  }
  convolution_param {
    num_output: 16
    pad: 3
    kernel_size: 7
    stride: 1
    weight_filler {
      type: "xavier"
    }
    bias_filler {
      type: "constant"
    }
  }
}
layer {
  name: "relu1"
  type: "ReLU"
  bottom: "conv1"
  top: "conv1"
}
layer {
  name: "pool1"
  type: "Pooling"
  bottom: "conv1"
  top: "pool1"
  pooling_param {
    pool: MAX
    kernel_size: 2
    stride: 2
  }
}
layer {
  name: "conv2"
  type: "Convolution"
  bottom: "pool1"
  top: "conv2"
  param {
    lr_mult: 1
  }
  param {
    lr_mult: 2
  }
  convolution_param {
    num_output: 32
    pad: 2
    kernel_size: 5
    stride: 1
    weight_filler {
      type: "xavier"
    }
    bias_filler {
      type: "constant"
    }
  }
}
layer {
  name: "relu2"
  type: "ReLU"
  bottom: "conv2"
  top: "conv2"
}
layer {
  name: "pool2"
  type: "Pooling"
  bottom: "conv2"
  top: "pool2"
  pooling_param {
    pool: MAX
    kernel_size: 2
    stride: 2
  }
}
layer {
  name: "ip1"
  type: "InnerProduct"
  bottom: "pool2"
  top: "ip1"
  param {
    lr_mult: 1
  }
  param {
    lr_mult: 2
  }
  inner_product_param {
    num_output: 480
    weight_filler {
      type: "xavier"
    }
    bias_filler {
      type: "constant"
    }
  }
}
layer {
  name: "relu3"
  type: "ReLU"
  bottom: "ip1"
  top: "ip1"
}
layer {
  name: "ip2"
  type: "InnerProduct"
  bottom: "ip1"
  top: "ip2"
  param {
    lr_mult: 1
  }
  param {
    lr_mult: 2
  }
  inner_product_param {
    num_output: 200
    weight_filler {
      type: "xavier"
    }
    bias_filler {
      type: "constant"
    }
  }
}
layer {
  name: "relu4"
  type: "ReLU"
  bottom: "ip2"
  top: "ip2"
}
layer {
  name: "ip3"
  type: "InnerProduct"
  bottom: "ip2"
  top: "ip3"
  param {
    lr_mult: 1
  }
  param {
    lr_mult: 2
  }
  inner_product_param {
    num_output: 10
    weight_filler {
      type: "xavier"
    }
    bias_filler {
      type: "constant"
    }
  }
}
layer {
  name: "accuracy"
  type: "Accuracy"
  bottom: "ip3"
  bottom: "label"
  top: "accuracy"
  include {
    phase: TEST
  }
}
layer {
  name: "loss"
  type: "SoftmaxWithLoss"
  bottom: "ip3"
  bottom: "label"
  top: "loss"
}
I0414 06:38:14.885291  7794 layer_factory.hpp:77] Creating layer CNN
I0414 06:38:14.885341  7794 db_lmdb.cpp:35] Opened lmdb input/dataset-01/test_lmdb
I0414 06:38:14.885354  7794 net.cpp:84] Creating Layer CNN
I0414 06:38:14.885360  7794 net.cpp:380] CNN -> data
I0414 06:38:14.885367  7794 net.cpp:380] CNN -> label
I0414 06:38:14.885375  7794 data_transformer.cpp:25] Loading mean file from: input/dataset-01/mean_image.binaryproto
I0414 06:38:14.885501  7794 data_layer.cpp:45] output data size: 220,1,28,28
I0414 06:38:14.887476  7794 net.cpp:122] Setting up CNN
I0414 06:38:14.887493  7794 net.cpp:129] Top shape: 220 1 28 28 (172480)
I0414 06:38:14.887497  7794 net.cpp:129] Top shape: 220 (220)
I0414 06:38:14.887501  7794 net.cpp:137] Memory required for data: 690800
I0414 06:38:14.887504  7794 layer_factory.hpp:77] Creating layer label_CNN_1_split
I0414 06:38:14.887516  7794 net.cpp:84] Creating Layer label_CNN_1_split
I0414 06:38:14.887522  7794 net.cpp:406] label_CNN_1_split <- label
I0414 06:38:14.887529  7794 net.cpp:380] label_CNN_1_split -> label_CNN_1_split_0
I0414 06:38:14.887539  7794 net.cpp:380] label_CNN_1_split -> label_CNN_1_split_1
I0414 06:38:14.887619  7794 net.cpp:122] Setting up label_CNN_1_split
I0414 06:38:14.887629  7794 net.cpp:129] Top shape: 220 (220)
I0414 06:38:14.887634  7794 net.cpp:129] Top shape: 220 (220)
I0414 06:38:14.887637  7794 net.cpp:137] Memory required for data: 692560
I0414 06:38:14.887642  7794 layer_factory.hpp:77] Creating layer conv1
I0414 06:38:14.887656  7794 net.cpp:84] Creating Layer conv1
I0414 06:38:14.887661  7794 net.cpp:406] conv1 <- data
I0414 06:38:14.887668  7794 net.cpp:380] conv1 -> conv1
I0414 06:38:14.888983  7794 net.cpp:122] Setting up conv1
I0414 06:38:14.889000  7794 net.cpp:129] Top shape: 220 16 28 28 (2759680)
I0414 06:38:14.889005  7794 net.cpp:137] Memory required for data: 11731280
I0414 06:38:14.889017  7794 layer_factory.hpp:77] Creating layer relu1
I0414 06:38:14.889027  7794 net.cpp:84] Creating Layer relu1
I0414 06:38:14.889032  7794 net.cpp:406] relu1 <- conv1
I0414 06:38:14.889040  7794 net.cpp:367] relu1 -> conv1 (in-place)
I0414 06:38:14.889515  7794 net.cpp:122] Setting up relu1
I0414 06:38:14.889528  7794 net.cpp:129] Top shape: 220 16 28 28 (2759680)
I0414 06:38:14.889530  7794 net.cpp:137] Memory required for data: 22770000
I0414 06:38:14.889534  7794 layer_factory.hpp:77] Creating layer pool1
I0414 06:38:14.889545  7794 net.cpp:84] Creating Layer pool1
I0414 06:38:14.889552  7794 net.cpp:406] pool1 <- conv1
I0414 06:38:14.889562  7794 net.cpp:380] pool1 -> pool1
I0414 06:38:14.889628  7794 net.cpp:122] Setting up pool1
I0414 06:38:14.889636  7794 net.cpp:129] Top shape: 220 16 14 14 (689920)
I0414 06:38:14.889641  7794 net.cpp:137] Memory required for data: 25529680
I0414 06:38:14.889648  7794 layer_factory.hpp:77] Creating layer conv2
I0414 06:38:14.889662  7794 net.cpp:84] Creating Layer conv2
I0414 06:38:14.889668  7794 net.cpp:406] conv2 <- pool1
I0414 06:38:14.889675  7794 net.cpp:380] conv2 -> conv2
I0414 06:38:14.890712  7794 net.cpp:122] Setting up conv2
I0414 06:38:14.890725  7794 net.cpp:129] Top shape: 220 32 14 14 (1379840)
I0414 06:38:14.890729  7794 net.cpp:137] Memory required for data: 31049040
I0414 06:38:14.890740  7794 layer_factory.hpp:77] Creating layer relu2
I0414 06:38:14.890748  7794 net.cpp:84] Creating Layer relu2
I0414 06:38:14.890751  7794 net.cpp:406] relu2 <- conv2
I0414 06:38:14.890758  7794 net.cpp:367] relu2 -> conv2 (in-place)
I0414 06:38:14.890923  7794 net.cpp:122] Setting up relu2
I0414 06:38:14.890933  7794 net.cpp:129] Top shape: 220 32 14 14 (1379840)
I0414 06:38:14.890939  7794 net.cpp:137] Memory required for data: 36568400
I0414 06:38:14.890944  7794 layer_factory.hpp:77] Creating layer pool2
I0414 06:38:14.890950  7794 net.cpp:84] Creating Layer pool2
I0414 06:38:14.890957  7794 net.cpp:406] pool2 <- conv2
I0414 06:38:14.890964  7794 net.cpp:380] pool2 -> pool2
I0414 06:38:14.891001  7794 net.cpp:122] Setting up pool2
I0414 06:38:14.891010  7794 net.cpp:129] Top shape: 220 32 7 7 (344960)
I0414 06:38:14.891012  7794 net.cpp:137] Memory required for data: 37948240
I0414 06:38:14.891016  7794 layer_factory.hpp:77] Creating layer ip1
I0414 06:38:14.891023  7794 net.cpp:84] Creating Layer ip1
I0414 06:38:14.891026  7794 net.cpp:406] ip1 <- pool2
I0414 06:38:14.891031  7794 net.cpp:380] ip1 -> ip1
I0414 06:38:14.895040  7794 net.cpp:122] Setting up ip1
I0414 06:38:14.895053  7794 net.cpp:129] Top shape: 220 480 (105600)
I0414 06:38:14.895056  7794 net.cpp:137] Memory required for data: 38370640
I0414 06:38:14.895068  7794 layer_factory.hpp:77] Creating layer relu3
I0414 06:38:14.895081  7794 net.cpp:84] Creating Layer relu3
I0414 06:38:14.895084  7794 net.cpp:406] relu3 <- ip1
I0414 06:38:14.895089  7794 net.cpp:367] relu3 -> ip1 (in-place)
I0414 06:38:14.895277  7794 net.cpp:122] Setting up relu3
I0414 06:38:14.895285  7794 net.cpp:129] Top shape: 220 480 (105600)
I0414 06:38:14.895289  7794 net.cpp:137] Memory required for data: 38793040
I0414 06:38:14.895294  7794 layer_factory.hpp:77] Creating layer ip2
I0414 06:38:14.895301  7794 net.cpp:84] Creating Layer ip2
I0414 06:38:14.895305  7794 net.cpp:406] ip2 <- ip1
I0414 06:38:14.895309  7794 net.cpp:380] ip2 -> ip2
I0414 06:38:14.895817  7794 net.cpp:122] Setting up ip2
I0414 06:38:14.895824  7794 net.cpp:129] Top shape: 220 200 (44000)
I0414 06:38:14.895826  7794 net.cpp:137] Memory required for data: 38969040
I0414 06:38:14.895831  7794 layer_factory.hpp:77] Creating layer relu4
I0414 06:38:14.895839  7794 net.cpp:84] Creating Layer relu4
I0414 06:38:14.895843  7794 net.cpp:406] relu4 <- ip2
I0414 06:38:14.895848  7794 net.cpp:367] relu4 -> ip2 (in-place)
I0414 06:38:14.896013  7794 net.cpp:122] Setting up relu4
I0414 06:38:14.896020  7794 net.cpp:129] Top shape: 220 200 (44000)
I0414 06:38:14.896023  7794 net.cpp:137] Memory required for data: 39145040
I0414 06:38:14.896025  7794 layer_factory.hpp:77] Creating layer ip3
I0414 06:38:14.896031  7794 net.cpp:84] Creating Layer ip3
I0414 06:38:14.896035  7794 net.cpp:406] ip3 <- ip2
I0414 06:38:14.896039  7794 net.cpp:380] ip3 -> ip3
I0414 06:38:14.896137  7794 net.cpp:122] Setting up ip3
I0414 06:38:14.896142  7794 net.cpp:129] Top shape: 220 10 (2200)
I0414 06:38:14.896145  7794 net.cpp:137] Memory required for data: 39153840
I0414 06:38:14.896152  7794 layer_factory.hpp:77] Creating layer ip3_ip3_0_split
I0414 06:38:14.896157  7794 net.cpp:84] Creating Layer ip3_ip3_0_split
I0414 06:38:14.896162  7794 net.cpp:406] ip3_ip3_0_split <- ip3
I0414 06:38:14.896165  7794 net.cpp:380] ip3_ip3_0_split -> ip3_ip3_0_split_0
I0414 06:38:14.896186  7794 net.cpp:380] ip3_ip3_0_split -> ip3_ip3_0_split_1
I0414 06:38:14.896219  7794 net.cpp:122] Setting up ip3_ip3_0_split
I0414 06:38:14.896224  7794 net.cpp:129] Top shape: 220 10 (2200)
I0414 06:38:14.896226  7794 net.cpp:129] Top shape: 220 10 (2200)
I0414 06:38:14.896229  7794 net.cpp:137] Memory required for data: 39171440
I0414 06:38:14.896230  7794 layer_factory.hpp:77] Creating layer accuracy
I0414 06:38:14.896236  7794 net.cpp:84] Creating Layer accuracy
I0414 06:38:14.896240  7794 net.cpp:406] accuracy <- ip3_ip3_0_split_0
I0414 06:38:14.896245  7794 net.cpp:406] accuracy <- label_CNN_1_split_0
I0414 06:38:14.896253  7794 net.cpp:380] accuracy -> accuracy
…
